lecture8/saved_mnists/mnist-2500.pth (torch_old, 177308 bytes, 16 tensors)

conv1.weight f4 [10, 1, 5, 5]
-0.14663506 0.18630517 0.020729301 -0.19468698 -0.1469365 -0.0012550771 0.17355734 0.2120611
-0.06661867 -0.20740555 0.28900456 0.3107338 -0.034570266 -0.036851496 0.05460097 0.17134327
0.28625032 -0.09783237 0.031760283 -0.1181118 -0.048345502 0.19178946 -0.059073377 0.2503138
0.28026575 -0.16832414 -0.18559957 -0.057249684 -0.17207883 -0.14532717 -0.035971258 0.17647621
0.13980761 0.076754875 -0.17678425 -0.16656432 -0.08165889 0.021696689 -0.032280277 0.19429778
-0.19619541 0.07744225 -0.044459093 0.029963467 -0.14365092 0.09196977 -0.16770439 0.009980035
-0.095695205 0.18114749 -0.07831495 0.03255117 0.0286042 0.3028598 0.04845664 0.22056137
0.19270012 0.40096682 0.41345167 0.3695431 0.2968696 0.11869255 0.38723937 0.30860388
0.12057401 0.020996911 0.24420956 0.11870457 0.2643768 0.1376998 0.24904238 0.2528478
-0.070675544 0.26562342 0.16627553 0.09796511 -0.12916544 0.1654136 0.2532824 0.1818644
0.16482456 -0.108613126 0.23745747 0.09562791 -0.06862088 0.08476886 0.27403587 0.1557536
0.26861176 -0.145593 0.23729737 0.11092851 0.35698622 0.23033497 0.03882556 0.29732737
0.0021713197 0.1791107 -0.0703895 0.1315257 -0.1288458 -0.024503017 -0.17477465 -0.015591255
-0.17745239 0.17456184 0.08950503 0.0041314205 0.09627302 0.07376916 -0.087478496 -0.08801409
-0.0063475017 -0.113132305 -0.09408245 0.08915255 0.16027905 -0.13322349 0.10676423 -0.17344181
-0.06255161 -0.1432122 0.12144254 0.032907717 0.0021748685 0.13894206 0.33137017 0.46149763
0.4243301 0.061964843 -0.014719725 0.38238427 0.4559862 0.43083847 0.046157543 0.09559448
0.38935554 0.29242975 0.40383938 0.0881635 0.20863312 0.3896068 0.15326811 0.33564126
0.12415832 0.26319844 0.24263304 0.042928558 -0.083863474 0.06410607 -0.094161585 0.043518286
0.28721967 0.3290511 0.33739504 -0.16836002 -0.14512277 0.1751812 0.2944736 0.17919585
-0.10665471 0.10394385 0.14783444 0.27555862 0.3122978 -0.13364188 0.2164339 0.094222605
0.04945203 0.024702428 -0.15299356 0.21524097 0.23851316 0.26073325 0.20565173 -0.16218723
-0.11631168 -0.0040338943 0.3270305 0.23141022 0.076639675 -0.032155957 0.2904471 0.16856752
0.22255306 0.141949 0.00926996 0.4205928 0.34411806 -0.03993461 0.039150782 0.23009452
0.3137675 0.14605622 0.1463648 0.112366356 0.051649082 0.10192001 0.00627597 -0.0066344505
0.06467905 0.048905447 0.0640151 -0.1356883 0.16861616 -0.13457134 -0.09253398 -0.121630296
0.255087 -0.0045943307 -0.12059119 -0.15154125 -0.05740547 0.12022052 -0.1335113 0.032341164
-0.07685102 0.22637917 0.109794766 0.076784246 0.19641244 -0.040773068 0.009507681 0.19023721
-0.03754912 0.17136785 0.078641415 -0.19404481 -0.11735973 -0.05905473 0.04375816 0.014800309
-0.09464257 -0.056042373 0.19460055 -0.105505005 -0.09699308 -0.0844709 -0.16076536 -0.09729926
0.10369028 0.016387114 -0.10586728 0.13672598 0.00028994886 0.15613826 -0.18382028 -0.096681006
-0.065706916 -0.13275734
00000000: 8027 16be c8c6 3e3e 7fd0 a93c 065c 47be
00000010: 8676 16be 6681 a4ba 04b9 313e 8c26 593e
00000020: 5f6f 88bd 1f62 54be 68f8 933e 8018 9f3e
00000030: 8d99 0dbd 98f1 16bd 44a5 5f3d 9c74 2f3e
00000040: 678f 923e 565c c8bd 1217 023d 99e4 f1bd
00000050: ef05 46bd 7564 443e edf6 71bd 2129 803e
00000060: fe7e 8f3e 2a5d 2cbe d00d 3ebe a57e 6abd
00000070: 6f35 30be a5d0 14be 9956 13bd 2eb6 343e
00000080: ba29 0f3e a931 9d3d ee06 35be d68f 2abe
00000090: c73c a7bd 41bd b13c 5338 04bd fff5 463e
000000a0: 73e7 48be 0b9a 9e3d bd1a 36bd f275 f53c
000000b0: 3a19 13be a65a bc3d b3ba 2bbe 4d83 233c
000000c0: d9fb c3bd ba7e 393e 9763 a0bd 6054 053d
000000d0: 5b53 ea3c 7110 9b3e 787a 463d d7da 613e
000000e0: 2e53 453e 864b cd3e f0af d33e c134 bd3e
000000f0: 4bff 973e 1415 f33d 3d44 c63e 5401 9e3e
00000100: 82ef f63d b701 ac3c 1212 7a3e 621b f33d
00000110: 655c 873e 2d01 0d3e f704 7f3e 4475 813e
00000120: 57be 90bd cbff 873e 2244 2a3e eea1 c83d
00000130: f243 04be 2f62 293e 3bae 813e a93a 3a3e
00000140: c5c7 283e 8f70 debd 0d28 733e 91d8 c33d
00000150: 1b89 8cbd 4c9b ad3d 6e4e 8c3e df7d 1f3e
00000160: 7b87 893e 5516 15be 15fe 723e 7d2e e33d
00000170: e6c6 b63e eedc 6b3e 8d07 1f3d 4b3b 983e
00000180: b34c 0e3b cc68 373e 5f28 90bd acae 063e
00000190: 27f0 03be 8dba c8bc 20f8 32be 7772 7fbc
000001a0: 14b6 35be 57c0 323e 6a4e b73d de60 873b
000001b0: ca2a c53d 4914 973d ed27 b3bd bb40 b4bd
000001c0: b4fe cfbb e9b1 e7bd 4dae c0bd 9d95 b63d
000001d0: 3120 243e bd6b 08be 34a7 da3d bb9a 31be
000001e0: 0f1b 80bd 38a6 12be deb6 f83d 3eca 063d
000001f0: 3d88 0e3b d446 0e3e 5aa9 a93e 6b49 ec3e
00000200: cb41 d93e d9ce 7d3d 002b 71bc dfc7 c33e
00000210: 0677 e93e dc96 dc3e b10f 3d3d 0ac7 c33d
00000220: 9c59 c73e 5ab9 953e 09c4 ce3e 118f b43d
00000230: eca3 553e 8b7a c73e 51f2 1c3e 2cd9 ab3e
00000240: b846 fe3d f2c1 863e cc74 783e dbd5 2f3d
00000250: 9dc0 abbd 0b4a 833d cad7 c0bd 3b40 323d
00000260: 750e 933e 6379 a83e 0bbf ac3e 9266 2cbe
00000270: 109b 14be b362 333e 3ec5 963e 1e7f 373e
00000280: c96d dabd 83e0 d43d e961 173e 0516 8d3e
00000290: 7fe5 9f3e 6bd9 08be d9a0 5d3e c8f7 c03d
000002a0: 368e 4a3d bf5c ca3c 58aa 1cbe 2168 5c3e
000002b0: cb3c 743e d47e 853e 5e96 523e 6914 26be
000002c0: d134 eebd c22e 84bb 8b70 a73e cdf6 6c3e
000002d0: 43f5 9c3d f7b5 03bd 7bb5 943e f79c 2c3e
000002e0: f3e4 633e 145b 113e 08e1 173c f157 d73e
000002f0: 3e30 b03e 7992 23bd 925c 203d e69d 6b3e
00000300: 22a6 a03e c38f 153e a7e0 153e 5520 e63d
00000310: fd8d 533d 70bb d03d a7a6 cd3b ce65 d9bb
00000320: 7376 843d 1451 483d 591a 833d e0f1 0abe
00000330: b7a9 2c3e 12cd 09be 7582 bdbd 4e19 f9bd
00000340: c39a 823e 0a8c 96bb 84f8 f6bd a12d 1bbe
00000350: 0022 6bbd 2d36 f63d 30b7 08be 2b78 043d
00000360: 1164 9dbd f1cf 673e 14dc e03d 0f41 9d3d
00000370: 5820 493e a901 27bd 1bc6 1b3c 8bcd 423e
00000380: 1bcd 19bd 0e7b 2f3e c00e a13d afb3 46be
00000390: 4c5a f0bd 5fe3 71bd c23b 333d ff7c 723c
000003a0: f7d3 c1bd b08c 65bd 5e45 473e 0213 d8bd
000003b0: 4fa4 c6bd 14ff acbd ad9f 24be d644 c7bd
000003c0: 925b d43d 453e 863c f2d0 d8bd e501 0c3e
000003d0: 4704 9839 b5e2 1f3e 623b 3cbe b100 c6bd
000003e0: 5991 86bd 8af1 07be

conv1.bias f4 [10]
0.17426787 0.1051325 0.0019366494 -0.00014770584 -0.110222 0.17032886 0.018229177 0.00015018095
0.2101552 -0.132868
00000000: 4773 323e b54f d73d 2cd7 fd3a 7ce1 1ab9
00000010: 12bc e1bd b06a 2e3e 5b55 953c e479 1d39
00000020: ed32 573e 8d0e 08be

conv2.weight f4 [20, 10, 5, 5]
0.06174963 0.028486501 -0.04879223 0.025051488 -0.043268315 -0.028674556 0.012408882 0.04452872
-0.00786608 -0.0801928 -0.014369266 0.044020083 0.12720391 -0.038437687 -0.07080609 -0.092685595
0.11289069 0.033321466 -0.019722415 0.022147082 0.004597885 0.022528186 0.04331919 0.001476164
0.046146195 0.046460453 0.010741878 -0.037021868 0.054026548 -0.00071011635 -0.056372833 0.0030428728
0.05287376 -0.04664721 -0.029622393 -0.04018507 -0.051813632 0.03351028 0.057046592 0.06415594
-0.06010152 0.041206043 -0.0041338922 -0.017579043 0.027250439 -0.048195805 0.049629126 -0.002832047
0.031530824 -0.03451272 0.04479108 0.06648084 0.04771849 -0.059037063 -0.07190465 0.033783898
0.08762514 -0.04985969 -0.15345567 -0.06463088 0.01715604 0.05431207 -0.03674685 -0.15800567
-0.07672291 0.05392916 0.10623021 -0.02098325 -0.073729716 -0.023335814 0.007893739 0.09457035
0.08332292 0.022839561 0.057774328 -0.041472472 0.066922 0.06883712 0.023618238 -0.020118032
-0.006236988 0.07403793 0.10636459 -0.07906877 -0.03959225 0.037301537 0.14166455 -0.0401772
-0.08026575 -0.081297934 0.07642834 -0.0065601235 0.06376518 0.017488468 0.04985197 -0.036647756
0.034816377 0.08143049 0.067337774 0.059709333 0.058594115 0.026479727 -0.04389938 0.030443009
0.05120437 0.009131137 -0.03943376 -0.023393683 0.010739936 -0.010059238 0.017464478 -0.047162637
-0.011357548 0.0038685487 -0.015201599 0.050672174 -0.008896359 0.04174344 0.035824906 0.0056925914
0.020701263 -0.0009415205 0.042631466 -0.021225316 0.038711134 -0.061323542 0.004212911 0.10555464
-0.043404527 -0.08740074 -0.040967878 0.08715223 0.119907066 -0.11960893 -0.057735823 0.057129696
0.14145088 0.06755522 -0.18257561 -0.11265853 0.036482703 0.12430076 0.014973439 -0.08292893
0.0022512074 -0.03934311 0.11194984 0.049296647 0.0116252145 0.022727706 0.052060273 0.08758978
0.006387436 0.012653674 -0.07880613 0.07771759 0.15690185 -0.05789658 -0.028669085 -0.05173836
0.16164862 0.13425542 -0.12829344 -0.020443257 -0.028913856 0.09840772 0.06676409 -0.07157931
-0.07368386 -0.015436718 0.059873074 0.0664115 0.036156997 -0.020184051 -0.056205742 -0.004384257
-0.026415976 0.07063817 -0.031040953 -0.019345723 0.023364767 0.07716283 0.022675734 -0.12236825
-0.07934775 0.080368936 0.106118485 -0.12193906 -0.07718681 -0.07911132 0.104322106 0.065146424
0.006688498 -0.0010329061 -0.04195222 -0.009227559 -0.005866843 -0.04160875 -0.0050856606 0.0025423828
-0.016060822 0.00922723 0.013353136 -0.050883196 -0.07408842 0.028618807 0.08338411 -0.040447235
0.03220383 -0.020981682 0.035036728 0.040190477 0.019924622 -0.022481525 0.025246914 0.07332186
-0.02423517 0.0052575306 0.042654783 0.04140517 0.00073210755 0.04870641 -0.04300356 -0.0054876204
0.033709247 0.051274106 -0.042251717 0.0636025 -0.01705846 -0.04570868 -0.04860405 0.010645133
0.05115844 -0.041852243 0.0499365 -0.03331593 -0.015866186 0.022283085 -0.028503306 -0.055673823
0.0021859808 -0.0289674 -0.017706512 -0.044262554 -0.03864488 -0.027437218 -0.010487324 -0.004791455
0.017414678 -0.041492168 -0.0057075834 0.0031768356 0.010710951 0.04456208 -0.04060545 0.0340436
00000000: 2eed 7c3d 865c e93c 5dda 47bd c738 cd3c
00000010: 1e3a 31bd e7e6 eabc a04e 4b3c bf63 363d
00000020: bbe0 00bc 1f3c a4bd 126d 6bbc 674e 343d
00000030: be41 023e d670 1dbd c902 91bd f2d1 bdbd
00000040: 3c33 e73d 177c 083d e790 a1bc cc6d b53c
00000050: dba9 963b 088d b83c 776f 313d d87b c13a
00000060: cb03 3d3d 514d 3e3d b4fe 2f3c 3ea4 17bd
00000070: f14a 5d3d 1a27 3aba 33e7 66bd ef6a 473b
00000080: 2892 583d 2511 3fbd a9aa f2bc 1a99 24bd
00000090: 883a 54bd 1342 093d b0a9 693d 3164 833d
000000a0: 032d 76bd abc7 283d 9a75 87bb ed01 90bc
000000b0: 503c df3c f768 45bd e947 4b3d dd99 39bb
000000c0: 7726 013d 365d 0dbd da76 373d 1b27 883d
000000d0: 7774 433d d9d0 71bd bf42 93bd fc60 0a3d
000000e0: cf74 b33d ad39 4cbd 7c23 1dbe 325d 84bd
000000f0: d38a 8c3c 5576 5e3d dd83 16bd 3dcc 21be
00000100: e720 9dbd d3e4 5c3d 398f d93d 11e5 abbc
00000110: 9bff 96bd c02a bfbc be54 013c 1aae c13d
00000120: 35a5 aa3d 081a bb3c c6a4 6c3d 0adf 29bd
00000130: 670e 893d 7afa 8c3d 097b c13c 92ce a4bc
00000140: a65f ccbb 33a1 973d aed5 d93d cfee a1bd
00000150: 7c2b 22bd 7fc9 183d 8310 113e d990 24bd
00000160: 5f62 a4bd 887f a6bd 7686 9c3d 4ef6 d6bb
00000170: 5297 823d fa43 8f3c 9431 4c3d f51b 16bd
00000180: 9e9b 0e3d 07c5 a63d 63e8 893d c691 743d
00000190: 6200 703d 03ec d83c d6cf 33bd 9e63 f93c
000001a0: acbb 513d c49a 153c 4b85 21bd 1ca4 bfbc
000001b0: 8ef6 2f3c 81cf 24bc aa11 8f3c 9c2d 41bd
000001c0: 0215 3abc 7a87 7d3b 2110 79bc a08d 4f3d
000001d0: 09c2 11bc 2bfb 2a3d 23bd 123d eb88 ba3b
000001e0: b295 a93c 5fd0 76ba 559e 2e3d b7e0 adbc
000001f0: 918f 1e3d 652e 7bbd 750c 8a3b 082d d83d
00000200: f2c8 31bd 29ff b2bd efcd 27bd de7c b23d
00000210: d691 f53d 87f5 f4bd 667c 6cbd d400 6a3d
00000220: 80d8 103e 645a 8a3d 1af5 3abe 84b9 e6bd
00000230: e36e 153d 6691 fe3d 2853 753c a5d6 a9bd
00000240: fe88 133b 3e26 21bd f545 e53d 48eb 493d
00000250: af77 3e3c 742f ba3c 273d 553d 4562 b33d
00000260: b24d d13b 5b51 4f3c 1c65 a1bd 662a 9f3d
00000270: e1aa 203e f724 6dbd 6edb eabc 9aeb 53bd
00000280: 3787 253e 417a 093e 5b5f 03be 9e78 a7bc
00000290: c0dc ecbc fd89 c93d 9cbb 883d 2c98 92bd
000002a0: 90e7 96bd 4aea 7cbc 783d 753d c102 883d
000002b0: 5c19 143d 0659 a5bc fe37 66bd d0a9 8fbb
000002c0: 5166 d8bc bfaa 903d 9949 febc ec7a 9ebc
000002d0: 7867 bf3c 8c07 9e3d 76c2 b93c 349c fabd
000002e0: 1381 a2bd 7898 a43d a654 d93d 30bb f9bd
000002f0: 1e14 9ebd 1e05 a2bd d4a6 d53d 7d6b 853d
00000300: 302b db3b 9462 87ba 17d6 2bbd 302f 17bc
00000310: a53e c0bb f06d 2abd 9da5 a6bb 1b9e 263b
00000320: fc91 83bc cf2d 173c 1dc7 5a3c e66a 50bd
00000330: abbb 97bd fd71 ea3c 4ac5 aa3d 00ac 25bd
00000340: 2ae8 033d c7e1 abbc ac82 0f3d c59e 243d
00000350: f638 a33c 2d2b b8bc 9ed2 ce3c c529 963d
00000360: d688 c6bc 5d47 ac3b c8b6 2e3d 7898 293d
00000370: e8ea 3f3a 5f80 473d 8024 30bd 7fd1 b3bb
00000380: b512 0a3d cc04 523d 2310 2dbd 0742 823d
00000390: 2fbe 8bbc 0639 3bbd 0a15 47bd ed68 2e3c
000003a0: 838b 513d 426d 2bbd 378a 4c3d 4976 08bd
000003b0: cef9 81bc 048b b63c c47f e9bc 3c0a 64bd
000003c0: ac42 0f3b 0a4d edbc 3f0d 91bc a74c 35bd
000003d0: 184a 1ebd 04c4 e0bc 06d3 2bbc a301 9dbb
000003e0: 3aa9 8e3c b1f3 29bd ae06 bbbb 7532 503b
000003f0: fc7c 2f3c ba86 363d e651 26bd 4d71 0b3d

conv2.bias f4 [20]
0.03201152 0.00042068827 -0.05965798 -0.0630881 0.0619754 0.036712345 0.06905598 -0.052236743
0.034755327 -0.01285871 -0.008410013 0.013795292 0.0105951335 -0.05854249 -0.04759874 0.016233955
-0.0004594483 0.08080547 0.082509905 0.0032581307
00000000: 831e 033d d38f dc39 ed5b 74bd 5534 81bd
00000010: ebd9 7d3d af5f 163d 396d 8d3d 32f6 55bd
00000020: 9a5b 0e3d 57ad 52bc 27ca 09bc a605 623c
00000030: 3697 2d3c 40ca 6fbd e5f6 42bd 12fd 843c
00000040: 1be2 f0b9 577d a53d f4fa a83d 5d86 553b

fc1.weight f4 [50, 320]
-0.016793793 -0.0065598274 0.070768446 0.08292006 -0.05697372 -0.07324672 0.024181977 0.0064791422
-0.051431544 -0.06099719 0.021831825 -0.061309285 0.041886203 -0.06705346 -0.03317337 0.029390605
-0.0034250366 0.0006471132 0.08724649 0.04743925 -0.048339542 0.016972201 -0.047446262 -0.029250966
-0.043565683 0.009686904 0.034478463 0.061077885 -0.037609275 -0.012503701 0.023151534 -0.007433017
0.040639333 -0.023573862 0.071247004 0.089634195 -0.0018732427 -0.11061092 0.022921704 0.023287091
0.029426869 0.026867915 0.051718894 -0.058583237 0.044263758 0.0075880187 -0.06288794 -0.01725216
0.031988405 -0.038280945 -0.036917817 0.02287867 -0.043919362 -0.052578215 0.05140944 -0.037208755
0.0497543 -0.005267706 0.047730133 0.0042335293 -0.010234937 0.031181693 0.036035903 -0.037788168
0.029999368 0.04015601 0.018594636 0.024070073 -0.010543977 0.028775364 -0.008345596 -0.0064046467
0.016456543 0.036931463 -0.09292429 -0.06291538 -0.029530128 -0.032954343 -0.019299798 0.016827729
0.06916207 0.051969662 0.045058917 -0.010743962 0.034340613 -0.028942565 -0.01840666 0.03516593
-0.04100872 -0.0010077684 0.005838344 -0.016957974 0.022678394 0.029165128 0.032741986 -0.018387318
-0.021662718 -0.020463403 -0.028581517 -0.0258409 -0.006666343 0.013349338 -0.00061405846 0.08795227
-0.007139137 0.01987632 0.06899694 -0.06507041 0.011076181 -0.060786635 -0.01218012 -0.044349764
-0.05115612 -0.07628077 0.03701017 -0.029545061 -0.06939562 0.055404793 0.0681665 0.03499641
-0.051566858 -0.03159157 -0.019091716 -0.042461142 -0.031342622 -0.0013495316 0.0685117 0.05557691
0.0142550785 -0.0016704556 -0.02274469 -0.055805992 0.017769994 -0.06229316 0.04248974 0.019406572
0.020801086 0.09422471 0.015130319 -0.038081516 -0.032176252 0.060810994 -0.023171376 0.045387864
-0.004381607 0.02309182 -0.021594055 -0.006515808 0.018821446 0.052656125 -0.041021977 0.039227452
-0.023079738 -0.024549285 -0.017843746 -0.04284836 -0.048430137 -0.05421268 -0.008223386 -0.014520003
0.055051014 0.06282386 -0.018198162 -0.049050532 0.012853844 0.04925783 0.034295145 0.0015282381
0.0026636485 0.014306012 0.055013467 0.02458004 -0.05796095 -0.01674338 -0.020911966 -0.051181756
-0.0158737 0.018752938 0.03527243 -0.038216718 0.006402123 0.041626845 0.03995842 0.046957653
0.005705685 -0.006393871 0.006871442 -0.02869805 -0.0623651 0.00011601351 -0.033966914 0.015342177
-0.028904552 0.053916164 0.031082815 0.07674287 -0.0079234 0.069398284 0.059657443 0.045747556
-0.08158431 -0.0126277255 -0.013347044 0.025187425 -0.038993433 0.0089335805 0.05162991 -0.005523406
0.034429293 0.056009516 -0.013913294 -0.05832889 -0.0016622619 0.00019037907 0.021324413 0.039515976
0.030531641 -0.023861527 0.05012734 0.028446317 -0.058940675 -0.046212975 -0.036002893 0.002667852
0.039560437 0.015514803 0.035477754 0.006412516 -0.036031824 -0.019553196 -0.04340586 -0.031152751
-0.021276677 0.005749975 -0.03428114 -0.038126756 0.025898503 0.019383997 0.017768096 0.06027164
0.041210473 0.0037239653 0.023520838 -0.04915772 0.016966404 0.0533302 -0.0050135627 -0.024291765
-0.04012466 0.042426754 0.049399428 -0.0039212676 0.014462663 0.036169536 -0.051467925 0.005716801
00000000: 2393 89bc d2f3 d6bb 0cef 903d fed1 a93d
00000010: 475d 69bd 6002 96bd 4819 c63c fc4e d43b
00000020: e2a9 52bd 31d8 79bd a8d8 b23c 721f 7bbd
00000030: de90 2b3d 5353 89bd cde0 07bd 91c4 f03c
00000040: 9476 60bb 08a3 293a 4aae b23d a94f 423d
00000050: afff 45bd 4909 8b3c 0357 42bd b99f efbc
00000060: ee71 32bd d2b5 1e3c 4a39 0d3d ce2c 7a3d
00000070: 2f0c 1abd 53dc 4cbc 49a8 bd3c aa90 f3bb
00000080: 6e75 263d f91d c1bc f3e9 913d 2292 b73d
00000090: 9887 f5ba fa87 e2bd 4cc6 bb3c 92c4 be3c
000000a0: 9e10 f13c 1a1a dc3c 31d7 533d faf4 6fbd
000000b0: ea4d 353d eaa4 f83b 64cb 80bd 6754 8dbc
000000c0: 4606 033d 7bcc 1cbd 2337 17bd 0c6c bb3c
000000d0: cae4 33bd 415c 57bd b492 523d 3568 18bd
000000e0: 2acb 4b3d b89c acbb ac80 433d 6bb9 8a3b
000000f0: 70b0 27bc c070 ff3c 629a 133d c4c7 1abd
00000100: 3cc1 f53c a17a 243d c753 983c 9a2e c53c
00000110: a5c0 2cbc 50ba eb3c f7bb 08bc 12de d1bb
00000120: dfcf 863c 7245 173d 174f bebd c7d9 80bd
00000130: 2be9 f1bc 22fb 06bd 9c1a 9ebc 4eda 893c
00000140: d8a4 8d3d 24de 543d b38f 383d 7107 30bc
00000150: bea8 0c3d f518 edbc 90c9 96bc 260a 103d
00000160: c2f8 27bd 1917 84ba 944f bf3b 73eb 8abc
00000170: 0ac8 b93c b5eb ee3c 761c 063d 00a1 96bc
00000180: 0376 b1bc dea2 a7bc c923 eabc 4cb0 d3bc
00000190: 5771 dabb 2fb7 5a3c c4f8 20ba 5220 b43d
000001a0: 6cef e9bb aad3 a23c 454e 8d3d a343 85bd
000001b0: df78 353c 68fb 78bd 208f 47bc 19a8 35bd
000001c0: 1489 51bd 1839 9cbd fa97 173d 7c08 f2bc
000001d0: 4a1f 8ebd 23f0 623d e19a 8b3d 6558 0f3d
000001e0: c537 53bd 2966 01bd 3b66 9cbc bceb 2dbd
000001f0: 1f61 00bd c4e2 b0ba dd4f 8c3d 9da4 633d
00000200: 228e 693c 30f3 daba 1253 babc d394 64bd
00000210: 6192 913c 1d27 7fbd b909 2e3d 88fa 9e3c
00000220: 0a67 aa3c e2f8 c03d 28e5 773c 5dfb 1bbd
00000230: 3fcb 03bd f314 793d e6d1 bdbc a0e8 393d
00000240: 9593 8fbb 0e2b bd3c 04e6 b0bc 8f82 d5bb
00000250: 6f2f 9a3c f3ad 573d a906 28bd f7ac 203d
00000260: b811 bdbc 951b c9bc 0c2d 92bc c381 2fbd
00000270: ae5e 46bd 1d0e 5ebd 61bb 06bc 4fe5 6dbc
00000280: 2c7d 613d cca9 803d 5014 95bc 36e9 48bd
00000290: ee98 523c 94c2 493d 1179 0c3d 294f c83a
000002a0: 9b90 2e3b c363 6a3c cd55 613d 145c c93c
000002b0: 7668 6dbd 6a29 89bc 924f abbc f6a3 51bd
000002c0: 9009 82bc c39f 993c d379 103d 2289 1cbd
000002d0: e6c8 d13b e980 2a3d 71ab 233d ab56 403d
000002e0: c1f6 ba3b ad83 d1bb d529 e13b 2c18 ebbc
000002f0: 8c72 7fbd 474c f338 e420 0bbd c15d 7b3c
00000300: 3dc9 ecbc 32d7 5c3d 63a1 fe3c 5e2b 9d3d
00000310: 26d1 01bc b020 8e3d 5d5b 743d ca61 3b3d
00000320: ad15 a7bd 85e4 4ebc 8fad 5abc dc55 ce3c
00000330: 94b7 1fbd 275e 123c e279 533d b0fd b4bb
00000340: bb05 0d3d 3c6a 653d 96f4 63bc 46ea 6ebd
00000350: 41e0 d9ba 7ea0 4739 89b0 ae3c 81db 213d
00000360: 7e1d fa3c 4079 c3bc 5352 4d3d 4008 e93c
00000370: c76b 71bd d149 3dbd c577 13bd 21d7 2e3b
00000380: 200a 223d cd31 7e3c 1f51 113d 1520 d23b
00000390: 1b96 13bd 062e a0bc 58ca 31bd 0e34 ffbc
000003a0: 6d4c aebc 496a bc3b 616a 0cbd cd2a 1cbd
000003b0: 1929 d43c 30cb 9e3c 668e 913c 65df 763d
000003c0: 50cc 283d c50d 743b c6ae c03c 9b59 49bd
000003d0: 21fd 8a3c c570 5a3d d048 a4bb 86ff c6bc
000003e0: c159 24bd adc7 2d3d 0e57 4a3d fa7d 80bb
000003f0: cef4 6c3c 8226 143d 08d0 52bd 0154 bb3b

fc1.bias f4 [50]
0.026167748 -0.04433357 -0.036264308 0.03225245 0.02778925 0.053021938 -0.006097278 -0.012200768
-0.008405124 -0.039704353 0.03945992 0.025915438 0.026130646 -0.05725318 -0.004781057 0.05241615
0.0631034 -0.018821403 0.031168178 0.02697465 -0.0360287 0.0055428613 -0.005962598 -0.016243283
0.01712469 0.014789821 0.058578696 0.016828919 -0.017472465 0.036512904 -0.031874377 0.00062551204
-0.017534196 -0.016238632 -0.0027420255 -0.028805269 -0.018081505 0.050720483 -0.055578098 0.03197571
0.06507694 -0.00276123 0.0115878135 -0.0023858403 0.040259205 -0.022090558 0.017064465 0.030221406
0.06902591 -0.003947638
00000000: bf5d d63c 1e97 35bd e289 14bd 251b 043d
00000010: 48a6 e33c 882d 593d adcb c7bb bbe5 47bc
00000020: a5b5 09bc 08a1 22bd baa0 213d 9d4c d43c
00000030: f00f d63c 4f82 6abd 6aaa 9cbb 51b2 563d
00000040: 5b3c 813d 582f 9abc 6854 ff3c f1f9 dc3c
00000050: d592 13bd e4a0 b53b e661 c3bb a210 85bc
00000060: 1449 8c3c 0151 723c 37f0 6f3d cddc 893c
00000070: 6a22 8fbc 8e8e 153d b58e 02bd 67f9 233a
00000080: e0a3 8fbc e106 85bc 8eb3 33bb 07f9 ebbc
00000090: aa1f 94bc 48c0 4f3d dca5 63bd f6f8 023d
000000a0: 0f47 853d c1f5 34bb d0da 3d3c c25b 1cbb
000000b0: d6e6 243d 42f7 b4bc c7ca 8b3c e292 f73c
000000c0: 755d 8d3d 305b 81bb

fc2.weight f4 [10, 50]
-0.1893447 -0.16748202 -0.13614942 -0.18713309 0.14701697 0.10585365 -0.06647592 0.068043254
0.14810124 0.1417403 -0.10915166 -0.20959544 0.19196616 0.07919834 0.10092867 0.0750991
-0.11386376 0.022813523 -0.24630818 -0.19121113 0.011686646 -0.08930422 0.2308454 -0.02163
-0.09577543 0.02156516 0.011236933 -0.23633082 0.08283064 0.171034 0.186819 -0.11116441
0.2680558 0.04456282 0.02872661 -0.1291727 0.029654887 -0.027790016 -0.023568371 -0.041695178
0.07030928 0.14668868 0.07672748 0.14229679 -0.12615915 -0.107517205 0.031368133 -0.20003465
-0.0891286 -0.07305758 0.23660886 -0.037753444 0.058245443 0.14128137 -0.07445844 -0.3317055
0.12595575 0.033177093 0.0004870073 0.06213162 0.24699013 0.17248459 -0.24854259 -0.12612799
-0.04400731 -0.031755578 -0.014619059 -0.16551314 -0.06309663 -0.099631175 0.18864101 0.14001985
0.020412529 -0.1898096 0.17795536 -0.20964473 -0.073301725 0.23066929 -0.10067747 -0.08833396
-0.026623487 -0.07850714 0.10392239 -0.026324425 -0.117546655 0.13343808 0.09183319 -0.047517724
-0.012591249 -0.012907134 -0.18696798 -0.15618329 -0.090380974 -0.17254381 0.21020061 0.14367057
-0.13792253 -0.20440528 0.22023109 0.12300049 -0.05818958 -0.053594746 -0.009900563 0.14564948
0.054477632 -0.015082741 0.10084524 0.046524767 0.11408682 -0.006033244 -0.09454875 0.18395454
-0.100312054 -0.06534176 -0.14446616 0.17422682 -0.13953201 0.14840327 -0.119423136 -0.10074573
0.052935638 0.08627384 0.14457376 -0.15793358 0.10509115 -0.22956853 0.10052472 -0.12416749
-0.109277636 -0.012896138 -0.098407514 -0.10507028 -0.014960196 0.2561485 0.11657774 0.16168614
0.101192415 0.20635173 -0.09321079 0.05203146 -0.092556104 0.10906705 0.17533062 -0.008114379
0.13989043 -0.1769821 0.01390771 0.24971063 -0.2515729 -0.015455422 0.18435065 -0.1073071
0.036427658 0.09343081 0.14978509 -0.047249682 -0.22571184 0.13524097 -0.080478944 0.093142204
-0.23613995 -0.042525236 0.14370047 -0.022424307 -0.05830147 0.22650447 0.2277269 -0.04215041
0.13130757 0.07342364 0.00045552314 0.101143934 -0.08104034 -0.0016212247 -0.1801943 0.01944363
-0.06278111 0.13337709 -0.08772989 -0.09398109 -0.07798752 0.049119502 0.046146657 0.1298103
0.11968415 0.048818327 -0.065136306 0.08582847 -0.024946293 -0.11928681 -0.2769082 -0.14201577
0.029687975 -0.09750762 0.18045548 -0.0048366934 -0.003582969 0.045873545 -0.077539146 -0.0050672255
-0.06573257 -0.04880643 -0.07937514 -0.21592258 -0.275174 -0.05447889 -0.018187447 0.118077986
-0.1399493 -0.12807389 0.21503328 -0.20962903 0.121966004 0.09359018 0.048995 -0.22821413
-0.13863136 0.13302985 0.20924704 0.17360355 -0.047521 -0.008368854 0.12617676 0.21847019
0.15751958 -0.0805178 -0.09189919 -0.0743678 -0.0026930952 -0.14380279 0.026884535 0.12436704
-0.1247805 0.11973376 -0.1299269 -0.16718443 0.05458724 0.18853283 -0.13207556 0.098957956
0.036666255 -0.19476667 -0.085606754 0.18639407 0.012438325 0.21101394 0.16579767 0.23812237
-0.08283522 -0.009824234 -0.14945409 0.13874844 -0.02882993 0.22271594 0.042678833 0.042590033
00000000: 94e3 41be 6880 2bbe c16a 0bbe d19f 3fbe
00000010: 9e8b 163e ccc9 d83d 8724 88bd 435a 8b3d
00000020: daa7 173e 5f24 113e e88a dfbd 30a0 56be
00000030: c792 443e bd32 a23d b1b3 ce3d 8fcd 993d
00000040: 6731 e9bd 6de3 ba3c 3638 7cbe dacc 43be
00000050: 5979 3f3c 22e5 b6bd bd62 6c3e 6631 b1bc
00000060: e925 c4bd 6ba9 b03c 1d1b 383c b500 72be
00000070: 1ca3 a93d 8923 2f3e 7b4d 3f3e 2baa e3bd
00000080: 9c3e 893e 8187 363d 1154 eb3c d945 04be
00000090: ceee f23c e3a7 e3bc 7512 c1bc 90c8 2abd
000000a0: 50fe 8f3d 8f35 163e 4c23 9d3d 40b6 113e
000000b0: dd2f 01be fb31 dcbd df7b 003d e2d5 4cbe
000000c0: 0e89 b6bd 369f 95bd 9849 723e 5ba3 1abd
000000d0: c692 6e3d 10ac 103e ab7d 98bd 4ed5 a9be
000000e0: 8bfa 003e b4e4 073d 0355 ff39 ba7d 7e3d
000000f0: fbea 7c3e cd9f 303e f381 7ebe b227 01be
00000100: 0241 34bd 2312 02bd c784 6fbc 477c 29be
00000110: ce38 81bd 6e0b ccbd 1c2b 413e 5d61 0f3e
00000120: 2d38 a73c 735d 42be ee39 363e 1cad 56be
00000130: 371f 96bd 9234 6c3e fd2f cebd 6fe8 b4bd
00000140: 8019 dabc 5ac8 a0bd 43d5 d43d 52a6 d7bc
00000150: 4dbc f0bd fea3 083e 0a13 bc3d f2a1 42bd
00000160: 874b 4ebc 7278 53bc 8974 3fbe 83ee 1fbe
00000170: a919 b9bd 53af 30be d43e 573e 611e 133e
00000180: 903b 0dbe 9e4f 51be 4284 613e aee7 fb3d
00000190: 3258 6ebd 2a86 5bbd f935 22bc 2325 153e
000001a0: f023 5f3d 9a1d 77bc f387 ce3d c190 3e3d
000001b0: 5aa6 e93d 85b2 c5bb c6a2 c1bd 945e 3c3e
000001c0: 6870 cdbd e7d1 85bd f0ee 13be 8468 323e
000001d0: 7be1 0ebe 07f7 173e 1e94 f4bd c753 cebd
000001e0: 0ad3 583d 57b0 b03d 250b 143e 57b9 21be
000001f0: 073a d73d 0314 6bbe e8df cd3d 864b febd
00000200: f4cc dfbd 534a 53bc e189 c9bd 162f d7bd
00000210: 9c1b 75bc e525 833e 4fc0 ee3d 0d91 253e
00000220: f83d cf3d de4d 533e 4ce5 bebd f11e 553d
00000230: 0e8e bdbd 8c5e df3d df89 333e 2cf2 04bc
00000240: 703f 0f3e cc3a 35be 2add 633c 25b4 7f3e
00000250: 2ace 80be bd38 7dbc 6bc6 3c3e d3c3 dbbd
00000260: 2b35 153d a758 bf3d 4361 193e e288 41bd
00000270: 0121 67be 9c7c 0a3e 25d2 a4bd 57c1 be3d
00000280: acce 71be f12e 2ebd 3726 133e 2eb3 b7bc
00000290: 86cd 6ebd caf0 673e 3e31 693e e9a5 2cbd
000002a0: 7e75 063e 225f 963d 48d3 ee39 8d24 cf3d
000002b0: 7af8 a5bd 467f d4ba db84 38be 3f48 9f3c
000002c0: 6293 80bd 0194 083e bbab b3bd 2879 c0bd
000002d0: ecb7 9fbd 8831 493d 4704 3d3d feec 043e
000002e0: f71c f53d baf5 473d 2f66 85bd d6c6 af3d
000002f0: 2b5c ccbc a54c f4bd e9c6 8dbe 956c 11be
00000300: 3234 f33c 13b2 c7bd 52c9 383e 207d 9ebb
00000310: 3fd0 6abb e6e5 3b3d d8cc 9ebd f80a a6bb
00000320: cc9e 86bd 40e9 47bd 6f8f a2bd cf1a 5dbe
00000330: 9be3 8cbe 4225 5fbd d7fd 94bc dfd2 f13d
00000340: df4e 0fbe cd25 03be af31 5c3e fea8 56be
00000350: 50c9 f93d 35ac bf3d fbae 483d f7b0 69be
00000360: 61f5 0dbe fa38 083e db44 563e 21c5 313e
00000370: 61a5 42bd 851d 09bc 7b34 013e a6b6 5f3e
00000380: d04c 213e 84e6 a4bd a435 bcbd 254e 98bd
00000390: a47e 30bb 0a41 13be f53c dc3c 26b4 fe3d
000003a0: eb8c ffbd f936 f53d 8f0b 05be 6532 2bbe
000003b0: df96 5f3d c00e 413e d13e 07be 78aa ca3d
000003c0: 5b2f 163d ea70 47be 9852 afbd 16de 3e3e
000003d0: 1eca 4b3c 0a14 583e ddc6 293e 5ad6 733e
000003e0: 83a5 a9bd d3f5 20bc 7e0a 19be 1214 0e3e
000003f0: bf2c ecbc a60f 643e 00d0 2e3d e372 2e3d

fc2.bias f4 [10]
-0.086943455 -0.00753818 -0.06314895 0.073058486 -0.049497478 0.01710293 0.046242997 0.073236264
-0.05669534 -0.084017456
00000000: 690f b2bd d602 f7bb 3d54 81bd b09f 953d
00000010: debd 4abd 721b 8c3c 4c69 3d3d e5fc 953d
00000020: 5f39 68bd 5811 acbd

momentum_buffer f4 [10, 1, 5, 5]
-0.020959046 -0.032533552 -0.024783708 -0.0027523744 0.0122351125 -0.014193039 -0.030590631 -0.020263419
0.0019753845 0.013481499 -0.0073005757 -0.023038212 -0.0063480167 0.007980853 0.0053621777 -0.010843659
-0.019624826 -0.006057543 -0.0032454915 -0.0052775256 0.0074029835 -0.002164567 0.0017255889 0.00069167744
-0.0068686074 0.0036277291 0.0033713144 0.0029956594 -0.00021500098 0.001960805 0.0033936389 0.0028648323
0.003944701 0.0027546966 0.0016732826 0.0011154234 0.000467935 0.003317395 0.004506694 0.0038444474
0.0014938661 0.0032973024 0.0046749255 0.0056441715 0.002013668 0.007001901 0.0045471713 0.0053554527
0.0072196154 0.0051251817 0.02692838 0.016214335 0.01305099 -0.0074540726 0.011743449 0.031489443
0.01715454 -0.0047648554 -0.034786023 -0.017145693 0.03536524 0.010823881 -0.0067462777 -0.017266767
-0.0027842522 0.027367827 0.023377724 0.026776139 0.01733459 0.01484197 0.009370434 0.030738931
0.042771734 0.029710922 0.02274733 0.0046320404 -0.008018782 -0.0039003291 -0.008109441 -0.0077249105
0.008761879 -0.0056128567 -0.0063489084 -0.019864352 -0.01059616 0.0064473804 -0.010004324 -0.019422172
-0.02031457 -0.008593967 -0.004058272 -0.014881783 -0.027837314 -0.025471019 -0.015980834 -0.005317845
0.0018740366 -0.0046997024 -0.005340942 -0.000105552375 0.00083125016 -0.00015138244 -8.8967114e-05 0.000162093
0.00014529628 -0.0009929686 -0.00021022608 0.00046898518 0.00032252207 0.0010042903 -0.0018641455 -0.0011271444
1.882788e-05 0.00014976528 0.00018106174 -0.0020482058 -0.0018530212 -0.00079252786 0.00017740366 -0.00019106657
-0.0014243103 -0.0020656355 -0.0022433836 -0.001200751 -0.00027755488 0.02718753 -0.019583993 -0.015840791
-0.00095526874 -0.0023822137 0.025083678 -0.026237503 -0.037230372 -0.03160125 -0.018370887 0.02879724
-0.019043164 -0.030073494 -0.0025858134 -0.007873315 0.012854356 -0.02005979 0.0025736848 0.01244746
-0.0075276345 -0.0115469005 -0.020378463 0.009871001 0.027039785 0.018284783 0.015350029 0.008764633
-0.021392671 -0.049920656 -0.035551414 0.01351008 0.011587279 -0.029696021 -0.06646023 -0.04312261
0.016316608 0.004068231 -0.024700519 -0.052667517 -0.020116094 0.009045829 -0.0026445931 -0.024572276
-0.037343077 -0.0034241914 -0.002589589 -0.0039587053 -0.020929035 -0.028953966 0.0059233285 0.022529997
0.019701485 0.01354967 -0.012748526 -0.0106855575 0.021902591 0.022490645 0.0031721154 -0.031141572
-0.02788249 0.017891318 0.0079321945 -0.016306307 -0.028843861 -0.00528377 0.006567868 -0.00080036186
-0.0065720137 -0.004393133 0.011282339 0.005953321 0.012837529 0.0073604845 0.014383479 0.027745413
0.00113498 -0.0040513556 -0.012017536 -0.021932106 -0.01540455 0.008289473 -0.0017771678 -0.008533104
-0.018714696 -0.014616402 0.0042796344 -0.0038011884 -0.008762188 -0.022897437 -0.019467458 0.00798529
0.0040219487 -0.009447776 -0.023274023 -0.016636802 0.011160986 0.006694712 -0.0066406145 -0.01199998
-0.005414609 -0.0023736851 0.0023880831 0.0014915143 -0.0002496029 -0.00027448687 -0.0020412966 0.0014694118
0.00051653193 5.4248725e-05 -6.163861e-05 -0.004279645 -0.00071149407 -0.0003145366 -0.00048343829 -0.0006570068
-0.006472758 -0.0015309245 -0.0007972643 -0.0007830801 -0.0012104526 -0.0057602795 -0.00094736746 -0.00016953856
-0.000357349 -0.00090681674
00000000: 4eb2 abbc e741 05bd 3407 cbbc 2e61 34bb
00000010: c875 483c ec89 68bc 3499 fabc 78ff a5bc
00000020: 7475 013b 81e1 5c3c ab39 efbb a2ba bcbc
00000030: 0603 d0bb 20c2 023c 35b5 af3b 9aa9 31bc
00000040: 3ec4 a0bc 5b7e c6bb 50b2 54bb 18ef acbb
00000050: ba94 f23b 68db 0dbb 282d e23a b051 353a
00000060: 0e12 e1bb 32bf 6d3b 45f1 5c3b d352 443b
00000070: e371 61b9 d980 003b d067 5e3b e9bf 3b3b
00000080: 8d42 813b 2488 343b 0c52 db3a 6633 923a
00000090: 2c55 f539 a768 593b e4ac 933b 20f3 7b3b
000000a0: d4cd c33a 8e17 583b 1e30 993b bef2 b83b
000000b0: bef7 033b 3470 e53b 7000 953b cb7c af3b
000000c0: 8692 ec3b 24f1 a73b e898 dc3c edd3 843c
000000d0: d2d3 553c 4b41 f4bb 9867 403c 13fb 003d
000000e0: ae87 8c3c 8122 9cbb ca7b 0ebd 2075 8cbc
000000f0: 24db 103d a656 313c e10f ddbb 0973 8dbc
00000100: 0078 36bb 7e32 e03c a482 bf3c a259 db3c
00000110: 4501 8e3c bc2b 733c 7386 193c 36d0 fb3c
00000120: 6a31 2f3d 5264 f33c 9c58 ba3c 5fc8 973b
00000130: 3661 03bc aa9c 7fbb 76dd 04bc 3f21 fdbb
00000140: fc8d 0f3c 0eec b7bb 810a d0bb 91ba a2bc
00000150: 849b 2dbc 8c44 d33b 2de9 23bc 3f1b 9fbc
00000160: be6a a6bc b6cd 0cbc 41fb 84bb b9d2 73bc
00000170: 140b e4bc 99a8 d0bc 3dea 82bc 5141 aebb
00000180: 3ca2 f53a f6ff 99bb 1203 afbb 005c ddb8
00000190: 41e8 593a 6abc 1eb9 db93 bab8 82f7 2939
000001a0: ac5a 1839 7f26 82ba 2270 5cb9 20e2 f539
000001b0: 2e18 a939 64a2 833a 5856 f4ba b1bc 93ba
000001c0: 90f0 9d37 500a 1d39 64db 3d39 313b 06bb
000001d0: 13e1 f2ba a5c1 4fba 6f05 3a39 0b59 48b9
000001e0: ecaf baba 9d5f 07bb bb05 13bb 8562 9dba
000001f0: c984 91b9 62b8 de3c 9c6e a0bc 8cc4 81bc
00000200: 006b 7aba ea1e 1cbb 497c cd3c 08f0 d6bc
00000210: e07e 18bd 5070 01bd 8b7e 96bc 31e8 eb3c
00000220: 6900 9cbc b05c f6bc c076 29bb 14ff 00bc
00000230: 149b 523c 6e54 a4bc 44ab 283b 6ef0 4b3c
00000240: 60aa f6bb 362f 3dbc bcf0 a6bc fbb9 213c
00000250: 8a82 dd3c f8c9 953c b07e 7b3c 8999 0f3c
00000260: af3f afbc 9a79 4cbd 5c9e 11bd 6259 5d3c
00000270: 92d8 3d3c 1245 f3bc 4d1c 88bd 55a1 30bd
00000280: 68aa 853c cc4e 853b be58 cabc e5b9 57bd
00000290: 82ca a4bc f534 143c e950 2dbb cc4b c9bc
000002a0: 0ef5 18bd 6668 60bb 18b6 29bb 07b8 81bb
000002b0: 5e73 abbc de30 edbc 7b18 c23b d490 b83c
000002c0: 0265 a13c 6fff 5d3c 32df 50bc 7a12 2fbc
000002d0: 106d b33c 4d3e b83c 44e3 4f3b 9c1c ffbc
000002e0: d269 e4bc d090 923c 09f6 013c ce94 85bc
000002f0: f649 ecbc 7a23 adbb 4537 d73b 60cf 51ba
00000300: 0c5a d7bb 45f4 8fbb 8fd9 383c 1314 c33b
00000310: 8054 523c 3830 f13b afa8 6b3c 594a e33c
00000320: 9cc3 943a 3cc1 84bb 33e5 44bc f6aa b3bc
00000330: 5e63 7cbc 92d0 073c dbef e8ba 6fce 0bbc
00000340: 904f 99bc a279 6fbc 2d3c 8c3b 5c1d 79bb
00000350: 488f 0fbc 6893 bbbc 387a 9fbc bcd4 023c
00000360: 8dca 833b d8ca 1abc 2aa9 bebc e749 88bc
00000370: 91dc 363c 515f db3b 8399 d9bb 909b 44bc
00000380: 086d b1bb d48f 1bbb 6381 1c3b ea7e c33a
00000390: 22dd 82b9 01e9 8fb9 46c7 05bb 4799 c03a
000003a0: df67 073a 2089 6338 fa43 81b8 443c 8cbb
000003b0: 8f83 3aba 63e8 a4b9 fd75 fdb9 fb3a 2cba
000003c0: 6e19 d4bb 4da9 c8ba 80ff 50ba 9e47 4dba
000003d0: 0da8 9eba bac0 bcbb c158 78ba 29c6 31b9
000003e0: 925a bbb9 71b7 6dba

momentum_buffer f4 [10]
-0.004314875 0.01106705 0.035551645 -0.0134622045 -0.0012544501 0.023085846 -0.013843644 0.010250518
-0.0043436894 -0.003987046
00000000: cc63 8dbb 9252 353c 9a9e 113d 9490 5cbc
00000010: 5c6c a4ba 871e bd3c 74d0 62bc caf1 273c
00000020: 8255 8ebb c4a5 82bb

momentum_buffer f4 [20, 10, 5, 5]
-0.025971899 -0.025517669 -0.03100083 -0.026773354 -0.022553792 -0.021621894 -0.038599018 -0.03893286
-0.010351006 -0.00785258 0.0011103228 -0.03446641 -0.04890492 -0.0074164206 -0.0030803243 0.00820002
-0.0284024 -0.041679762 -0.022033703 -0.021424918 0.00046497397 -0.026118483 -0.02780738 -0.02404741
-0.019747704 -0.001185031 0.00060612115 0.0011915058 -0.0007408414 -0.0015076825 -0.0022343579 0.0007704754
0.0028868974 0.0004285419 -0.0011236672 -6.422191e-05 -0.0005098975 -7.887278e-05 -0.0011496209 -0.0013450494
0.0012098264 -3.2037467e-05 -0.000614908 -0.0010736885 -0.0011300319 0.00037207844 -0.00035495666 -0.00040439758
-0.001665219 -7.219898e-05 -0.06862092 -0.08587489 -0.08667932 -0.06241916 -0.0574516 -0.093993604
-0.09888783 -0.065659374 -0.027274294 -0.041482136 -0.067909285 -0.077408224 -0.03807304 -0.008995183
-0.03551513 -0.03278298 -0.06014437 -0.04630385 -0.033067994 -0.048646443 -0.03561952 -0.054062083
-0.047348175 -0.038829446 -0.052826628 -0.045174852 -0.06260781 -0.059775457 -0.041936424 -0.030811667
-0.043540534 -0.065031126 -0.049917296 -0.016431713 -0.020586256 -0.023758594 -0.053513117 -0.03516647
-0.013765739 -0.023809018 -0.016665448 -0.041935217 -0.032465473 -0.022691524 -0.028237263 -0.016230192
-0.03198411 -0.03277144 -0.028739257 -0.03362083 -1.615845e-05 -0.00051029946 8.21897e-06 0.00013474502
0.0001324125 -0.00017419636 -0.00036998952 -0.00028852618 0.000103112296 0.00052285264 -5.519458e-05 0.00010362844
0.0002950894 0.00044309878 0.00036922266 0.00018794413 0.0003425269 -8.814519e-05 0.00021472324 2.6734706e-06
0.00010843425 0.00017644264 0.00032649635 0.00028803363 -7.226611e-05 -0.075042605 -0.10299607 -0.11603384
-0.09059343 -0.068667024 -0.10083003 -0.12694475 -0.10107417 -0.047187038 -0.048487432 -0.074244425
-0.1135423 -0.08116738 -0.016564205 -0.045479372 -0.031702705 -0.09507583 -0.06921218 -0.037859704
-0.04902508 -0.030206095 -0.07134359 -0.068209186 -0.05547173 -0.062868305 -0.055158883 -0.06743615
-0.056497473 -0.03563403 -0.03695728 -0.071446784 -0.07217019 -0.036868513 -0.019228175 -0.044289537
-0.07183385 -0.068790644 -0.014060644 -0.015331814 -0.038045622 -0.05189044 -0.06006579 -0.026723562
-0.024206031 -0.03741516 -0.04032437 -0.046190392 -0.028072925 -0.029071376 -0.031962875 -0.04988087
-0.06997561 -0.06577502 -0.040578924 -0.032327704 -0.061797887 -0.07129387 -0.045016356 -0.012883576
-0.025684197 -0.042828295 -0.058027357 -0.015581764 -0.011700948 -0.03059515 -0.03156624 -0.050066523
-0.018970227 -0.022041103 -0.031547174 -0.02964926 -0.036434714 -0.025640305 -0.029867886 -0.037194747
-0.02126345 -0.02100975 -0.01814498 -0.0051082205 -0.012510597 -0.017972313 -0.020589119 -0.0041226037
-0.005092287 -0.015767224 -0.015949164 -0.021383474 -0.0031691303 -0.0070967656 -0.013461239 -0.016017102
-0.016024487 -0.007064971 -0.008455744 -0.01304527 -0.012722986 -0.010329938 -0.011310555 -0.01327241
-0.013186221 1.011329e-06 0.00038573708 -0.0020242576 -0.00036783345 -0.0019342043 -7.424047e-05 -0.0012429378
-0.0036126163 -0.0013476191 -0.0014593089 -0.0002812213 -0.0013993646 -0.0047598416 0.0007131699 -0.0003619158
3.666125e-05 -0.00097204786 -0.003641219 0.0003488008 -0.00092076 0.0003994382 -0.0011673814 -0.0025253287
0.0012615114 -0.00033950995 -0.0021574562 -0.0026427386 -0.004149519 -0.0033985034 -0.0059808586 0.009830491
00000000: 05c3 d4bc 6e0a d1bc 74f5 fdbc cb53 dbbc
00000010: bbc2 b8bc 6620 b1bc 011a 1ebd 1078 1fbd
00000020: 4497 29bc 1ca8 00bc 4088 913a a62c 0dbd
00000030: 8750 48bd 7205 f3bb 44df 49bb 6059 063c
00000040: 26ac e8bc 66b8 2abd 0680 b4bc 4f83 afbc
00000050: c0c7 f339 6ef6 d5bc 4dcc e3bc 13ff c4bc
00000060: f0c5 a1bc 0b53 9bba 1ae4 1e3a 4d2c 9c3a
00000070: 0635 42ba 6e9d c5ba 4e6e 12bb bbf9 493a
00000080: 1a32 3d3b ecad e039 0448 93ba e0ae 86b8
00000090: a4aa 05ba 8068 a5b8 e0ae 96ba 5e4c b0ba
000000a0: 0a93 9e3a f85f 06b8 c731 21ba 02bb 8cba
000000b0: 941d 94ba 8613 c339 7a19 bab9 5305 d4b9
000000c0: 7a43 daba 8869 97b8 2089 8cbd 2ddf afbd
000000d0: ed84 b1bd 3cab 7fbd 5e52 6bbd b87f c0bd
000000e0: b485 cabd 6c78 86bd 576e dfbc 2ce9 29bd
000000f0: 0614 8bbd 3488 9ebd 7af2 1bbd 8860 13bc
00000100: 5078 11bd 7247 06bd f159 76bd 1ba9 3dbd
00000110: 4e72 07bd 7e41 47bd c6e5 11bd 3470 5dbd
00000120: 29f0 41bd a00b 1fbd bc60 58bd 4409 39bd
00000130: 8638 80bd 1cd7 74bd 87c5 2bbd c068 fcbc
00000140: 8f57 32bd 0a2f 85bd 1476 4cbd cd9b 86bc
00000150: 82a4 a8bc 62a1 c2bc 9230 5bbd b70a 10bd
00000160: b289 61bc 210b c3bc fa85 88bc 43c4 2bbd
00000170: 84fa 04bd 93e3 b9bc d551 e7bc 2ef5 84bc
00000180: c501 03bd 583b 06bd 976e ebbc ffb5 09bd
00000190: 028c 87b7 9ec5 05ba 35e4 0937 574a 0d39
000001a0: 36d8 0a39 7ba8 36b9 27fb c1b9 5445 97b9
000001b0: fe3d d838 0c10 093a bb80 67b8 1853 d938
000001c0: 3bb6 9a39 b64f e839 3a94 c139 de12 4539
000001d0: 2f95 b339 97da b8b8 5527 6139 e069 3336
000001e0: 3267 e338 7603 3939 992d ab39 3803 9739
000001f0: 938d 97b8 f0af 99bd 9bef d2bd 26a3 edbd
00000200: 0c89 b9bd 4ca1 8cbd fa7f cebd cefd 01be
00000210: f9ff cebd 3247 41bd c29a 46bd 760d 98bd
00000220: de88 e8bd 153b a6bd a8b1 87bc 9448 3abd
00000230: b2da 01bd 1eb7 c2bd 1ebf 8dbd c712 1bbd
00000240: 86ce 48bd c672 f7bc 971c 92bd 42b1 8bbd
00000250: 5336 63bd 19c1 80bd 48ee 61bd f71b 8abd
00000260: e569 67bd fdf4 11bd 8460 17bd b152 92bd
00000270: f7cd 93bd 7003 17bd 6884 9dbc f268 35bd
00000280: a01d 93bd 1ce2 8cbd 9e5e 66bc 4a32 7bbc
00000290: bad5 1bbd 128b 54bd 8c07 76bd 5feb dabc
000002a0: ba4b c6bc a440 19bd 2b2b 25bd 2332 3dbd
000002b0: 31f9 e5bc 1827 eebc 81eb 02bd e24f 4cbd
000002c0: 5f4f 8fbd 0eb5 86bd 1636 26bd 0e6a 04bd
000002d0: c81f 7dbd 8502 92bd 1263 38bd a215 53bc
000002e0: aa67 d2bc b96c 2fbd 18ae 6dbd a84a 7fbc
000002f0: 55b5 3fbc aea2 fabc 9a4b 01bd 8e12 4dbd
00000300: 7367 9bbc 8b8f b4bc 9c37 01bd 01e3 f2bc
00000310: 913c 15bd 9e0b d2bc 7fad f4bc 8559 18bd
00000320: b030 aebc a41c acbc c8a4 94bc dc62 a7bb
00000330: 3ff9 4cbc ac3a 93bc 83aa a8bc e816 87bb
00000340: 33dd a6bb 442a 81bc d2a7 82bc 652c afbc
00000350: 2fb1 4fbb fc8b e8bb 878c 5cbc 4c36 83bc
00000360: c945 83bc 4681 e7bb f689 0abc d4bb 55bc
00000370: 1274 50bc e63e 29bc e84f 39bc 8674 59bc
00000380: 050b 58bc 00bd 8735 c13c ca39 68a9 04bb
00000390: c5d9 c0b9 2085 fdba 8db1 9bb8 12ea a2ba
000003a0: a5c1 6cbb 98a2 b0ba 4846 bfba e270 93b9
000003b0: e26a b7ba 72f8 9bbb 06f4 3a3a 84bf bdb9
000003c0: b8c4 1938 07d1 7eba 85a1 6ebb 40df b639
000003d0: 285f 71ba b06b d139 d202 99ba fc7f 25bb
000003e0: 4c59 a53a 4100 b2b9 1c64 0dbb cc31 2dbb
000003f0: b0f8 87bb 6db9 5ebb 14fb c3bb 1110 213c

momentum_buffer f4 [20]
-0.020086529 0.0058987997 -0.015000809 6.3083585e-06 0.0078458935 0.0022387137 0.00596938 0.0017643226
0.024893062 0.0025804904 0.01109981 0.0065134 -0.00018796045 0.0051869215 0.0046049813 -0.0008156033
0.012706478 -0.00533129 0.017183531 0.01828662
00000000: 818c a4bc b84a c13b f4c5 75bc 63ac d336
00000010: 108c 003c 62b7 123b ca9a c33b d840 e73a
00000020: 89ec cb3c 721d 293b fadb 353c 5c6e d53b
00000030: 4017 45b9 0df7 a93b 62e5 963b 36ce 55ba
00000040: d52e 503c 1ab2 aebb 7ac4 8c3c d2cd 953c

momentum_buffer f4 [50, 320]
0.022240628 0.03989994 0.07606427 0.11645312 0.009659104 0.017747588 0.12052532 0.1355635
0.0032785614 0.027902262 0.09163393 0.08544642 -0.009479945 0.033769354 0.09587942 0.08170202
0.022727387 0.03144275 0.043025646 0.0021805707 0.027619638 0.04584541 0.07458659 0.045882307
0.022341868 0.06726972 0.07629825 0.06821538 0.014960663 0.059992984 0.04596053 0.033834994
-0.007121898 0.005525941 0.031639315 0.08695856 0.011692403 0.019012403 0.0821778 0.082950026
0.018375987 0.032798488 0.08371628 0.06923889 0.007101304 0.03157073 0.08372629 0.08640614
0.0 0.0 0.0 0.0 0.0 0.0 0.0 0.0
3.698891e-08 0.0 0.0 -4.2181842e-13 1.9520887e-09 0.0 0.0 -5.1544283e-13
0.05056779 0.039506275 0.053246144 0.016170405 0.0812615 0.09602139 0.045308433 -0.01150765
0.07074586 0.10910025 0.07455113 0.029700253 0.06251219 0.10773128 0.070534796 0.044662785
0.032630466 0.03613503 0.02934804 0.0117685255 0.066567734 0.08202666 0.08483014 0.048809167
0.07622607 0.10098554 0.09214952 0.056122474 0.059877075 0.064091705 0.05205811 0.039341763
0.0037721023 -0.0015134308 0.009504923 0.0126366895 0.047719255 0.056870606 0.054242462 0.036451668
0.04904585 0.07840676 0.06785733 0.05826828 0.028358221 0.0343097 0.048240684 0.050755262
0.10709256 0.14672987 0.158317 0.10089958 0.090086594 0.15248719 0.1464831 0.109240726
0.040937923 0.08140024 0.10688487 0.10168727 0.038023155 0.113031074 0.12007378 0.07840472
0.0046707233 0.0115596205 0.011283537 0.02225988 0.044919867 0.052056715 0.046751417 0.011698831
0.05260271 0.05491881 0.049361944 0.0132555505 0.032002598 0.025573777 0.032408874 0.047468953
-0.0005297376 2.0501204e-05 0.0011475005 0.0012043966 0.0010870665 0.0037513734 0.00034696743 0.005017508
0.0033207613 0.0071059503 0.006209209 0.006815531 0.0043286486 0.003340093 0.0067940047 0.0070714904
0.014390167 0.018020999 0.0133603085 0.0047422717 0.030886091 0.046943665 0.0464074 0.036198758
0.029953271 0.04182261 0.047053315 0.050799135 0.01107302 0.029217714 0.029217258 0.028810026
0.071083166 0.0999611 0.12191559 0.065277755 0.08294506 0.13705283 0.13386512 0.06604834
0.07084544 0.10544929 0.095302954 0.059013315 0.040565953 0.09953235 0.1105625 0.068792716
0.057562135 0.052129626 0.0329503 -0.010802465 0.094277635 0.0971528 0.06626366 0.0026993253
0.08046636 0.112472065 0.07927323 0.042694367 0.07092858 0.109546624 0.061235923 0.029316971
0.0012463643 -0.001174144 -0.0005647759 0.0015483941 0.010604917 0.017926626 0.0057344018 0.009007288
0.015912585 0.022826519 0.021669023 0.011932916 0.016032534 0.013181189 0.013840923 0.0116487965
0.003899465 0.002460027 0.020291647 0.014005141 0.0017009176 0.0013591447 0.011053019 0.016687166
-0.002010264 0.003909558 0.008081043 0.01635322 -3.1541826e-05 0.0024868918 0.009512609 0.010507189
1.3139572e-07 1.6798837e-17 6e-45 -1.6995538e-05 1.88229e-05 3.0547995e-10 2.7143656e-25 -4.5368764e-05
-5.916479e-06 1.3312671e-08 6e-45 0.0002910381 -3.961313e-06 -1.4694662e-06 -5.657164e-07 -2.1257192e-06
00000000: fa31 b63c 1f6e 233d 96c7 9b3d f97e ee3d
00000010: 3841 1e3c 6463 913c fbd5 f63d 28d1 0a3e
00000020: 22dd 563b 4993 e43c 92aa bb3d 88fe ae3d
00000030: c551 1bbc bc51 0a3d 6e5c c43d 6353 a73d
00000040: c92e ba3c 1dca 003d a93b 303d e8e7 0e3b
00000050: 9442 e23c 66c8 3b3d dbc0 983d 16ef 3b3d
00000060: 4b06 b73c b5c4 893d 4242 9c3d 81b4 8b3d
00000070: 921d 753c 34bb 753d 1c41 3c3d 9096 0a3d
00000080: cf5e e9bb f412 b53b 3a98 013d 5417 b23d
00000090: 7e91 3f3c e6bf 9b3c d64c a83d b4e1 a93d
000000a0: 3d89 963c b557 063d 7173 ab3d 1fcd 8d3d
000000b0: 0eb2 e83b 4f50 013d b078 ab3d b4f5 b03d
000000c0: 0000 0000 0000 0000 0000 0000 0000 0000
000000d0: 0000 0000 0000 0000 0000 0000 0000 0000
000000e0: bddd 1e33 0000 0000 0000 0000 7176 edaa
000000f0: 8225 0631 0000 0000 0000 0000 9215 11ab
00000100: 2c20 4f3d 55d1 213d a118 5a3d cc77 843c
00000110: 6e6c a63d dda6 c43d 5695 393d 958a 3cbc
00000120: 35e3 903d f46f df3d 43ae 983d f24d f33c
00000130: 6406 803d 38a2 dc3d 8c74 903d 53f0 363d
00000140: 86a7 053d 5302 143d 4d6b f03c c6d0 403c
00000150: aa54 883d 98fd a73d 6dbb ad3d 1fec 473d
00000160: 6a1c 9c3d 82d1 ce3d e3b8 bc3d aee0 653d
00000170: aa41 753d 8342 833d e23a 553d d424 213d
00000180: 6035 773b 505e c6ba 89ba 1b3c 1e0a 4f3c
00000190: 4475 433d 27f1 683d 582d 5e3d 584e 153d
000001a0: 4de4 483d b993 a03d c9f8 8a3d b8aa 6e3d
000001b0: 804f e83c 5488 0c3d 0698 453d c0e4 4f3d
000001c0: 5853 db3d 5b40 163e da1d 223e 70a4 ce3d
000001d0: 527f b83d 9a25 1c3e aaff 153e 9ab9 df3d
000001e0: 86ae 273d 2bb5 a63d 74e6 da3d 6a41 d03d
000001f0: 2bbe 1b3d d67c e73d 3ee9 f53d a792 a03d
00000200: de0c 993b 9064 3d3c 96de 383c 5a5a b63c
00000210: e5fd 373d 6c39 553d 6a7e 3f3d 74ac 3f3c
00000220: f075 573d 8cf2 603d c02f 4a3d cf2d 593c
00000230: 2815 033d 1980 d13c 2bbf 043d ce6e 423d
00000240: 17de 0aba 00fa ab37 ba67 963a d8dc 9d3a
00000250: e67b 8e3a 9ad9 753b 2ee9 b539 e869 a43b
00000260: 21a1 593b 08d9 e83b 9f76 cb3b d154 df3b
00000270: 56d7 8d3b 76e5 5a3b 3ea0 de3b f6b7 e73b
00000280: bcc4 6b3c c6a0 933c 32e5 5a3c 0f65 9b3b
00000290: d404 fd3c 0048 403d b015 3e3d 2645 143d
000002a0: 9060 f53c 2f4e 2b3d faba 403d c112 503d
000002b0: 9d6b 353c fd59 ef3c 0859 ef3c 0103 ec3c
000002c0: 0d94 913d 68b8 cc3d e1ae f93d 58b0 853d
000002d0: 1adf a93d 9457 0c3e f013 093e 5a44 873d
000002e0: 6a17 913d ccf5 d73d 322e c33d f2b7 713d
000002f0: 7c28 263d 9ed7 cb3d 986e e23d 32e3 8c3d
00000300: 46c6 6b3d e085 553d e5f6 063d d2fc 30bc
00000310: a214 c13d 0cf8 c63d 3eb5 873d 2ae7 303b
00000320: 8ccb a43d c157 e63d 015a a23d 4ae0 2e3d
00000330: 0143 913d fb59 e03d 85d2 7a3d 252a f03c
00000340: 0c5d a33a bce5 99ba 780d 14ba 7cf3 ca3a
00000350: 3fc0 2d3c dcda 923c a6e7 bb3b 4e93 133c
00000360: 1c5b 823c aefe ba3c 3c83 b13c 4782 433c
00000370: a956 833c eaf5 573c 0ac5 623c 98da 3e3c
00000380: 2b8e 7f3b 6838 213b ab3a a63c d275 653c
00000390: 53f1 de3a 5425 b23a b917 353c 86b3 883c
000003a0: a2be 03bb c01b 803b 5a66 043c 30f7 853c
000003b0: c74b 04b8 1ffb 223b c6da 1b3c 5826 2c3c
000003c0: c815 0d34 22f1 9a23 0400 0000 a491 8eb7
000003d0: dfe5 9d37 7bf0 a72f d702 a816 574a 3eb8
000003e0: 2b86 c6b6 bfb5 6432 0400 0000 7996 9839
000003f0: 6beb 84b6 793a c5b5 bcdb 17b5 94a7 0eb6

momentum_buffer f4 [50]
0.020058027 -0.016194511 5.797474e-13 0.014692627 0.0077013467 -0.01164565 -0.004590826 0.007887281
-0.006174628 4.9057895e-17 0.007950859 0.004626302 -0.0010234029 -6.812882e-16 -0.010736736 0.020963755
-0.00016476779 -0.00781377 0.006465595 -0.008600137 0.009282833 0.0060038385 0.0014542524 -0.0103928
-0.008317061 -0.009781958 -0.0024259225 -0.0024034488 -0.020621214 -0.006571195 -0.00037666282 -6e-45
0.01261985 -0.00431399 6e-45 0.0037563143 6e-45 0.015543705 -8.8699e-06 -0.0020229593
-0.009904498 -0.01442429 0.0023042823 -0.002994853 0.0061680204 -0.0012442162 -0.005809743 -0.0046689594
0.0030441615 -0.0002517758
00000000: bb50 a43c 5aaa 84bc 342f 232b 58b9 703c
00000010: 945b fc3b 65cd 3ebc a46e 96bb a739 013c
00000020: 8954 cabb 573d 6224 5244 023c 3c98 973b
00000030: b423 86ba 325e 44a6 22e9 2fbc 2ebc ab3c
00000040: 84c5 2cb9 5405 00bc 58dd d33b 97e7 0cbc
00000050: 0617 183c d9bb c43b 9d9c be3a 9046 2abc
00000060: 4844 08bc 8144 20bc 3afc 1ebb 2e83 1dbb
00000070: d2ed a8bc 2e53 d7bb d47a c5b9 0400 0080
00000080: 7dc3 4e3c 5f5c 8dbb 0400 0000 7f2c 763b
00000090: 0400 0000 06ab 7e3c eecf 14b7 a093 04bb
000000a0: 7a46 22bc db53 6cbc 7103 173b 4c45 44bb
000000b0: 1b1d ca3b f814 a3ba a85f bebb 12fe 98bb
000000c0: 8e80 473b c700 84b9
