lecture8/saved_mnists/mnist-1000.pth (torch_old, 177308 bytes, 16 tensors)

conv1.weight f4 [10, 1, 5, 5]
000000 9b 9f 27 be 70 04 1a 3e 70 ff a6 b8 6a ce 39 be
       -0.16369478 0.15040755 -7.963076e-05 -0.18145147
000010 e3 ef f2 bd 6d 93 dc bc 91 bd 05 3e db 18 45 3e
       -0.11862161 -0.026925767 0.13060595 0.19247763
000020 41 9a 5f bd 8f eb 3c be b6 83 80 3e a9 19 85 3e
       -0.054590467 -0.18449233 0.25100487 0.2599614
000030 d1 df 7d bd b5 dc 2e bd 37 18 75 3d 02 6d 09 3e
       -0.061981026 -0.04269095 0.059837546 0.1342049
000040 bf 1a 74 3e 6f 1d 08 be 37 1b e2 3b 9a 98 0b be
       0.23838328 -0.13292478 0.006900217 -0.13632432
000050 08 ec 95 bd c2 4f 20 3e 3c 65 c5 bd 78 05 59 3e
       -0.0732041 0.15655425 -0.096384495 0.21193492
000060 c4 0d 78 3e ec 72 29 be fb 39 39 be dc 8d 56 bd
       0.24224001 -0.16547745 -0.18088524 -0.05238138
000070 b6 41 2d be e8 df 11 be cf f3 03 bd 09 4a 3a 3e
       -0.16919598 -0.1424557 -0.032214936 0.18192305
000080 ed 74 16 3e 09 45 aa 3d 7f 3d 32 be 0f 37 28 be
       0.14693041 0.08313949 -0.17406271 -0.16427253
000090 30 2f a2 bd 78 b6 e1 3c 4b ab cc bc 88 15 48 3e
       -0.079191566 0.027552828 -0.024984023 0.19539464
0000a0 5d b7 47 be 94 89 a3 3d ce 01 28 bd 74 5d fe 3c
       -0.19503541 0.07985225 -0.041017346 0.031050421
0000b0 62 01 17 be 1b 6a c8 3d 5c af 26 be d8 a8 3d 3c
       -0.14746621 0.09785863 -0.16277832 0.0115759
0000c0 b6 28 c8 bd 04 33 34 3e ec 8c 86 bd 7f 96 21 3d
       -0.0977339 0.17597586 -0.065698475 0.039450165
0000d0 68 8a 79 3c 68 0b 8a 3e ff 03 b6 3c 39 d8 50 3e
       0.0152307525 0.26961827 0.022218702 0.20394982
0000e0 5f 86 15 3e c1 74 a0 3e b2 4f a0 3e 89 64 9a 3e
       0.1460204 0.31339076 0.31310803 0.30154827
0000f0 66 41 81 3e 3b d9 20 3d 39 91 8d 3e e0 e1 57 3e
       0.25245208 0.039269667 0.2764986 0.21082258
000100 5d e2 77 3d 74 42 65 bc aa c4 42 3e 5d cf 85 3d
       0.06051861 -0.013992894 0.19020334 0.06533692
000110 5b 71 5e 3e 90 e3 c2 3d c9 d9 77 3e bd c7 7f 3e
       0.21722929 0.0951606 0.24204172 0.24978538
000120 59 26 88 bd ce 1d 83 3e 39 5d 13 3e 6a ae dc 3d
       -0.06647939 0.25608677 0.1439103 0.10775454
000130 1a 1d 00 be b7 3b 18 3e c1 b5 6b 3e cb ce 2f 3e
       -0.12511101 0.1486653 0.23018552 0.17168729
000140 7e 76 2b 3e 83 00 f8 bd 6a 6f 4a 3e 6f a0 70 3d
       0.1674442 -0.121094726 0.19769064 0.05874675
000150 fd 3e 9b bd 0c 2b 7c 3d a8 01 67 3e b4 27 b8 3d
       -0.075803734 0.06156449 0.22559226 0.08991948
000160 fd 2f 60 3e ca b2 29 be e7 8d 47 3e e4 41 64 3d
       0.21893306 -0.16572109 0.19487725 0.0557269
000170 2c 6e 98 3e ad df 39 3e 1c ef 4f 3b 51 54 8b 3e
       0.29771554 0.18151732 0.0031728214 0.27212766
000180 a4 38 8f bc 5d cc 22 3e 1c b1 bb bd 0c 3e e5 3d
       -0.017483063 0.15898271 -0.0916464 0.11193475
000190 20 a1 04 be d6 f9 cb bc 78 0d 33 be 20 71 7f bc
       -0.1295209 -0.024899404 -0.17485607 -0.015590936
0001a0 0a bd 35 be 40 4a 30 3e 69 94 b3 3d bf fb 65 3b
       -0.17747894 0.17215824 0.08768541 0.003509268
0001b0 cb 39 c5 3d 90 8d 97 3d 9c 5a b8 bd d9 b9 b9 bd
       0.09630164 0.07400048 -0.09001657 -0.09068651
0001c0 0b ed 06 bc 01 9e e8 bd 7f 4b c0 bd 72 33 b3 3d
       -0.008235226 -0.11358262 -0.093894 0.08750047
0001d0 ce 7a 21 3e 5c d0 0a be c4 14 d8 3d 64 b5 31 be
       0.15769503 -0.13556045 0.10550836 -0.17354351
0001e0 9f 74 81 bd 1f 5d 14 be e6 c6 f3 3d 2e af fd 3c
       -0.06321072 -0.14488648 0.11903171 0.030967321
0001f0 93 97 b8 3a ea 7b 0b 3e 79 5b 8f 3e b3 64 c2 3e
       0.0014083259 0.13621488 0.27999476 0.37967452
000200 ef 48 b9 3e 3b 93 14 3d 13 17 ce bc 96 d3 97 3e
       0.36188456 0.036273222 -0.025157487 0.29653615
000210 d5 00 a8 3e 85 f0 ab 3e 17 d9 b7 3a 31 7f 89 3d
       0.32813135 0.3358194 0.001402649 0.06713713
000220 02 b6 95 3e cf 16 33 3e 74 84 a4 3e 56 a6 06 3d
       0.29240423 0.1748917 0.32132304 0.032873474
000230 1d 1a 2e 3e 90 c4 a1 3e 49 da b8 3d 34 fd 91 3e
       0.17002149 0.31595278 0.090260096 0.2851349
000240 e0 81 9a 3d 5b 5d 82 3e a3 74 64 3e d2 45 00 3d
       0.07544303 0.2546185 0.22310118 0.031316586
000250 52 b5 ab bd 14 c3 6e 3d 49 ee b6 bd 58 e4 3d 3d
       -0.083841935 0.05829151 -0.08932168 0.046360344
000260 7f 5f 86 3e 73 96 89 3e c2 77 95 3e cc 50 1b be
       0.26244733 0.26872596 0.2919293 -0.1516754
000270 05 d4 08 be 9f 86 0d 3e 86 89 57 3e 3e 8f f7 3d
       -0.13362129 0.13820885 0.21048555 0.12087868
000280 53 05 bf bd 98 e4 d1 3d 91 24 c5 3d 68 2d 43 3e
       -0.093271874 0.10248679 0.09626115 0.1906029
000290 a0 bf 85 3e b6 c3 08 be 7a a9 50 3e e6 54 3a 3d
       0.2612276 -0.13355908 0.2037715 0.04549112
0002a0 3b d4 58 bc 99 62 fc bb 74 41 23 be 63 80 52 3e
       -0.013234193 -0.0077021834 -0.15942937 0.20556788
0002b0 37 e0 59 3e db 03 6a 3e ca ec 3e 3e 33 4f 16 be
       0.21276937 0.22853033 0.18645015 -0.1467865
0002c0 7d 6e d1 bd da 42 11 bc d9 f6 93 3e 3b 5e 40 3e
       -0.10226152 -0.008866036 0.28899267 0.18785946
0002d0 59 05 9f 3d 58 68 2a bd 49 5e 75 3e 7d 4a b4 3d
       0.07764692 -0.041603416 0.23961748 0.0880327
0002e0 a9 08 27 3e ce e3 e6 3d 27 59 31 bd b7 d6 a9 3e
       0.16311897 0.11273919 -0.043297913 0.33171627
0002f0 5d d7 84 3e a8 80 a8 bd a4 08 84 ba 94 c8 34 3e
       0.2594556 -0.08227664 -0.0010073376 0.1765464
000300 67 80 82 3e 5d ce dc 3d e4 35 03 3e 37 1b c4 3d
       0.25488588 0.10781548 0.12813526 0.09575503
000310 06 ad 26 3d fc 07 c7 3d 6a fc 11 3c d5 ce 17 bb
       0.04069235 0.0971832 0.008910278 -0.0023164053
000320 a0 94 9f 3d 30 b3 7c 3d 8b 8c 8e 3d 2a 29 17 be
       0.0779202 0.061694324 0.069604 -0.14761797
000330 b1 dd 1a 3e d3 66 fc bd 17 28 ac bd 94 a2 fc bd
       0.15123631 -0.123243 -0.08406084 -0.12335697
000340 49 36 73 3e 78 08 ab bc a8 14 df bd c1 4e 11 be
       0.23751177 -0.020878062 -0.10892612 -0.14190198
000350 04 b4 81 bd 73 33 c9 3d a3 d6 17 be d3 59 28 3d
       -0.063331634 0.09824266 -0.14827971 0.041101288
000360 85 6a 8a bd 2c ba 60 3e e7 90 b8 3d 0e 9f 85 3d
       -0.06758598 0.21946019 0.09012013 0.06524478
000370 a0 94 46 3e 66 d4 2f bd 96 79 8d bb 74 2f 2d 3e
       0.19392633 -0.04292717 -0.0043174727 0.16912633
000380 a3 69 4a bd 9b 0d 2e 3e a0 3a a4 3d 22 89 45 be
       -0.04941715 0.16997378 0.08018994 -0.19290593
000390 5b 53 f0 bd 8c 0e 72 bd 41 63 23 3d cc ba 51 3c
       -0.11734649 -0.059095904 0.039889578 0.0128008835
0003a0 0d 84 c1 bd 27 54 65 bd 5a 8b 47 3e 56 60 e7 bd
       -0.09449015 -0.055988457 0.19486752 -0.112976715
0003b0 26 86 cc bd ab 30 ad bd 3f 9c 24 be 30 a9 c6 bd
       -0.09986524 -0.08456548 -0.16075228 -0.09700239
0003c0 82 ab c1 3d e3 f2 61 3c 3c fc d8 bd 4a 21 0c 3e
       0.09456541 0.013790819 -0.10594985 0.13684574
0003d0 b2 ab 36 3a c2 f2 16 3e 8c 1d 3e be c3 ab c5 bd
       0.00069683336 0.14741042 -0.18565959 -0.096519016
0003e0 dd e8 85 bd 30 1d 07 be
       -0.06538556 -0.13194728

conv1.bias f4 [10]
000000 d3 15 34 3e e2 44 bf 3d 0f ce 99 bd 59 be e9 3b
       0.1758645 0.0933931 -0.07510006 0.007133287
000010 06 7c e6 bd 70 c7 38 3e 9e 3a 0d 3d 57 a0 cd bc
       -0.11254124 0.1804483 0.03447973 -0.02510087
000020 a9 20 59 3e 29 dc 0d be
       0.21203865 -0.13853516

conv2.weight f4 [20, 10, 5, 5]
000000 f1 b5 6c 3d 35 51 df 3c 7f e5 44 bd 9c ac 0c 3d
       0.0577907 0.027260402 -0.048070427 0.0343443
000010 a4 fb 07 bd ed f7 f1 bc 20 88 f7 ba a7 ca a0 3c
       -0.033198968 -0.029537166 -0.0018885173 0.019627882
000020 e1 a4 1b 3c 2b 11 45 bd 6d 3e 49 bb 5c c3 89 3c
       0.009499759 -0.048112076 -0.0030707375 0.016816787
000030 2e d1 b7 3d aa 19 ad bc f9 ef 50 bd 78 1d a2 bd
       0.08975445 -0.021130402 -0.051010106 -0.07915777
000040 e4 30 cc 3d a4 6d 0f 3c d1 f2 9e bc bf 3c ab 3c
       0.09970263 0.008754168 -0.019402893 0.02090299
000050 01 67 95 3c 83 b6 f7 3c 57 2d ff 3c 8a e2 fe bb
       0.018237593 0.030238396 0.03114955 -0.0077784704
000060 dd 21 22 3d d9 41 3b 3d 8a 0f 2c 3c bb 81 0f bd
       0.039583076 0.045717094 0.010501752 -0.03503583
000070 c7 8a 59 3d fa 1f 00 bb f1 db 64 bd d1 aa b4 3b
       0.053110864 -0.001955031 -0.055873815 0.005513527
000080 01 73 65 3d d5 be 3e bd cd 08 fb bc b2 4a 18 bd
       0.05601788 -0.04656871 -0.030643845 -0.03718061
000090 b1 53 4c bd bf 06 0d 3d 97 af 65 3d 25 72 80 3d
       -0.0498845 0.03443026 0.05607566 0.06271771
0000a0 dd d1 63 bd 76 2b 29 3d 54 09 bc bb d1 5a 98 bc
       -0.055620063 0.041301213 -0.0057384167 -0.018597992
0000b0 5f c5 d9 3c fb 5a 34 bd 79 b0 4b 3d f0 ce 62 bb
       0.026583372 -0.04403208 0.049728844 -0.0034608208
0000c0 0a a8 05 3d a4 8d 07 bd e6 7d 33 3d 47 aa 75 3d
       0.032630958 -0.033094063 0.043821238 0.059976842
0000d0 92 b1 4b 3d d5 e0 1d bd 9c 50 75 bd b6 4a 3f 3c
       0.04972989 -0.038544495 -0.05989133 0.011675527
0000e0 61 7f 80 3d 96 f1 ff bc 46 e0 b0 bd 8f 43 b0 bc
       0.062742956 -0.031243127 -0.08636527 -0.02151659
0000f0 e2 8c 68 bc 6f cc ea 3c 04 2e 12 3a 87 94 a9 bd
       -0.014193745 0.028661935 0.0005576315 -0.082802825
000100 4d 18 1b bd d0 69 3a 3d e0 7f cf 3d d5 5b d8 38
       -0.037864972 0.045511067 0.10131812 0.00010316788
000110 e6 ed 56 bd 98 4d a5 bc 96 e7 ca 3c f6 86 c3 3d
       -0.05247297 -0.020178601 0.024768632 0.09547226
000120 79 a5 93 3d 82 b4 6e 3c b6 31 3b 3d 0a fa 20 bd
       0.07209296 0.014569404 0.045701705 -0.039300956
000130 24 44 80 3d a3 bf 77 3d 2b fa 1c 3d 60 39 12 bb
       0.06262997 0.060485493 0.038324516 -0.002231203
000140 5f 41 68 bc 78 5e 29 3d 6f f6 c4 3d 41 7d 17 bd
       -0.014175742 0.041349858 0.09617316 -0.036984686
000150 dd fc 9e bb 98 ce d3 3c 81 12 e5 3d 32 d9 01 bd
       -0.004851921 0.025855348 0.1118517 -0.031701274
000160 ce 4b 23 bd 82 94 6f bd a3 49 9e 3d 28 7c 5b bc
       -0.039867215 -0.058491237 0.07728889 -0.0133963
000170 6d 9d 91 3d b7 af c7 3c 82 11 4d 3d f6 39 92 bc
       0.07110105 0.02437578 0.050065525 -0.017849904
000180 e8 3d 22 3d 9b 01 92 3d a7 cb 6e 3d e3 65 59 3d
       0.03960982 0.071292125 0.058299687 0.053075682
000190 6f 5e 6f 3d ac c4 d7 3c 9b 59 33 bd 36 a0 fc 3c
       0.05843967 0.026338898 -0.043786626 0.030838113
0001a0 b7 bf 52 3d 08 45 15 3c a7 f3 20 bd ce b3 bc bc
       0.051452365 0.009110697 -0.039294865 -0.023034956
0001b0 99 42 38 3c 13 e1 1b bc c2 31 8f 3c b4 9b 3f bd
       0.011246347 -0.009514111 0.017479781 -0.04677935
0001c0 41 d5 36 bc 06 68 86 3b 99 08 75 bc 6e f5 4f 3d
       -0.011159242 0.004101756 -0.014955663 0.05077117
0001d0 7c 36 0b bc 7c d9 2c 3d 87 74 13 3d d5 dd bd 3b
       -0.008496877 0.042199597 0.0359998 0.0057942667
0001e0 55 66 aa 3c ab 37 3d ba 20 80 2f 3d d8 cb ac bc
       0.020800749 -0.0007218073 0.0428468 -0.021093294
0001f0 23 eb 1e 3d 3e 80 5e bd 00 a8 83 3a 55 49 ae 3d
       0.038798463 -0.05432152 0.0010044575 0.08510081
000200 16 f9 f4 bc f0 5f 8e bd de 2c 4f bd 79 b7 30 3d
       -0.02990393 -0.069518924 -0.050579898 0.043143723
000210 8c a9 d9 3d 87 a2 51 bd 25 77 fd bb ed e7 11 3d
       0.106280416 -0.05118039 -0.0077351504 0.035621572
000220 99 a2 b7 3d 1c bb a0 3d f1 ee a8 bd 4d b0 66 bd
       0.0896656 0.07848188 -0.082486995 -0.056320477
000230 ce 89 19 3d f7 07 c7 3d 42 97 02 3d 58 56 21 bd
       0.037484936 0.09718316 0.031882532 -0.039388984
000240 68 86 81 3c 72 b4 c0 bb 94 97 e1 3d 4e 03 02 3d
       0.01581116 -0.0058808858 0.11015239 0.031741433
000250 b3 eb 23 3c fe 56 6f 3c 4d 19 43 3d a3 86 82 3d
       0.010004926 0.014608143 0.04763155 0.06373336
000260 3e 22 8c 3b 2e 31 ce 3c b5 96 9e bd 6f 61 49 3d
       0.004276543 0.025169935 -0.07743589 0.049165186
000270 e4 e9 eb 3d 77 44 39 bd f6 89 c1 3b 8a 7e 65 bd
       0.115192205 -0.04523131 0.005906339 -0.05602888
000280 22 69 fa 3d 42 52 c0 3d 88 e8 ba bd 1b 07 b4 3c
       0.12227084 0.093906894 -0.09126383 0.021976044
000290 ff 95 f1 bc 07 a7 99 3d d2 db 2c 3d b9 7b 6b bd
       -0.029490469 0.07502561 0.042201824 -0.057491038
0002a0 d6 82 6b bd 98 51 ab bc e0 59 82 3d 9c b6 39 3d
       -0.05749782 -0.02091293 0.063647985 0.045340165
0002b0 b3 29 03 3d 31 15 89 bc 5f 88 80 bd c3 5d 45 3b
       0.03202219 -0.016733738 -0.06276011 0.00301157
0002c0 ac ae 1c bd 77 b1 82 3d 01 2b 9b bc 58 c0 32 bc
       -0.038252518 0.06381505 -0.018941404 -0.010910116
0002d0 32 ef 22 3c 41 9e 1f 3d 1b ed f6 3c 50 cd 90 bd
       0.009944724 0.038969282 0.030142358 -0.0707041
0002e0 08 f6 6c bd 72 c3 59 3d 9a 86 93 3d 93 f7 ae bd
       -0.05785182 0.053164907 0.072034076 -0.08543315
0002f0 35 4a e5 bc 77 a7 8c bd 57 01 c5 3d 6c 22 80 3d
       -0.027989486 -0.06867879 0.09619396 0.062565655
000300 5e bd ff 3c 6b d1 30 3c 86 c3 3c bd 0d f1 f0 3b
       0.031218227 0.010792117 -0.046084903 0.0073529542
000310 0e 0c cf bb 9b f1 42 bd 50 ab 47 bc d8 29 d7 bb
       -0.0063185757 -0.047593694 -0.01218684 -0.0065662675
000320 3b 5b 88 bc d6 13 22 3b 73 a8 6a 3c 6c 5f 18 bd
       -0.016645065 0.0024731061 0.014322388 -0.037200376
000330 4c 2f 88 bd 22 fb 9b 3c bc 28 8d 3d ff f6 ed bc
       -0.06649646 0.019040648 0.06892535 -0.029048441
000340 ea b5 3b 3d 4d d5 a3 bc ad e9 e5 3c a8 83 12 3d
       0.045827784 -0.01999917 0.028065527 0.03577009
000350 2d 7b 20 3d b7 1e 8a bc b3 07 bc 3c 09 51 9b 3d
       0.03917997 -0.01686035 0.02295289 0.075838156
000360 60 91 cb bc 8f aa 32 3c 44 52 29 3d 69 45 1c 3d
       -0.024849594 0.010904922 0.04133822 0.038152132
000370 2f 73 c9 3b d3 e7 39 3d 7f 23 1f bd f7 e6 47 bb
       0.006147764 0.0453871 -0.03885221 -0.0030502656
000380 19 a9 09 3d 09 ce 51 3d 1b 87 2e bd 03 61 79 3d
       0.03360853 0.05122188 -0.042609315 0.060883533
000390 3b c1 90 bc e2 eb 3c bd 19 59 48 bd 17 a0 10 3c
       -0.017670264 -0.046123393 -0.048913095 0.008827231
0003a0 56 40 3e 3d 14 df 31 bd 48 5e 4c 3d 65 f0 08 bd
       0.046448074 -0.043425635 0.0498946 -0.033432383
0003b0 77 a8 99 bc 1e 97 87 3c 0e 44 f8 bc dc 2b 61 bd
       -0.018757088 0.01655155 -0.030305889 -0.05497347
0003c0 a6 ee 08 3b 53 5b 01 bd be f1 9f bc bf 9f 34 bd
       0.0020894199 -0.031581234 -0.019524451 -0.04409766
0003d0 b3 bf 1c bd 43 d0 e6 bc fd da 3f bc 54 64 7e bb
       -0.038268756 -0.028175479 -0.011709926 -0.0038817124
0003e0 d3 a4 91 3c fc 08 2a bd 8f 54 85 bc eb 4d 30 bc
       0.01777879 -0.041512474 -0.016275672 -0.010760765
0003f0 32 94 28 bc 0c 5a 17 3d 68 2e 1d bd cd ce 28 3d
       -0.010289239 0.03695111 -0.038374335 0.041212846

conv2.bias f4 [20]
000000 e0 19 1d 3d 5d 74 ec b9 12 9f 38 bd 9e 1e 81 bd
       0.038354754 -0.00045100125 -0.045073576 -0.06304668
000010 4e 6a 8b 3d 72 0a 15 3d 00 67 7f 3d c1 8c 49 bd
       0.068073854 0.036386915 0.062354088 -0.0492065
000020 4e ac e2 3c 28 d1 90 bc 9d 20 96 bb c8 8e aa 3c
       0.027670052 -0.017677858 -0.0045815245 0.020820037
000030 73 1e b4 3c 47 01 5a bd bb 2e 37 bd 19 4d 85 3c
       0.021987176 -0.053223874 -0.0447223 0.016272115
000040 e4 2c f4 bb 6a 5a a3 3d 6b 3a 99 3d 85 61 1f bb
       -0.0074516404 0.079762295 0.074818455 -0.00243196

fc1.weight f4 [50, 320]
000000 0e 8c d7 3b 5e 0f ad 3c 8d 66 90 3d 35 f1 90 3d
       0.006577975 0.021125492 0.0705081 0.070772566
000010 8a c4 24 bd 9e 22 8e bd a4 e3 00 3d 9e 90 56 3b
       -0.040226497 -0.069401965 0.031467095 0.0032740007
000020 30 3a 54 bd 5f 05 15 bd c8 87 70 bb 8b c6 91 bd
       -0.051813304 -0.036382075 -0.0036702026 -0.07117947
000030 f2 c8 f9 3c 59 71 c6 bc f5 b6 ff bc d5 9f db 3c
       0.030491326 -0.02422397 -0.03121517 0.026809612
000040 df 75 7f 39 f2 a0 6e bb a3 7d 95 3d 09 44 0e 3d
       0.00024362605 -0.003641185 0.07299354 0.034732852
000050 ab ae 37 bd d0 64 75 3c 4e f2 2f bd b9 d6 d5 bc
       -0.04484431 0.014977649 -0.04295569 -0.026103364
000060 0b db 1e bd 23 51 58 38 91 43 b2 3c 08 6d 8e 3d
       -0.038783114 5.1573978e-05 0.021760734 0.0695439
000070 2e b2 0c bd 1e e5 4d bc 12 f0 f4 3b 2f 39 36 3b
       -0.034349613 -0.012566833 0.0074749077 0.002780508
000080 ee 7c 68 3d 05 53 56 bb 66 d7 97 3d 8d ff 98 3d
       0.056759767 -0.0032703292 0.07414131 0.074706174
000090 fb 55 86 3c 5f 67 e4 bd 52 55 a4 3c 5a 68 04 3c
       0.01639842 -0.11152529 0.020060215 0.00808152
0000a0 32 3a d5 3c 5f 5d 3e 3d f4 85 30 3d a1 3c 40 bd
       0.026028726 0.046475764 0.043096498 -0.04693282
0000b0 ed dd d1 3c 8e 96 ff 3c c2 84 49 bd a5 18 5e bc
       0.025618518 0.03119972 -0.049198873 -0.01355568
0000c0 46 06 03 3d 7b cc 1c bd 23 37 17 bd 0c 6c bb 3c
       0.031988405 -0.038280945 -0.036917817 0.02287867
0000d0 ca e4 33 bd 41 5c 57 bd b4 92 52 3d 35 68 18 bd
       -0.043919362 -0.052578215 0.05140944 -0.037208755
0000e0 ba cb 4b 3d b8 9c ac bb ac 80 43 3d 98 b4 8a 3b
       0.049754836 -0.005267706 0.047730133 0.0042329542
0000f0 8c a1 27 bc c0 70 ff 3c 62 9a 13 3d 77 ca 1a bd
       -0.010231387 0.031181693 0.036035903 -0.03779074
000100 c4 ef 02 3d 21 76 14 3d 35 8a 13 3d db 71 98 3c
       0.03196694 0.03624547 0.036020476 0.018608978
000110 6c 3d 7d bb 34 61 3d 3d 87 d1 d4 bc 80 21 c2 bc
       -0.0038641347 0.04623528 -0.025978817 -0.023697615
000120 b4 f2 aa 3c 87 7c 86 3d f1 a4 a5 bd f0 d6 5d bd
       0.020867683 0.065667205 -0.08088101 -0.05416006
000130 bf 42 6e bc f9 e0 ef bc f9 74 43 bc b2 76 a2 3c
       -0.014542281 -0.02928208 -0.011929744 0.019831989
000140 33 3e 88 3d f6 14 0b 3d a1 e6 17 3d fb 66 d4 bb
       0.066524886 0.033955537 0.03708518 -0.006482003
000150 c9 0d 0b 3d 0c 39 04 bd c2 14 6f bc 3f 1c 22 3d
       0.033948693 -0.032280967 -0.014592351 0.03957772
000160 eb f4 37 bd 1b 07 cd bc d3 76 75 3b 82 a2 34 bc
       -0.044911306 -0.025027802 0.0037454858 -0.011025073
000170 98 1e 01 3d f8 4b bc 3c 9c 45 04 3d 9f 08 35 bc
       0.031523317 0.022985443 0.032292947 -0.011049419
000180 89 ad 8b bc 00 e8 01 bc d9 7b d6 bc 42 2b 88 bc
       -0.017050521 -0.007928848 -0.026182102 -0.01662219
000190 06 80 96 bb ea cc ab 3c 18 47 07 bc d7 06 a6 3d
       -0.0045928983 0.020971734 -0.008256696 0.08106773
0001a0 b5 c6 b1 bc 91 93 a2 3c 5a b1 af 3d fd 3a 30 bd
       -0.021701196 0.019845756 0.08578749 -0.043025006
0001b0 99 80 9b 3c 70 28 46 bd 2d d4 4b bc ea d6 1c bd
       0.018982219 -0.048378408 -0.012440723 -0.038290896
0001c0 6d 59 39 bd a1 e5 93 bd 1c 2f f8 3c 40 d2 d5 bc
       -0.0452513 -0.072215326 0.030295901 -0.026101232
0001d0 21 b7 a7 bd 66 f0 47 3d eb 14 8d 3d 53 49 27 3d
       -0.08189226 0.048813246 0.068887554 0.04084141
0001e0 11 9f 58 bd fb 9a 05 bd bb f1 bd bb b7 33 fb bc
       -0.052886073 -0.032618504 -0.005796639 -0.030664308
0001f0 29 17 31 bd fe 1c cb 3a 6d 01 68 3d 4a fc 09 3d
       -0.043234978 0.0015496311 0.056641985 0.033687867
000200 83 46 85 3c 87 12 3a 3b 89 99 22 bc b0 6b 24 bd
       0.016268974 0.002839239 -0.009924301 -0.04014176
000210 6f ef 99 3c 71 8d 93 bd 18 dd 20 3d 82 b1 dd 3b
       0.018790929 -0.07204712 0.03927335 0.0067655453
000220 8a fe 9d bb 3e 23 98 3d b4 56 cf 3c f7 80 1c bd
       -0.004821603 0.07428597 0.025309898 -0.038208928
000230 5b 4a ba bc b0 75 54 3d 01 eb b9 bc 6c 98 55 3d
       -0.022740534 0.051870048 -0.022695066 0.052147314
000240 fa d9 8e bb 3d 57 c6 3c d3 9d ab bc 74 d3 b0 bb
       -0.004359481 0.02421152 -0.02094928 -0.005396301
000250 f7 92 98 3c 3d 16 5e 3d 08 61 24 bd 42 30 23 3d
       0.018624766 0.054220427 -0.0401316 0.039840944
000260 fc 80 ba bc b3 50 c3 bc 39 87 87 bc e4 ea 30 bd
       -0.022766583 -0.023842191 -0.016543971 -0.04319276
000270 9a 32 3f bd 3b 51 5b bd da 38 e5 bb 38 3b 48 bc
       -0.046679117 -0.053544264 -0.0069953026 -0.01222115
000280 c9 d6 57 3d 73 7e 77 3d 9d e4 f5 bc df f9 5b bd
       0.05269507 0.060423326 -0.030016238 -0.053705093
000290 f9 13 f1 3b 5f 53 53 3d b6 b0 f3 3c b4 97 88 38
       0.0073571173 0.05159318 0.029747348 6.513242e-05
0002a0 5e f5 85 3b b0 fe 25 3b e7 60 29 3d f0 f0 19 3d
       0.004088088 0.0025328808 0.04135218 0.03758329
0002b0 fc 41 5a bd 58 0b fd bb f9 f8 bd bc f4 7c 6b bd
       -0.053285584 -0.0077222995 -0.023190008 -0.05749221
0002c0 79 e1 93 bc 8c ac 36 3c d7 b8 01 3d 38 7a 28 bd
       -0.01805185 0.011149537 0.031670418 -0.041132182
0002d0 28 5a be bb 4f 26 18 3d 42 bb 17 3d 8d 44 26 3d
       -0.0058090873 0.03714591 0.037043817 0.04059272
0002e0 a4 31 5b 3c 58 5a 4b bc d8 d7 2e 3b bf 12 9a bc
       0.0133785345 -0.012411676 0.0026678946 -0.018807767
0002f0 d8 b8 59 bd 31 ec 2d 3a 5d 7f bd bc 36 b0 eb 3a
       -0.053154796 0.00066346215 -0.02313202 0.0017981592
000300 fe c6 02 bd d9 45 2d 3d dd 6d c7 3c 05 1d 42 3d
       -0.031928055 0.04230294 0.02434438 0.047390956
000310 1e 10 be bb 8f bb 98 3d a3 39 5d 3d db c9 24 3d
       -0.005800261 0.07457649 0.054010045 0.040231567
000320 ba c9 84 bd 46 0d 0b bc 6e 02 1c bc 39 fa 0e 3d
       -0.06483789 -0.008487051 -0.009522064 0.0349066
000330 71 95 61 bc 8b 8b a2 3c 76 94 10 3d a0 f0 1f bc
       -0.01376854 0.01984193 0.035297833 -0.009761959
000340 16 26 00 3d 94 0b 67 3d 6c 31 7e bc f5 68 5a bd
       0.03128632 0.056407526 -0.015514713 -0.05332275
000350 71 5e 6d bb e0 cb d1 3a 9c 4b a6 3c cc f5 2e 3d
       -0.0036219622 0.0016006194 0.020299725 0.04271488
000360 e2 49 f3 3c a9 39 d7 bc 5d b2 4c 3d 48 7b ec 3c
       0.029698316 -0.026272612 0.049974788 0.028867379
000370 5c 87 5f bd 33 37 40 bd 6e 89 f0 bc 61 6d dd 3b
       -0.054572448 -0.046927642 -0.029362407 0.0067574237
000380 8c 95 29 3d 0b aa 6a 3c 31 b3 10 3d c4 fa 21 3b
       0.041402385 0.014322768 0.03532714 0.0024716118
000390 61 58 11 bd dc 31 92 bc 08 1e 3a bd ce 8a e8 bc
       -0.035484675 -0.01784604 -0.045438796 -0.0283865
0003a0 26 b0 ae bc 12 c7 0a 3c 66 03 15 bd ec 0f 28 bd
       -0.021324228 0.008470314 -0.036380194 -0.04103081
0003b0 96 72 d6 3c 4e 9e ab 3c 59 4d 92 3c 96 30 66 3d
       0.026177686 0.020949509 0.017859148 0.05619868
0003c0 a1 c9 28 3d 3b 0e 74 3b c6 ae c0 3c bb 63 49 bd
       0.041207913 0.0037239927 0.023520838 -0.049167376
0003d0 41 ff 8a 3c 92 70 5a 3d d0 48 a4 bb c6 01 c7 bc
       0.016967418 0.05333001 -0.0050135627 -0.024292838
0003e0 78 71 24 bd 56 c8 2d 3d 0e 57 4a 3d 20 3d 77 bb
       -0.040147275 0.042427383 0.049399428 -0.0037725642
0003f0 87 ac 6c 3c 09 29 14 3d 15 cf 52 bd 88 0f b9 3b
       0.014445431 0.036171947 -0.05146702 0.0056476034

fc1.bias f4 [50]
000000 cc a2 f7 3c 66 4c 55 bd 6a 80 14 bd 49 65 e7 3c
       0.030228995 -0.052074812 -0.036255278 0.028246539
000010 90 92 db 3c e8 3f 53 3d 59 0d 03 bb 79 2b 11 bc
       0.026803285 0.051574618 -0.001999697 -0.008860462
000020 ae 0d 5b bc b1 9b 22 bd 36 4a 21 3d ee 6e e4 3c
       -0.013369961 -0.03969926 0.039377414 0.027884927
000030 d8 51 d9 3c 00 86 6a bd f4 46 b2 bb e7 a8 63 3d
       0.026528284 -0.0572567 -0.005440587 0.055581
000040 da 69 67 3d 9b 44 8a bc fb 2f 05 3d 0f bf 00 3d
       0.056497432 -0.016878417 0.03251646 0.031432208
000050 db 3e 25 bd fc ca 65 3c c1 6c 03 bb ea 89 94 bc
       -0.040343147 0.014025446 -0.0020053836 -0.018132169
000060 ca ac 85 3c ca 9a d5 3b 8b 17 4f 3d a0 a0 3b 3c
       0.016317744 0.0065186964 0.05055956 0.01145187
000070 8a ac 81 bc 47 a7 06 3d ca 32 01 bd a0 f6 23 3a
       -0.015829343 0.03287437 -0.031542577 0.00062547065
000080 99 07 af bc d9 05 83 bc 1f b2 33 bb 63 f9 b3 bc
       -0.021365928 -0.015994 -0.00274194 -0.021969503
000090 41 1f 94 bc c4 5d 63 3d 99 7c 63 bd 71 49 06 3d
       -0.01808131 0.055509344 -0.055538747 0.032784883
0000a0 06 09 7d 3d dc 5b c2 bb c3 77 2b 3c ab 9e 8a bb
       0.061776184 -0.0059313606 0.010465565 -0.0042303405
0000b0 40 81 34 3d 84 21 c7 bc 60 ac b1 3c ff ea f8 3c
       0.044068575 -0.024307974 0.02168864 0.030385492
0000c0 7c 2c 88 3d d0 61 76 bb
       0.0664911 -0.0037594922

fc2.weight f4 [10, 50]
000000 cf 17 3e be 92 b3 18 be c1 6a 0b be b2 3a 27 be
       -0.1856377 -0.1491225 -0.13614942 -0.16330984
000010 d7 0e 02 3e d3 15 ac 3d 69 12 bd bd 36 83 74 3d
       0.12700973 0.084026 -0.09232027 0.059695445
000020 ae 45 2d 3e de 23 11 3e 49 dd f9 bd 1e 89 51 be
       0.16921112 0.14173838 -0.1220041 -0.20462462
000030 fd a7 3c 3e bd 32 a2 3d ae c5 85 3d 98 9c 84 3d
       0.18423457 0.07919834 0.06531845 0.064751804
000040 a5 93 c2 bd 4b e5 e7 3c 6c 5c 72 be e5 0c 5f be
       -0.09500817 0.028307578 -0.23668069 -0.21782263
000050 41 95 d1 3c 61 18 00 be a6 0f 67 3e 7e de e3 3c
       0.025583865 -0.125093 0.22564563 0.027816053
000060 e7 dd b9 bd b9 e5 d7 3c 9f 1c e2 3c 36 a2 5d be
       -0.09075528 0.026354657 0.027601538 -0.2164391
000070 32 eb 5a 3d 94 0a 36 3e 03 f9 27 3e 37 aa e3 bd
       0.053446956 0.17777473 0.16403584 -0.1111645
000080 da 55 8a 3e 49 95 79 3d 11 54 eb 3c e7 7c 2a be
       0.27018625 0.060933385 0.02872661 -0.16649209
000090 01 ef f2 3c fd c6 f7 bc df 77 c4 bc 58 c9 43 bd
       0.029654982 -0.030246252 -0.02398294 -0.04779944
0000a0 6f 3d 8c 3d 3d 3c 09 3e 29 ff 95 3d 62 d8 1d 3e
       0.06847655 0.13401885 0.073240586 0.15414575
0000b0 84 ca 02 be 91 b2 d3 bd f2 c8 b8 bb 9a 2c 36 be
       -0.12772566 -0.10336793 -0.005639189 -0.17790452
0000c0 70 0d d7 bd e5 a7 97 bd 74 01 53 3e 21 a4 31 bd
       -0.1050061 -0.0740507 0.20606023 -0.043369416
0000d0 28 93 6e 3d 0d 90 f7 3d fe e3 8c bd 06 97 95 be
       0.058245808 0.120880224 -0.068794236 -0.29216784
0000e0 24 2c d4 3d e7 fb cf 3b aa 4e 8e bc c4 7d 7e 3d
       0.10359982 0.006347168 -0.017371494 0.06213166
0000f0 d7 fc 45 3e 3c 20 36 3e 72 f4 83 be cf 26 01 be
       0.19334732 0.17785734 -0.25772434 -0.1261246
000100 cd bc 10 bd c1 86 1d bd 14 30 ad bc b0 1c 21 be
       -0.035336304 -0.03845859 -0.02114109 -0.157336
000110 54 1b 76 bd a4 16 ce bd 36 1f d4 3d b2 5d 0e 3e
       -0.060084656 -0.10062912 0.103575155 0.1390293
000120 c4 b1 02 ba 7e a6 4e be 15 fc 25 3e ba 6d 3c be
       -0.00049855956 -0.20180699 0.16209443 -0.18401232
000130 82 78 a5 bd ff e6 49 3e 82 75 a8 bd bd 52 b5 bd
       -0.08079626 0.19717024 -0.08225538 -0.08853672
000140 c4 8f db bc 5a c8 a0 bd 76 e4 46 3d af 96 2f bd
       -0.026801951 -0.07850714 0.04855772 -0.042868312
000150 55 bc f0 bd ae ce 07 3e 05 13 bc 3d e7 55 9d bd
       -0.117546715 0.13262436 0.09183315 -0.076824
000160 8f 4b 4e bc 88 ba 92 bc 7e 0c 4e be 13 6e 11 be
       -0.012591257 -0.01791121 -0.20121953 -0.14202146
000170 00 ed 96 bd 6e 61 2f be 2b f4 30 3e 4a 09 f5 3d
       -0.07369423 -0.1712701 0.17280643 0.119646624
000180 9d 2c 03 be 47 c3 42 be 6a 3b 55 3e 17 30 f9 3d
       -0.12809987 -0.19019805 0.20823446 0.121673755
000190 6a e6 01 bd 21 15 f4 bd 80 34 22 bc b4 42 0a 3e
       -0.03171388 -0.119180925 -0.009900212 0.13502008
0001a0 2d b5 b4 3c 72 55 ea bc 0a 09 fe 3d 10 02 4a 3d
       0.022059048 -0.028605197 0.12404068 0.049318373
0001b0 14 6d 76 3d 49 43 c7 bb 35 fa c1 bd 26 ca 37 3e
       0.06016262 -0.006081019 -0.09471551 0.17948207
0001c0 1e c8 e4 bd 2d d4 85 bd c2 59 fb bd 58 59 d8 3d
       -0.11170982 -0.0653461 -0.12272979 0.10563916
0001d0 aa 1e 03 be e9 ca 17 3e aa 1b bf bd da bc 04 be
       -0.12804666 0.14823498 -0.093314484 -0.12962666
0001e0 04 b7 88 3d 70 7a 03 3e b8 c8 1f 3e 89 af 06 be
       0.066755325 0.12839675 0.15603912 -0.13152899
0001f0 1b 0d a1 3d 61 f8 38 be d0 f8 e3 3d f3 03 f5 bd
       0.07863828 -0.18063499 0.111314416 -0.11963644
000200 ac ca 9b bd 24 6b 24 bd e5 63 af bd 0b 2f d7 bd
       -0.07607016 -0.04014124 -0.08563975 -0.105070196
000210 b5 e7 81 3c 7d ff 67 3e 53 c0 ee 3d c2 49 2e 3e
       0.015857557 0.22656055 0.11657777 0.17020324
000220 28 3e cf 3d 3b d3 5f 3e 3d af be bd 7e 79 92 3d
       0.10119277 0.21857922 -0.09310768 0.07152079
000230 c2 ad b4 bd b0 a2 0d 3d fb 2f ff 3d 3c c4 5c bd
       -0.08822204 0.03457898 0.124603234 -0.05389808
000240 27 22 24 3e 22 10 26 be fe 45 97 3d b7 96 52 3e
       0.16028653 -0.16217092 0.07386397 0.20565306
000250 38 fd 08 be 4a 0a 34 3c 9e 31 3f 3e d6 b5 92 bd
       -0.13377845 0.010988781 0.18671271 -0.07163589
000260 23 35 15 3d 9b a9 a0 3d fa 48 0e 3e d3 fc 40 bd
       0.03642763 0.0784485 0.13895026 -0.047116112
000270 b8 56 38 be 4c a4 f5 3d 98 44 39 bd 65 c1 be 3d
       -0.1800183 0.11994228 -0.04523143 0.09314231
000280 8e 48 4f be 54 d8 23 bd 90 56 f9 3d 9e b2 b7 bc
       -0.20242521 -0.04000123 0.121747136 -0.022424038
000290 c5 ca 7e bd 6f 44 60 3e 07 9f 64 3e 52 9b ad bc
       -0.062205095 0.21901105 0.22326289 -0.021192227
0002a0 3f db 98 3d d0 07 a5 3d 38 75 bd 3c 08 85 b1 3d
       0.07463693 0.08058131 0.023127183 0.08667952
0002b0 10 7f 89 bd cd 20 23 3d b2 20 2f be 0d 6c 00 3d
       -0.067136884 0.039826203 -0.17102316 0.031353045
0002c0 3b 47 ad bd 68 3a 1e 3e 7d 1e 65 bd c8 73 8f bd
       -0.08460852 0.15451968 -0.05593728 -0.070045054
0002d0 e7 d8 93 bd 88 31 49 3d f8 a1 5b 3d 26 77 a9 3d
       -0.07219105 0.049119502 0.053621262 0.08274679
0002e0 00 1d f5 3d 2f b6 52 3d 44 66 85 bd ce 0f 89 3d
       0.11968422 0.051443275 -0.06513646 0.06692468
0002f0 5f 1f cb bc b4 3a ec bd 5b ee 6c be 31 d6 fc bd
       -0.024795232 -0.11534634 -0.231378 -0.12345541
000300 67 a3 1e 3d b6 52 b7 bd e5 2e 12 3e d2 e5 95 3b
       0.03873005 -0.08951323 0.14275701 0.004574516
000310 e9 58 1c bc 4b 23 bb 3c 47 26 68 bd 65 fd 21 bc
       -0.009542682 0.022843977 -0.05667713 -0.009887074
000320 29 15 00 be 30 5d e9 bc 5a 8f a2 bd e1 1a 3a be
       -0.12508072 -0.028486818 -0.079374984 -0.18174316
000330 37 e3 63 be 9d ba 86 3b 41 76 14 bd 5f 38 91 3d
       -0.22254644 0.0041116015 -0.03624559 0.0709083
000340 ab eb e7 bd cd 25 03 be 3f ab de 3d 1f 8e 22 be
       -0.11324247 -0.12807389 0.10872506 -0.15874527
000350 ee b1 23 3d 35 ac bf 3d 29 37 b7 3d 53 66 66 be
       0.03996461 0.09359018 0.08946068 -0.22499971
000360 80 d7 e1 bd 4c 5a 2f 3e 5a d8 33 3e 7c be 23 3e
       -0.110274315 0.1712429 0.17563 0.15990633
000370 f0 eb 2a bd 3a 1a 0f bb e3 36 88 3d 0c aa 13 3e
       -0.041728914 -0.00218357 0.06651094 0.14420336
000380 f7 db 16 3e 8e 03 b4 bd 5b 80 01 bd 7c e2 07 be
       0.14732347 -0.087897405 -0.03161655 -0.1326999
000390 59 82 65 3d 3b c8 b8 bd 58 d4 cb 3c 17 b4 fe 3d
       0.056032512 -0.09022566 0.024881527 0.12436693
0003a0 51 2c 31 be 3d 33 b9 3d 8e 0b 05 be e6 8c 04 be
       -0.17302062 0.09042976 -0.12992689 -0.12944373
0003b0 e6 96 5f 3d 05 81 0b 3e 39 58 07 be d7 2e ae 3d
       0.054587267 0.13623436 -0.13217248 0.08505028
0003c0 27 a1 ab 3b 14 4c bc bd 35 e4 98 bd fb c5 23 3e
       0.0052377167 -0.09194198 -0.07465402 0.15993492
0003d0 63 09 4f 3c a9 ba 18 3e 69 cf 0a 3e ae b0 32 3e
       0.012636515 0.14914955 0.13555683 0.1745021
0003e0 4d 90 c2 bd 9b 95 4c 3c e0 87 f0 bd d9 3e cf 3d
       -0.095001794 0.012486841 -0.11744666 0.10119409
0003f0 53 29 ec bc 28 7e d3 3d e5 03 8b 3d a9 b5 52 3d
       -0.028828299 0.10326797 0.06787852 0.051442776

fc2.bias f4 [10]
000000 51 6c a7 bd 7d 41 20 bc 7c 06 6a bd 8f 1a a5 3d
       -0.081749566 -0.009781239 -0.05713509 0.08061706
000010 72 b7 2a bd 64 d6 82 bc e7 11 55 3d 38 03 95 3d
       -0.041678853 -0.01597137 0.052019026 0.072760046
000020 61 f6 3e bd 76 ab b9 bd
       -0.046621684 -0.09065907

momentum_buffer f4 [10, 1, 5, 5]
000000 24 7a ab bc 86 d3 59 bd ac fe 16 bd 26 e3 7a 3c
       -0.020932265 -0.05318024 -0.036863968 0.0153129455
000010 98 2f 1c 3d 02 f4 07 bd bf 70 75 bd e1 84 04 bd
       0.038131326 -0.03319169 -0.059921976 -0.032353286
000020 f2 b8 8d 3c 74 b9 d7 3c 0b 37 41 bd 7e 3d 86 bd
       0.017300103 0.026333548 -0.047171634 -0.065546975
000030 d4 43 10 bd 08 ba b9 ba a0 7f b8 ba 89 9c 4a bd
       -0.035220936 -0.0014169822 -0.0014076121 -0.04946569
000040 a9 53 87 bd 48 f1 3e bd d2 82 c7 bc 3c e7 cb bc
       -0.06607754 -0.046616822 -0.024354372 -0.024890535
000050 e4 42 1b bd 1c ce 49 bd fc e2 41 bd a2 38 2d bd
       -0.03790559 -0.049268827 -0.04733561 -0.042290337
000060 76 4e 55 bd 25 0e d9 39 1c a8 d0 39 8c 0d 57 3a
       -0.05207678 0.00041400004 0.00039798103 0.0008203618
000070 51 34 86 3b 08 f9 33 3b 6b 77 10 3a 19 0a 42 ba
       0.004095592 0.0027461667 0.0005510959 -0.00074020174
000080 40 94 9d 3a 66 05 89 3b 20 d5 1a 39 43 c6 2c b9
       0.0012022331 0.0041815517 0.0001476598 -0.00016477056
000090 5b 97 b3 bb ae 7f 4d bb 6d 89 0d 3a 96 2a 28 bb
       -0.0054806895 -0.003135662 0.0005399201 -0.0025660149
0000a0 a6 0e 26 b9 9a 49 a7 bb 64 45 7f bb 5a 80 20 bb
       -0.0001583645 -0.0051052095 -0.0038951272 -0.0024490566
0000b0 be 0b 57 bb 42 5b d8 3a a6 a8 0c bb 52 ef cf bb
       -0.0032813395 0.0016506689 -0.0021462827 -0.006345668
0000c0 d1 7a a3 bb ee 61 1a bc fe df 0e bc d8 b2 c9 bc
       -0.004989006 -0.009422762 -0.008720396 -0.024621412
0000d0 12 41 57 bd 7d 59 98 bd 80 0a 44 bd 8a cd ad bc
       -0.05255229 -0.074389435 -0.047861576 -0.021216173
0000e0 33 07 7e bd 7d c8 f6 bd be bd 0d be d8 ba 9c bd
       -0.062018584 -0.12049959 -0.13841912 -0.07652825
0000f0 ad 92 3a bd fe 3f b6 bd 46 66 11 be 5a cc 09 be
       -0.045550037 -0.08898924 -0.1419917 -0.1345686
000100 1d 67 95 bd d2 f0 51 bd 0a ea b1 bd 19 0a d3 bd
       -0.07295058 -0.051255055 -0.086872175 -0.1030466
000110 c5 cb c0 bd f4 47 97 bd 46 d1 91 bc 43 89 09 bd
       -0.09413866 -0.07386771 -0.017799985 -0.03357817
000120 68 68 0a bd 58 0f 4b bd c0 f9 50 bd 4f 25 28 bc
       -0.033790976 -0.04957518 -0.05101943 -0.010262801
000130 b8 bb 0e bb 24 1f 03 bd 34 00 36 bd 5b 55 d6 bc
       -0.002177937 -0.03201212 -0.044433787 -0.026163748
000140 4c 02 80 bc eb af 87 bc b9 1d 74 bd fa 9d 8a bd
       -0.015626095 -0.016563376 -0.05959866 -0.06768413
000150 ba ba f1 bc 15 3b 15 bd f8 e1 64 bd b6 5c aa bd
       -0.029507983 -0.0364333 -0.055879563 -0.083184645
000160 5a aa a1 bd ec c5 13 bd dd bb 5b bd 77 0d 8d bd
       -0.0789382 -0.036077425 -0.053645957 -0.06887334
000170 18 30 93 bd 60 e7 98 bd 6e f9 7d bd 61 33 0b bd
       -0.071869075 -0.07466006 -0.062005453 -0.033984546
000180 85 32 13 bd 42 52 1b bd 48 1a 5f bd 45 bd 56 bd
       -0.03593685 -0.037920244 -0.054468423 -0.052426595
000190 14 f5 8a 39 54 5b 0f 3a dd 5e 51 39 f0 46 ac 39
       0.0002650401 0.0005468626 0.00019967133 0.0003285925
0001a0 50 b9 c0 39 ad 70 6c ba dc e8 3a 39 b8 74 e4 39
       0.00036759162 -0.00090194755 0.00017825089 0.0004357451
0001b0 e4 97 0b 3a 10 b9 43 3a a5 83 27 bb 9b 8a 09 bb
       0.00053250627 0.0007466236 -0.0025560644 -0.0020987156
0001c0 d0 5e c9 ba 00 a3 42 38 44 87 40 39 ab 8e 26 bb
       -0.0015363339 4.640501e-05 0.00018360937 -0.0025414627
0001d0 19 7d 29 bb 57 18 2a bb 26 e8 92 ba ae 7c 7e b8
       -0.0025861918 -0.002595445 -0.0011208102 -6.0674436e-05
0001e0 1e fd 41 b9 8e dd 57 ba b5 2f 39 bb 8e 72 34 bb
       -0.00018500208 -0.00082346133 -0.0028257195 -0.00275341
0001f0 59 8f 9f ba c6 58 e3 bc 61 86 c4 bd 8e bd fe bd
       -0.0012173458 -0.027752291 -0.09595943 -0.124384984
000200 8d d3 bb bd 68 a1 78 bd 8a 0f 2b bd 1b ed 08 be
       -0.091712095 -0.060700804 -0.041762866 -0.13371699
000210 fc 4d 2b be d1 78 0d be c2 49 b3 bd 6c 4c 74 bd
       -0.16728967 -0.13815619 -0.087543026 -0.059643194
000220 47 fd ff bd 1a cb 1b be 12 d6 06 be d1 cb d0 bd
       -0.12499481 -0.15214196 -0.13167599 -0.10195125
000230 cb 22 66 bd 86 65 de bd d2 78 eb bd ff aa df bd
       -0.056185525 -0.10859208 -0.11497654 -0.10921287
000240 2d 44 da bd 79 69 0e bc 48 44 51 bd 23 61 26 bd
       -0.10657535 -0.008692139 -0.05109051 -0.04061998
000250 94 1c 33 bd c7 be 30 bd 5a 45 41 3c 90 2d ac 3b
       -0.043728426 -0.04315069 0.01179632 0.005254455
000260 75 fe 34 bd 08 ce a9 bd 67 04 74 bd 39 38 05 3d
       -0.04418798 -0.082912505 -0.05957451 0.03252432
000270 d0 dc e9 3c dd 3c 57 bd 44 74 ee bd 50 04 9c bd
       0.028547674 -0.052548278 -0.1164327 -0.0761801
000280 61 51 f6 3c fb 02 26 3c eb 08 8f bd 69 0d ea bd
       0.030068101 0.010132547 -0.06984123 -0.11428339
000290 ca 3b 95 bd 14 4c 87 3c 64 c5 dc bb 3a c3 8b bd
       -0.072867945 0.016515769 -0.006737398 -0.06824346
0002a0 d7 11 d4 bd cd 14 70 bd 65 24 1a 3c a0 6d ad bb
       -0.10354965 -0.058613587 0.009408091 -0.0052926093
0002b0 ac a3 21 bd bc d0 71 bd 62 ae df bc fe 6d 80 3c
       -0.03946273 -0.059036955 -0.027304832 0.015677448
0002c0 38 f1 40 3b 06 52 10 bd 37 00 8f bd 82 73 87 bd
       0.0029440653 -0.035234474 -0.06982463 -0.06613828
0002d0 00 94 58 b8 82 db 75 bc eb ce a7 bd 82 9e f2 bd
       -5.163625e-05 -0.015005948 -0.08193763 -0.11846639
0002e0 9e 02 b5 bd 80 07 b8 bc 08 fe 46 bd d5 8a d9 bd
       -0.0883839 -0.022464514 -0.048582107 -0.10622183
0002f0 b8 dd f0 bd a1 a7 a0 bd 87 db 05 bd f4 ea 5c bd
       -0.117610395 -0.07844473 -0.03268006 -0.053935006
000300 e5 2e a3 bd 5e b4 a3 bd 43 d6 5e bd 9a a0 84 bc
       -0.07967929 -0.07993387 -0.054403555 -0.016189862
000310 80 91 36 bc fa e7 a2 bc a8 0e ef bc a8 af 57 bc
       -0.011143088 -0.019886006 -0.029181793 -0.013164438
000320 3c b4 1a 3c 28 68 69 3b 34 ef ed bb a7 1b a4 bc
       0.009442385 0.003561506 -0.0072611813 -0.020032717
000330 d8 ae bc bc 7d ac ac 3a 46 b2 ba 3a 72 0b 29 bc
       -0.02303259 0.0013173964 0.0014243803 -0.01031767
000340 9d 6c e3 bc 7a 67 95 bc a9 88 92 3a 2f 0e c6 3b
       -0.027761752 -0.018237818 0.0011179644 0.0060441713
000350 a0 3b 26 bc 48 4f fd bc bc 04 85 bc 48 41 e7 3b
       -0.010146052 -0.030921593 -0.01623761 0.0070573427
000360 f2 b7 95 3c ba d5 f8 bb e3 70 fa bc d6 6a 30 bc
       0.018276189 -0.0075938376 -0.030571407 -0.010767659
000370 5a 23 05 3c 8a d3 40 3c 7b c9 92 bc 38 88 fe bc
       0.008126104 0.011769185 -0.017918339 -0.031070814
000380 f0 02 1b bc 07 93 11 bc f4 eb 69 b9 6e e5 93 39
       -0.00946115 -0.008885152 -0.00022308511 0.00028208963
000390 86 72 68 b9 74 34 20 ba f5 a9 4f bc 91 6e a3 bb
       -0.00022167907 -0.0006111332 -0.012674798 -0.004987546
0003a0 3c 3d 14 b9 1e a4 8e 38 6c 60 8a 39 43 9c 9d bc
       -0.00014137191 6.801657e-05 0.0002639325 -0.01923955
0003b0 6e 95 c4 bb a2 cc 1a b9 4f a1 95 b8 47 2b 86 38
       -0.0059992587 -0.00014762816 -7.13492e-05 6.397679e-05
0003c0 cb f5 ae bc fe 29 a3 bb 60 17 df b6 cf 9a b6 b8
       -0.021357438 -0.004979371 -6.648639e-06 -8.7072716e-05
0003d0 4e 40 27 38 28 b5 9b bc 4f 08 87 bb 1d ed 4b b8
       3.987579e-05 -0.01900728 -0.0041208635 -4.86198e-05
0003e0 c2 22 bf b8 c0 0f 33 b8
       -9.114064e-05 -4.2691594e-05

momentum_buffer f4 [10]
000000 52 38 2d bb 00 ac b9 bc 06 8d a4 bd 75 3d 0f bc
       -0.0026431275 -0.022665024 -0.080347106 -0.00874268
000010 21 94 19 bb 54 5e 21 bc c0 50 01 38 78 1c 8f bd
       -0.002343424 -0.00984915 3.08312e-05 -0.06987852
000020 c1 d8 0c bc 8d d5 2f bc
       -0.0085966 -0.010732067

momentum_buffer f4 [20, 10, 5, 5]
000000 e0 29 59 bb 43 6c 20 bc f2 48 2e bc 80 4b bd 3b
       -0.0033136532 -0.009791437 -0.010637509 0.0057768226
000010 50 0d 08 3b 1d 15 c9 3b c6 be 93 bc bf 70 35 bd
       0.0020759888 0.00613655 -0.018035304 -0.044296976
000020 2c 4a 08 3c 49 be a1 3c 3b 6e 00 3d 48 12 09 bd
       0.008318465 0.019744055 0.031355124 -0.0334647
000030 f1 b2 7d bd bc ac fc 3b 82 bd 3a 3c 20 44 2b 3d
       -0.06193823 0.007711021 0.011397721 0.041813016
000040 bb 07 77 bc 78 ce 0f bd d4 31 30 bc 2a cc 9c bc
       -0.015077527 -0.035109013 -0.010754067 -0.019140322
000050 47 4f d3 3c a9 9d 54 3c 8a 36 4d bb 8c ab 86 bc
       0.025794638 0.012977042 -0.0031313025 -0.016439222
000060 e8 d9 d9 bc f2 df 1d bb 34 6d 93 bb ab 52 0f 3b
       -0.026593164 -0.002408978 -0.004499102 0.0021869342
000070 f4 22 05 bb d1 9b 3d bb d7 6e 19 bb 0d 44 bc 3a
       -0.0020315023 -0.0028931985 -0.0023412013 0.0014363542
000080 9e 6c a4 3b ce 01 d5 ba 39 5a 19 bb 38 4d 24 3a
       0.005017831 -0.0016251148 -0.0023399724 0.000626761
000090 3c bb 99 ba 69 fb fe 3a 70 44 41 bb 5b 43 64 bb
       -0.0011728774 0.0019453588 -0.0029490255 -0.0034830186
0000a0 54 8f 8b 3b 84 a7 99 bb b6 aa 47 bb 5b 77 3c bb
       0.0042590294 -0.004689159 -0.0030466742 -0.0028757665
0000b0 2e 56 58 bb 99 d8 1d 3b 00 92 73 bb 52 46 cf ba
       -0.0033010351 0.00240854 -0.003716588 -0.0015813804
0000c0 c0 d7 d1 37 7c a3 c0 3a 58 ac 45 bb 3d c0 9b bb
       2.5015208e-05 0.001469716 -0.003016254 -0.004753141
0000d0 f0 c4 f1 bb f8 14 39 3c 0c a7 16 bc f5 85 ad bc
       -0.007378213 0.011296503 -0.0091951005 -0.02118204
0000e0 84 c9 32 bd 08 6e 96 bb 76 cf 30 3d f0 c4 6a 3c
       -0.04364921 -0.0045907535 0.0431666 0.01432918
0000f0 4b 93 30 bd d6 07 8d bd 70 20 87 bb 32 d8 3b 3d
       -0.04310922 -0.0688626 -0.00412374 0.045860477
000100 e0 43 e6 3a 4c 19 df bb 32 79 b6 bc 00 4f 27 3a
       0.0017567836 -0.0068084355 -0.022274587 0.00063823164
000110 c6 aa 47 bc 4a 12 35 bd 15 a5 38 3d 98 28 80 3b
       -0.012186712 -0.044206895 0.04507931 0.003911089
000120 09 03 ad bc 9d f4 81 bd ae c2 9b bd 89 e8 aa 3b
       -0.021119611 -0.063454844 -0.076054916 0.0052157086
000130 74 66 0d bb 64 ed 8d bc 9c 35 cc 3b 80 2d 74 b9
       -0.002157596 -0.01732511 0.0062319767 -0.00023286603
000140 86 5c 02 3b f0 56 33 bd a2 da 05 bd ce e5 e9 3c
       0.0019891574 -0.043784082 -0.032679208 0.028551962
000150 48 49 73 3c 48 48 98 bb 94 6e 6d bd 62 f3 a3 bc
       0.014849015 -0.0046472885 -0.057966784 -0.020013515
000160 40 2a d2 3c 30 85 bc 3a d3 a5 39 3c a4 8b 28 bc
       0.025654912 0.0014382955 0.0113310395 -0.010287199
000170 ec 3d 71 bb f6 b5 58 bc 4e 68 09 bd b2 90 12 3d
       -0.003681059 -0.013226977 -0.03354674 0.035782523
000180 95 c3 8e 3c fe 98 b8 bb 36 6e 0f bd 2e 79 61 bd
       0.017427245 -0.0056334725 -0.035017215 -0.055047207
000190 fc 3b 18 b9 ac 4d 9a b9 df 3a c4 39 b6 49 8d 39
       -0.00014518196 -0.0002943104 0.00037427896 0.00026948535
0001a0 c5 32 4c 39 d6 da 03 39 da f4 3b 39 dd 3b bd 39
       0.00019473869 0.00012574656 0.00017924924 0.0003609349
0001b0 0e 52 f7 39 c8 e6 f8 38 23 72 12 b8 2f 11 e7 38
       0.00047172647 0.00011868548 -3.491541e-05 0.00011018139
0001c0 18 21 8d 37 be 1d 40 b8 3a ad 77 b8 4c e9 1b 39
       1.682392e-05 -4.5804067e-05 -5.905072e-05 0.00014868862
0001d0 75 1d 79 39 16 95 51 39 40 b9 7a b8 0c b5 cc b8
       0.00023757464 0.00019987332 -5.9777172e-05 -9.7612006e-05
0001e0 a0 02 f6 b7 4d b7 23 39 50 c0 b8 39 5c 7e 86 b9
       -2.9326708e-05 0.00015613176 0.000352385 -0.00025652617
0001f0 3c df b1 b8 fe 01 a1 3c 40 64 36 b9 95 d3 08 bd
       -8.481598e-05 0.01965427 -0.00017394219 -0.033404905
000200 78 e6 b0 3b 2c 2d 25 bc a8 b8 36 3c bd 3b 6c bd
       0.0053985678 -0.010081571 0.011152424 -0.05767416
000210 0e cf 46 bd d8 f4 54 3d 34 ba a5 3c 10 9b 7f bc
       -0.048537306 0.051991314 0.02023039 -0.015600935
000220 44 6d c5 bd 71 b8 23 bd 9e e4 91 3d 08 06 7b 3c
       -0.096399814 -0.03997082 0.071236834 0.015321262
000230 ec 76 1a 3c d6 43 79 bd 1a 82 42 bc ba 53 90 3c
       0.009427767 -0.06085571 -0.011871839 0.017618049
000240 18 95 1a bd 5d 04 8b 3d 80 4c 66 3b 31 c2 e6 bc
       -0.037739843 0.067879416 0.0035140812 -0.02816877
000250 d9 a9 7b bd 57 94 b6 bd 6b 60 f6 3a 77 c4 1b bd
       -0.061441276 -0.08915012 0.0018797045 -0.03802916
000260 78 98 57 bb 40 9a 4b bb 61 dd ad bc 22 23 ea bc
       -0.0032897275 -0.0031067282 -0.021223726 -0.028581206
000270 44 0b 83 bd b2 64 27 3c f5 31 ba 3c b3 e0 b0 bc
       -0.06398633 0.010216879 0.0227289 -0.02159152
000280 a1 24 52 bd 07 88 a4 bd 3d 48 ec 3c a0 87 cd 3c
       -0.051304463 -0.08033758 0.02884304 0.025089085
000290 97 ea ea bc 48 3a 06 bd 06 ae 38 bd 70 41 6f 3c
       -0.028676314 -0.032770425 -0.045087837 0.014603004
0002a0 e6 b2 05 bc dc 1b 20 bd 93 ee 3f 3c a8 2c 0a bd
       -0.0081603285 -0.03908907 0.011714595 -0.033733994
0002b0 1a 27 f5 bc 22 a1 20 bd e0 fc 31 bd 1a f7 55 3c
       -0.029925872 -0.03921617 -0.04345405 0.013059402
0002c0 03 b8 88 bc f4 64 f1 bb 38 ec 4e 3b b8 83 2f bc
       -0.016689306 -0.007366771 0.0031573903 -0.010712557
0002d0 1a ee d0 bb 40 37 71 bd 38 51 8d bb ee ca 04 3d
       -0.00637604 -0.05889058 -0.0043126605 0.03242009
0002e0 00 6f 10 ba 0a 5a ef bc d1 1d 8c bd 54 28 aa 3c
       -0.00055097044 -0.029217739 -0.068416245 0.020771183
0002f0 3a ae 05 3d 05 0d 88 bc 0a 90 4c bc fd 5b 77 bc
       0.03263686 -0.01660777 -0.012485513 -0.015097615
000300 1f 4c b4 3c 93 b1 4f bc e2 51 36 bd fc 6f f0 3c
       0.022008954 -0.012676614 -0.044511683 0.029350273
000310 68 2f eb 3b 34 2b a4 bb 3f 36 23 bd f8 01 71 bd
       0.007177282 -0.005010033 -0.039846655 -0.05883977
000320 dd ed e5 ba f8 cc 57 bc 77 a3 a1 bb 2c c4 33 3b
       -0.0017542202 -0.013171427 -0.0049328166 0.002743016
000330 08 9c 1c ba fe 7c 0f bc a4 65 d4 bc 7f 87 e4 3b
       -0.0005974178 -0.008757828 -0.025927372 0.00697416
000340 32 f9 15 3c f5 df d6 bb 6a b8 7e bc 03 7a 22 bc
       0.009153651 -0.0065574595 -0.015546897 -0.009916785
000350 12 3c 82 3c 1a 37 40 bb 7b 9a 7f bc 40 3a f0 3a
       0.015897784 -0.0029329718 -0.015600796 0.0018327907
000360 4a 9d 06 3b 03 7b 18 3c 89 04 0a bc 81 7a 9b bc
       0.002054053 0.009306672 -0.008423933 -0.018979313
000370 f4 55 a3 3b 22 80 18 bb a8 37 26 bc 6a 98 5a bc
       0.0049846116 -0.0023269732 -0.010145105 -0.013342002
000380 df e1 24 bc 08 cd 40 b8 ce a1 96 3a ee a1 a3 bb
       -0.0100636175 -4.5967317e-05 0.0011492313 -0.0049936688
000390 dd 15 62 ba 00 f1 9b b6 70 47 6f 39 62 9d a1 39
       -0.00086244737 -4.647416e-06 0.00022819429 0.00030825572
0003a0 8b 3a cd bb dc 80 9f ba f4 44 92 3a e4 cc 49 3a
       -0.0062630824 -0.001216914 0.0011159466 0.00076980726
0003b0 08 c7 73 b8 88 97 e4 bb 1c d8 09 ba b4 5b 01 3b
       -5.8121077e-05 -0.0069760717 -0.0005258338 0.0019738497
0003c0 7c 40 1b 3a a2 b2 00 bb 68 0e 80 bb 55 65 3d 3b
       0.00059223897 -0.0019637723 -0.0039079674 0.002889951
0003d0 32 3e 0e 3b 33 d1 e7 b8 fb 02 8c ba 2c 4e a0 3a
       0.0021704552 -0.00011053905 -0.0010682041 0.0012230328
0003e0 f7 08 14 3b de 5f d9 3a e0 3b 30 bc d1 22 c4 bc
       0.0022588351 0.0016584357 -0.010756463 -0.023942383
0003f0 68 56 d2 bc 61 fe 98 bc 61 b5 09 bc d8 b1 0e ba
       -0.025675967 -0.018675985 -0.0084050605 -0.0005443371

momentum_buffer f4 [20]
000000 37 cb d0 bb a4 17 6d bc 68 a3 f0 b9 00 00 00 00
       -0.0063718813 -0.014470968 -0.00045898114 0.0
000010 40 61 8f b9 30 73 82 bb d0 b2 51 bc 74 ba 9f 3b
       -0.00027347542 -0.0039810166 -0.01279898 0.004874522
000020 55 b0 46 bc a0 c1 8c bc 9c b4 b8 ba a0 c2 f5 3a
       -0.012127002 -0.017182171 -0.0014091912 0.0018750019
000030 c4 b9 92 3c 2e e3 00 3b 8a 09 1b 3b 91 39 8e 3a
       0.017910846 0.001966666 0.0023656809 0.0010850896
000040 82 5a 3a bc 60 d3 7e bc 64 ba c9 bc 40 ad 57 bc
       -0.011374118 -0.015553325 -0.02462501 -0.013163865
