lecture8/saved_mnists/mnist-3500.pth (torch_old, 177308 bytes, 16 tensors)

conv1.weight f4 [10, 1, 5, 5]
000000 06 a1 0d be 98 1a 4c 3e b7 df cc 3c 80 b2 4f be
       -0.13830957 0.1993202 0.02500902 -0.20282936
000010 a4 95 23 be 0a ae d7 3b 94 88 3f 3e 2f 30 5d 3e
       -0.15975052 0.0065820264 0.18704444 0.21600412
000020 3b 10 97 bd 53 26 60 be a0 fc 98 3e 64 4e a7 3e
       -0.073761426 -0.2188962 0.29880238 0.32676995
000030 32 77 cf bc 84 ee 11 bd d0 86 4f 3d 96 1f 39 3e
       -0.025325391 -0.035627857 0.050665677 0.18078455
000040 e3 13 9b 3e b9 8b ab bd 35 ca 2a 3d a0 ff e4 bd
       0.3028861 -0.08376259 0.041696746 -0.11181569
000050 19 0a 28 bd 5a 92 52 3e 69 f8 32 bd 2a c7 87 3e
       -0.041025255 0.20563641 -0.043693934 0.26519138
000060 da 0b 96 3e 8d 04 2e be fd 4b 40 be 05 79 71 bd
       0.29305917 -0.16993923 -0.18778987 -0.058953304
000070 18 fd 30 be 9e 94 15 be a0 0f 1a bd 9f 68 32 3e
       -0.17284048 -0.14607474 -0.037612557 0.17422722
000080 45 b9 0c 3e dc 33 99 3d e6 03 36 be b8 28 2b be
       0.1374255 0.074805945 -0.17774925 -0.16714752
000090 3d 15 a8 bd 03 94 a4 3c 7f a5 0e bd 7c 00 46 3e
       -0.08207176 0.020090109 -0.034825798 0.19336122
0000a0 c0 57 49 be fb 35 9d 3d 29 7c 39 bd 01 8c f3 3c
       -0.1966238 0.076763116 -0.045284424 0.029729845
0000b0 96 2c 12 be 2a f3 b7 3d 55 e0 2c be 99 15 29 3c
       -0.1427482 0.08981927 -0.16882451 0.010320091
0000c0 24 a1 c1 bd 44 ac 3b 3e 4c 4e b8 bd 55 86 ca 3c
       -0.09454563 0.18327433 -0.08999309 0.024722258
0000d0 49 a6 d9 3c 4c 80 9d 3e b0 24 58 3d be fb 63 3e
       0.026568549 0.30761945 0.052769363 0.22264001
0000e0 4a 35 53 3e fd f2 da 3e 32 ea e3 3e 52 a6 c7 3e
       0.20625797 0.4276351 0.44514614 0.3899408
0000f0 13 3d a0 3e e5 ca 15 3e ec 22 d9 3e 2a fd ac 3e
       0.31296596 0.1462818 0.42409456 0.337869
000100 5a 8f 0b 3e 59 ab 0a 3d 86 3e 85 3e 77 08 05 3e
       0.13628903 0.033854816 0.26024264 0.1299151
000110 fa 4c 8a 3e 70 e2 13 3e b8 46 81 3e 6c 66 7f 3e
       0.27011853 0.14441848 0.25249267 0.24941415
000120 c0 3c a5 bd 92 59 85 3e 9e 74 2b 3e 01 da c1 3d
       -0.08068228 0.260449 0.16743705 0.09465409
000130 77 39 05 be 5e 80 2d 3e a9 8e 83 3e 0a e6 38 3e
       -0.13010202 0.169435 0.2569478 0.18056503
000140 ef 9b 27 3e ff 2c d7 bd 3e 46 7e 3e 6c 96 d7 3d
       0.16368078 -0.10506629 0.24831483 0.105267376
000150 a7 14 8d bd 16 4c b9 3d 89 41 94 3e bf 6a 36 3e
       -0.06888705 0.09047715 0.2895625 0.17814158
000160 b2 b8 91 3e 4f 24 11 be 4f 9f 7e 3e 3d 91 04 3e
       0.28461224 -0.14174007 0.24865459 0.12946029
000170 90 85 c1 3e 99 d3 7b 3e d0 ad 43 3d 05 b8 9b 3e
       0.37797213 0.24592437 0.047773182 0.30413833
000180 76 80 0b 3c bc 1b 3f 3e 8d 22 84 bd d2 b3 0a 3e
       0.008514514 0.18662924 -0.064519025 0.13545159
000190 8f 84 03 be e8 38 c7 bc 1e eb 32 be bc b2 7f bc
       -0.12843536 -0.024319127 -0.17472503 -0.015606578
0001a0 4a b4 35 be 08 48 34 3e e2 5f b9 3d 48 09 96 3b
       -0.17744556 0.17605603 0.09051491 0.004578743
0001b0 b6 56 c5 3d 35 ef 96 3d b9 f5 af bd b6 65 b1 bd
       0.096356794 0.07369844 -0.0859179 -0.08661978
0001c0 86 f4 b3 bb 69 32 e7 bd 64 dc c0 bd bf 46 b8 3d
       -0.005491796 -0.11288912 -0.09417036 0.08997869
0001d0 cb 78 25 3e 81 47 07 be 92 0f dc 3d df 83 31 be
       0.1615936 -0.1321087 0.10745157 -0.17335461
0001e0 e9 4f 7e bd c6 8e 11 be aa 56 fb 3d 34 d8 0a 3d
       -0.062087927 -0.1421462 0.12272389 0.033897594
0001f0 4c 75 34 3b 89 c8 0b 3e df 0a b2 3e f3 55 f9 3e
       0.0027535735 0.13650717 0.3477392 0.48698387
000200 a4 42 e0 3e 1c eb 81 3d 4a ae 80 bc 58 5b d0 3e
       0.43800843 0.06343672 -0.015708108 0.4069469
000210 1e 02 fe 3e 65 77 ea 3e 35 9c 63 3d c3 a2 d2 3d
       0.4961099 0.45794216 0.055568893 0.102849506
000220 51 ae d6 3e 02 81 a9 3e a6 39 da 3e 16 49 cd 3d
       0.41929868 0.33106238 0.42622107 0.10023706
000230 bc eb 61 3e 52 74 d3 3e f9 ea 2f 3e 87 62 b0 3e
       0.22062582 0.41299683 0.17179479 0.3445017
000240 6b 3e 06 3e a5 a3 88 3e ff 1f 80 3e e5 94 42 3d
       0.13109748 0.2668735 0.2502441 0.04750528
000250 b8 2c b2 bd c8 62 6d 3d cd 6e cd bd db 5e 21 3d
       -0.08699936 0.057955533 -0.10030899 0.0393971
000260 c5 b9 96 3e 5f 96 b3 3e a4 50 b5 3e 1c 99 34 be
       0.29438606 0.35075662 0.35413086 -0.17636532
000270 9d 68 19 be de 8c 3e 3e 9b 8a a5 3e 39 8a 4a 3e
       -0.14981313 0.18608424 0.3233231 0.1977929
000280 e9 bf e8 bd 9e 96 d1 3d b6 e8 27 3e c0 39 9c 3e
       -0.11364729 0.10233806 0.16397366 0.3051281
000290 51 d7 a7 3e d2 50 0b be 78 53 60 3e 47 fa de 3d
       0.3278146 -0.13605049 0.21906841 0.1088758
0002a0 8f 80 93 3d c5 31 0d 3d 2e 32 1a be 81 ba 5f 3e
       0.07202255 0.034471292 -0.15058205 0.2184849
0002b0 f9 86 7c 3e dc 79 8b 3e fd 5b 58 3e 79 00 2f be
       0.24660863 0.2724141 0.2112884 -0.17090024
0002c0 19 1c ff bd a4 7f c5 bb 9a 5f ac 3e 99 00 79 3e
       -0.12456531 -0.006027179 0.33666688 0.24316634
0002d0 98 4d 96 3d eb cd f3 bc ee b7 9c 3e ac dd 46 3e
       0.073390186 -0.029761275 0.30609077 0.19420499
0002e0 c9 44 76 3e ab 4b 1c 3e 67 50 ec 3c e1 f5 e6 3e
       0.24049677 0.1526324 0.028846933 0.45109466
0002f0 9d bc bd 3e d4 92 f9 bc 71 38 60 3d 22 27 7f 3e
       0.37057963 -0.03046552 0.054741327 0.24917272
000300 98 57 a9 3e 25 3d 1c 3e 34 9e 14 3e c1 10 f6 3d
       0.3307464 0.152577 0.14513475 0.12014914
000310 e1 f5 69 3d 67 a4 d1 3d 54 95 fd 3a 78 be 53 bc
       0.057119254 0.102364354 0.0019346871 -0.012923829
000320 95 27 75 3d 27 34 37 3d 48 9c 80 3d 96 5d 06 be
       0.0598522 0.04472747 0.06279808 -0.13121638
000330 75 d1 32 3e 0c 0f 0f be 04 de c3 bd a0 25 f7 bd
       0.17462714 -0.13970584 -0.095638305 -0.12067723
000340 e6 de 85 3e bb 63 d0 3a 32 6f 00 be 56 28 1e be
       0.2614662 0.0015898863 -0.12542418 -0.15445074
000350 06 f5 5f bd 5a f0 03 3e 50 a4 01 be 4c 0e f7 3c
       -0.054677032 0.12884656 -0.12660336 0.030158184
000360 8b 9f 9f bd c9 fb 6b 3e 86 1c f3 3d e4 b3 aa 3d
       -0.07794102 0.23045267 0.11870675 0.08335093
000370 72 56 4c 3e ed 41 19 bd bb f3 81 3c a2 d1 4b 3e
       0.19954851 -0.037416387 0.01586329 0.19904187
000380 9b 2d 01 bd 8c 4a 30 3e 39 83 a0 3d 84 26 47 be
       -0.031537633 0.17215937 0.07837529 -0.19448286
000390 54 53 f0 bd 96 ef 71 bd db 31 3a 3d cb ad 80 3c
       -0.117346436 -0.059066378 0.045457702 0.015707871
0003a0 92 d3 c1 bd 3a 90 65 bd 9f 33 47 3e b6 e7 d2 bd
       -0.09464182 -0.05604575 0.19453286 -0.102981016
0003b0 19 d4 c3 bd 30 de ac bd eb 9f 24 be 90 72 c7 bd
       -0.09561939 -0.084408164 -0.16076629 -0.09738648
0003c0 ef 31 db 3d 72 5e 90 3c 2a af d8 bd a4 04 0c 3e
       0.107028835 0.01762316 -0.10580285 0.13673645
0003d0 49 72 7a 39 ab 41 23 3e 2f 63 3b be 4c 18 c6 bd
       0.00023884432 0.15943019 -0.18299554 -0.09672603
0003e0 32 df 86 bd 9a 31 08 be
       -0.0658554 -0.13300171

conv1.bias f4 [10]
000000 a6 ef 31 3e 5a 64 dd 3d a8 3e 00 3c c2 69 1a 39
       0.17376575 0.10810156 0.007827438 0.00014725982
000010 ee 17 df bd 1d 26 2f 3e bb 2c 1b 3c 31 fb e8 3a
       -0.10893236 0.17104383 0.009471114 0.0017775056
000020 50 fc 58 3e 05 f1 04 be
       0.2119 -0.12982567

conv2.weight f4 [20, 10, 5, 5]
000000 9f 40 82 3d ef 84 f5 3c b0 b4 49 bd b3 6a bf 3c
       0.06359982 0.029970614 -0.049244583 0.023366308
000010 11 4d 38 bd f9 4e ec bc e3 53 8d 3c 48 2f 61 3d
       -0.04499537 -0.02884625 0.017251914 0.05497673
000020 45 1b 51 bc b3 05 b6 bd 8a 72 a2 bc 87 74 4a 3d
       -0.012762849 -0.08887806 -0.019830007 0.049427535
000030 62 c2 11 3e 6b 0b 34 bd 62 90 99 bd 27 68 c8 bd
       0.14234307 -0.0439562 -0.07498242 -0.097854905
000040 c5 37 e8 3d 94 04 37 3d 65 1c a1 bc c8 d4 b2 3c
       0.11338762 0.0446821 -0.01966686 0.021829978
000050 10 2c 15 ba 36 8c 99 3c 94 07 50 3d e1 55 9e 3b
       -0.0005690465 0.018743616 0.050788477 0.004832015
000060 ca a3 39 3d 5c c8 3e 3d ac 7d 2d 3c 9a 60 1b bd
       0.045322217 0.046577796 0.010589045 -0.037933923
000070 31 ef 5e 3d 61 4c 19 ba 03 7a 68 bd 43 d2 36 3b
       0.05442733 -0.0005847868 -0.056756984 0.0027896322
000080 19 83 54 3d b1 26 3f bd e2 8f f1 bc 2b b7 2a bd
       0.051882837 -0.04666776 -0.029487554 -0.04167859
000090 e4 a8 57 bd ab c8 07 3d b6 c8 67 3d 43 d9 82 3d
       -0.0526513 0.033150356 0.056587897 0.06389096
0000a0 d4 dc 7d bd f3 f8 26 3d 97 44 77 bb 1b 34 93 bc
       -0.061978176 0.04076476 -0.0037730092 -0.017969182
0000b0 61 cf db 3c b2 97 4e bd b8 49 47 3d 9a 78 54 bb
       0.026832284 -0.050437637 0.048654288 -0.0032420517
0000c0 51 1e fa 3c 50 b6 10 bd 6a 45 41 3d 3c 3b 8c 3d
       0.030532034 -0.035330117 0.04718534 0.068472356
0000d0 0f 01 41 3d 8c fb 82 bd 66 97 8f bd 8a 7d 25 3d
       0.04712015 -0.06395635 -0.07011299 0.040402927
0000e0 8f a3 c6 3d aa b4 5e bd 29 af 2d be 78 d0 87 bd
       0.09699165 -0.054371513 -0.1696135 -0.06631559
0000f0 3b eb a6 3c 57 a4 7e 3d f8 a9 45 bd 3a ce 33 be
       0.020375839 0.062168445 -0.048257798 -0.17559138
000100 32 08 9e bd de 51 56 3d f1 2a e2 3d 7e 77 c2 bc
       -0.07716407 0.05232417 0.11043347 -0.023738619
000110 bd 0c 9e bd a0 82 a6 bc 18 47 55 b9 50 30 c7 3d
       -0.077172734 -0.020325959 -0.00020339747 0.09726012
000120 42 56 b4 3d bc c5 ac 3c 33 4c 74 3d 93 55 24 bd
       0.08805515 0.02109038 0.05964298 -0.040120672
000130 06 ec 8d 3d 38 9e 92 3d ea 04 a1 3c 01 92 b6 bc
       0.069297835 0.07159084 0.019655664 -0.022286417
000140 59 48 9f bb 44 03 ab 3d 95 52 e0 3d 0f 94 bb bd
       -0.0048609194 0.08350232 0.10953251 -0.09159099
000150 4a 0c 2f bd 76 97 15 3d 99 22 1b 3e 24 2a 29 bd
       -0.04273633 0.036521398 0.15149917 -0.041299954
000160 87 e1 b4 bd 69 e7 a5 bd 49 20 94 3d f6 4f 79 bb
       -0.088320784 -0.081007786 0.072327204 -0.0038042045
000170 cd 00 83 3d ff 12 91 3c 05 e0 4f 3d 31 31 35 bd
       0.06396637 0.017709253 0.05075075 -0.044236366
000180 e9 75 13 3d 72 12 b3 3d e9 19 8e 3d 68 47 75 3d
       0.03600112 0.087437525 0.06938536 0.05988255
000190 b7 2f 70 3d c9 33 d9 3c 4e 11 34 bd e4 4c f7 3c
       0.058639254 0.02651395 -0.043961816 0.030188031
0001a0 8c 1b 51 3d 53 ed 14 3c 2f 32 22 bd 36 80 c1 bc
       0.05105166 0.009089786 -0.03959864 -0.023620706
0001b0 7a 3f 2a 3c ef 6d 28 bc a7 ab 8e 3c 83 5b 42 bd
       0.010391111 -0.010280116 0.017415835 -0.047450554
0001c0 db 4a 3e bc 97 b2 6e 3b eb db 7c bc 2a 60 4f 3d
       -0.011614527 0.0036422366 -0.015433292 0.05062882
0001d0 8c 7a 15 bc 42 c5 29 3d b6 18 12 3d 39 a1 b6 3b
       -0.009123456 0.041447885 0.035668097 0.0055734185
0001e0 4d 26 a9 3c 12 7c 8e ba 89 17 2e 3d 38 40 af bc
       0.020648146 -0.0010870716 0.042502914 -0.021392927
0001f0 39 02 1e 3d 77 c1 72 bd 24 20 d4 3b 51 d7 e5 3d
       0.03857634 -0.059266534 0.006473558 0.11222709
000200 3c a1 3b bd fe 5e b5 bd fb 78 17 bd f5 c1 d1 3d
       -0.045808062 -0.08856009 -0.03698061 0.102420725
000210 5c 73 01 3e 18 0c 0c be fb 86 75 bd 74 b1 66 3d
       0.12641662 -0.13676488 -0.05994318 0.056321576
000220 e0 6f 22 3e f5 49 8c 3d a3 17 54 be a1 6b ec bd
       0.1586299 0.06850044 -0.20712142 -0.11543966
000230 46 ec d9 3c 27 ee 09 3e ae e8 8b 3c 4d 8c b9 bd
       0.026601922 0.13469754 0.017078724 -0.090599634
000240 18 a6 96 3b 23 4c 64 bd a8 b6 ea 3d 8b 43 7a 3d
       0.0045974366 -0.055736672 0.1146062 0.06109957
000250 c8 88 1e 3c 4b 00 b6 3c 93 e7 65 3d ac e4 c3 3d
       0.009676166 0.022216937 0.05612905 0.095651
000260 0e a1 0c 3c b2 5b 31 3c 47 b8 94 bd c6 42 b6 3d
       0.00858332 0.0108250845 -0.072617106 0.08899455
000270 8b 37 33 3e 67 6b 6b bd 1c f3 0a bd 61 2c 1c bd
       0.17501657 -0.057475474 -0.033923253 -0.03812826
000280 39 82 31 3e fd 4b 1d 3e 0c 83 09 be 3c 45 e4 bc
       0.17334832 0.15361018 -0.13428897 -0.027865045
000290 dc 55 91 bc b2 d5 d5 3d 36 05 a6 3d dc 0c 90 bd
       -0.017741136 0.1044115 0.08106463 -0.07033703
0002a0 3d e2 9d bd 9f 4c ec bb 09 26 6a 3d 70 7d a3 3d
       -0.07709167 -0.0072112824 0.05716518 0.0798291
0002b0 45 df 20 3d 1f 53 c7 bc 1a 9e 52 bd 32 92 8a bb
       0.039275426 -0.024331627 -0.05142031 -0.0042288536
0002c0 70 c1 b7 bc 84 48 99 3d 8c 07 0b bd 93 03 92 bc
       -0.022431105 0.074845344 -0.033942744 -0.01782397
0002d0 a6 2a d9 3c 47 80 b7 3d de 24 ae 3c 9d 16 0c be
       0.026509594 0.08960014 0.021257814 -0.13680501
0002e0 e0 ad 9c bd d3 fc aa 3d 61 00 f1 3d 33 c0 06 be
       -0.076503515 0.08349004 0.117676504 -0.13159256
0002f0 87 77 b1 bd 53 e5 95 bd d5 30 d3 3d e5 6b 8c 3d
       -0.08665376 -0.07319131 0.10312048 0.06856517
000300 81 f5 33 3b df 19 3c bb 3e a4 1f bd dc 21 87 bc
       0.0027459564 -0.0028701944 -0.038974993 -0.016495638
000310 7c 30 16 bb 72 1e 21 bd fc b3 d6 bb a8 38 78 3b
       -0.0022917083 -0.039335676 -0.0065522175 0.0037875567
000320 23 18 73 bc 6a 51 3e 3c 25 ad 57 3c 98 03 63 bd
       -0.014837298 0.01161609 0.0131638395 -0.05542335
000330 b7 0e 98 bd 67 14 f9 3c 33 46 b4 3d 67 da 38 bd
       -0.07424682 0.030405236 0.08802452 -0.04513016
000340 6d 3d ea 3c d5 a4 92 bc af 2c 15 3d 3a bb 34 3d
       0.028593743 -0.017900864 0.036419567 0.044123866
000350 97 14 5f 3c 31 a8 c2 bc 45 0b dc 3c 67 a8 92 3d
       0.013615749 -0.02376184 0.026860842 0.071610264
000360 5b ef b4 bc 29 db bc 3a 28 9b 27 3d 5c 39 2b 3d
       -0.02208679 0.0014408577 0.040919453 0.04180275
000370 71 a6 a8 ba ff 54 50 3d 32 1f 3a bd 9f ae ed bb
       -0.0012866986 0.05086231 -0.045439906 -0.0072534825
000380 55 fe 0e 3d 9c a3 52 3d 8f 62 2b bd 9d 50 84 3d
       0.03491052 0.05142556 -0.04184204 0.06460688
000390 50 5d 89 bc b2 47 3a bd 2d 92 45 bd a0 e0 3d 3c
       -0.016768128 -0.04547853 -0.048235107 0.011589199
0003a0 86 3e 59 3d a5 c7 27 bd 4d 5a 4d 3d 4b eb 06 bd
       0.053038143 -0.04096188 0.050134946 -0.032939237
0003b0 61 06 71 bc e1 2d c8 3c dc 91 e1 bc 55 1c 64 bd
       -0.0147109935 0.02443594 -0.027535371 -0.055691082
0003c0 c0 1a 21 3b b4 c9 e5 bc 76 14 8e bc cf 0c 35 bd
       0.0024582595 -0.028050281 -0.01734374 -0.04420167
0003d0 60 d7 1d bd 98 e8 dd bc 67 5d 29 bc 20 bd ab bb
       -0.038535476 -0.027088448 -0.01033721 -0.0052410513
0003e0 a1 a7 8f 3c c4 36 29 bd 02 1e 09 bb cd 91 e1 3b
       0.017535986 -0.041311994 -0.0020922427 0.006883836
0003f0 3d aa 7b 3c cf e7 3a 3d e9 3b 28 bd 7e c3 fe 3c
       0.015360412 0.045631226 -0.04107276 0.031099077

conv2.bias f4 [20]
000000 f7 40 e9 3c fb 58 a7 3a 71 36 83 bd 98 3c 81 bd
       0.02847336 0.0012767607 -0.06406868 -0.063103855
000010 38 85 60 3d 32 6b 22 3d 6c 0f 98 3d bf 4f 4b bd
       0.054814547 0.03965301 0.074248165 -0.0496366
000020 cd c0 15 3d 57 a3 31 bc 3a 81 00 bc 70 47 44 3c
       0.036560822 -0.010842166 -0.00784331 0.011979923
000030 b3 35 7e 3b fe ea 75 bd 7f 0a 4b bd d5 96 83 3c
       0.0038789331 -0.06003856 -0.049570557 0.016063133
000040 db d7 5c 3b 2f 1c a1 3d 84 8c ae 3d 4e 46 f8 3b
       0.0033697996 0.07866704 0.08522895 0.0075767403

fc1.weight f4 [50, 320]
000000 57 aa c8 bc 1e 60 6c bc 43 2a 9b 3d 8a 7a b3 3d
       -0.024495287 -0.014427213 0.0757642 0.08763607
000010 ec 8a 83 bd dd d1 8f bd a5 b7 c6 3c ed 64 04 3c
       -0.064229816 -0.0702245 0.02425749 0.008080703
000020 8a 3c 59 bd aa 4a 87 bd 04 0e cb 3c 71 64 66 bd
       -0.05303625 -0.06606038 0.024786957 -0.056248132
000030 eb 1b 32 3d 8e 59 98 bd b8 28 1d bd e7 5a bf 3c
       0.043483656 -0.07438956 -0.03836891 0.023358775
000040 61 6e 6b bb 0f ab b1 ba 0a bb b8 3d 59 34 54 3d
       -0.0035923945 -0.0013555008 0.0902005 0.051807735
000050 d2 4d 42 bd 61 6f 77 3c f4 95 54 bd b5 7f 0a bd
       -0.047437496 0.015102238 -0.05190082 -0.033813197
000060 3f a6 2f bd 90 cb 5e 3c ae d8 1b 3d 15 7c 6d 3d
       -0.042883154 0.013598338 0.03804844 0.057979662
000070 5a 22 19 bd 74 d4 8d bc fd 5f 96 3c c5 0f 22 bc
       -0.037386276 -0.01731322 0.018356318 -0.009891455
000080 e8 ce 15 3d 2f ab ea bc 99 fe 9e 3d d0 a6 c8 3d
       0.036574274 -0.02864608 0.077634044 0.09797442
000090 29 87 01 bc 7a d4 dc bd 03 41 c3 3c b6 be e3 3c
       -0.00790576 -0.10782714 0.023834711 0.027800899
0000a0 8b 05 de 3c e7 3a b8 3c 3f 5d 3c 3d 08 95 85 bd
       0.027102252 0.022489024 0.045987364 -0.06522566
0000b0 e7 24 2f 3d e3 44 e3 3b 37 5e 85 bd 13 ca b5 bc
       0.042759802 0.006935702 -0.06512111 -0.022191083
0000c0 46 06 03 3d 7b cc 1c bd 23 37 17 bd 0c 6c bb 3c
       0.031988405 -0.038280945 -0.036917817 0.02287867
0000d0 ca e4 33 bd 41 5c 57 bd b4 92 52 3d 35 68 18 bd
       -0.043919362 -0.052578215 0.05140944 -0.037208755
0000e0 f7 c9 4b 3d b8 9c ac bb ac 80 43 3d 15 c1 8a 3b
       0.049753156 -0.005267706 0.047730133 0.004234443
0000f0 2c b6 27 bc c0 70 ff 3c 62 9a 13 3d 71 c6 1a bd
       -0.010236304 0.031181693 0.036035903 -0.037786905
000100 43 70 cc 3c e2 57 40 3d 62 88 9e 3c 93 b0 d5 3c
       0.024955874 0.04695881 0.019352142 0.026085174
000110 27 ec 4d bb 0f dd 7a 3c 18 7d b9 bb 34 cd 00 ba
       -0.0031421275 0.015311494 -0.0056606643 -0.000491339
000120 8a 7a aa 3c 07 b6 bf 3c 7a b7 c6 bd db 0f 8a bd
       0.020810384 0.023402227 -0.09702964 -0.067413054
000130 10 4f fd bc e3 49 0b bd 01 f4 c1 bc a5 a6 9e 3c
       -0.030921489 -0.03400601 -0.02367592 0.019366572
000140 09 9b 8c 3d 7a 6f 5b 3d bd c5 3b 3d 6b 0d 3e bc
       0.06865508 0.05357311 0.045842875 -0.011599879
000150 22 96 15 3d 5e d9 da bc f7 e1 a5 bc 3b 27 f2 3c
       0.03652013 -0.026714977 -0.02024935 0.029559722
000160 d2 23 15 bd 13 87 e4 3b a1 3e fd 3b 92 2d aa bc
       -0.036411114 0.00697411 0.007728413 -0.020773683
000170 c7 0c 8e 3c 70 f7 cc 3c df 3c f5 3c a5 5f 93 bc
       0.017340077 0.025020331 0.029936252 -0.017989943
000180 24 46 d9 bc 1f 0f d2 bc 10 8e 02 bd 94 e7 e8 bc
       -0.026522703 -0.025641976 -0.031873763 -0.028430738
000190 bd 1a e8 39 d1 9e 87 3c 09 99 8e 3b 47 74 b6 3d
       0.0004427041 0.016555222 0.0043517393 0.08908897
0001a0 99 6a 4a bb 0b 81 b5 3c 6e 00 83 3d 7e 9d 99 bd
       -0.003088629 0.022156259 0.06396566 -0.075007424
0001b0 ee 4d f1 3b 46 e0 83 bd 2c cb 38 bc 1d f6 26 bd
       0.0073640263 -0.06439261 -0.011278909 -0.040762056
0001c0 92 d7 4d bd e4 a1 9c bd 12 f9 0e 3d dd 4e 18 bd
       -0.050254412 -0.07648066 0.0349055 -0.037184585
0001d0 97 92 7c bd 52 7e 6b 3d be 2f 81 3d 11 81 dc 3c
       -0.061663236 0.057493515 0.06307934 0.026917012
0001e0 7f 57 6d bd 51 cf 11 bd 21 30 c9 bc 43 ad 3c bd
       -0.05794477 -0.035598103 -0.024559082 -0.046063673
0001f0 03 7a 87 bc 4d b8 24 3b d7 bf 98 3d ff 4c 7e 3d
       -0.016537672 0.0025134266 0.074584655 0.062085148
000200 b7 fa 03 3c 85 54 13 bc 17 ab e4 bc ce 08 79 bd
       0.008055381 -0.008992319 -0.027913613 -0.060799412
000210 49 c5 af 3c fe 8b 56 bd 0f c1 2c 3d 56 2a bc 3c
       0.021456378 -0.0523796 0.042176303 0.022969406
000220 13 82 fa 3c c7 ea d1 3d 2d 7f 26 3c 74 8d 29 bd
       0.030579602 0.10249858 0.010162157 -0.041394666
000230 a4 af 1c bd 24 3e 7e 3d bc e7 90 bc 62 1b 31 3d
       -0.03825344 0.06207098 -0.017688625 0.043239005
000240 f4 c5 8d bb d6 66 b7 3c 07 ef b3 bc b9 b1 e6 bb
       -0.0043265764 0.022387903 -0.021964563 -0.007040229
000250 ab d9 9e 3c c5 6a 56 3d 27 11 2a bd 7c 0d 21 3d
       0.019390902 0.052347917 -0.041520264 0.0393195
000260 64 70 be bc 6d 6e c3 bc 16 b4 95 bc 06 c8 2d bd
       -0.023246951 -0.023856366 -0.018274348 -0.042427085
000270 fd b2 4c bd ec 77 60 bd d5 cf 24 bc b2 43 7c bc
       -0.049975384 -0.054801866 -0.010059317 -0.015396999
000280 64 8e 64 3d cc 86 6f 3d 6b 44 aa bc dc 97 44 bd
       0.055799857 0.05847816 -0.020784577 -0.047996387
000290 1f 0b 9d 3c e7 75 57 3d 64 b3 25 3d 14 e4 c6 3a
       0.019170342 0.052602675 0.040454283 0.0015174174
0002a0 46 23 03 3b 2c e0 9e 3c eb 33 6e 3d f5 a7 9d 3c
       0.0020010038 0.019394003 0.05815498 0.019245127
0002b0 b6 3d 6f bd 98 0f a7 bc 83 2d a7 bc 73 b9 3a bd
       -0.05840846 -0.020393178 -0.020407444 -0.045587014
0002c0 ea 6e 69 bc 09 36 cf 3c 6a 6f 0e 3d 82 4a 33 bd
       -0.014247635 0.02529432 0.03477422 -0.043772228
0002d0 ae c3 9f 3c 12 67 40 3d e1 da 26 3d 01 c2 34 3d
       0.019502487 0.046973296 0.040736083 0.04413033
0002e0 33 65 f0 39 70 27 28 bc 86 cd bc 3b ac e1 0b bd
       0.00045851766 -0.010263309 0.005761805 -0.034150764
0002f0 52 5c 7a bd 08 67 2a 3b 28 34 17 bd a2 09 b4 3c
       -0.0611232 0.0026001353 -0.036914974 0.02197725
000300 6f 07 ce bc 08 04 68 3d e9 a5 0c 3d 1b dc ac 3d
       -0.025150029 0.05664447 0.03433791 0.08440419
000310 4b 25 98 ba 5f 94 86 3d 11 dd 63 3d fb 72 35 3d
       -0.0011607794 0.06571268 0.055630747 0.044299107
000320 4d 8b ac bd 8b 67 92 bc 71 e0 83 bc 03 6f bf 3c
       -0.08425007 -0.017871639 -0.016098233 0.023368364
000330 01 bc 2f bd 5c 5e aa 39 b1 96 4e 3d 38 24 86 3a
       -0.042903904 0.0003249523 0.05043668 0.0010234183
000340 5b 2b 0d 3d ad c8 60 3d b4 74 6d bc 10 17 74 bd
       0.034465175 0.05487888 -0.014493156 -0.059592307
000350 58 2a e3 b9 3b e8 e5 b8 85 c9 b7 3c 01 13 1c 3d
       -0.00043328363 -0.00010962827 0.02243496 0.03810406
000360 ed 13 03 3d 52 6d ba bc 24 70 47 3d 47 93 e2 3c
       0.032001425 -0.022757206 0.04869093 0.027658118
000370 cb 63 7d bd e9 ec 47 bd 1d 1d 1d bd c8 4d 67 3b
       -0.061862748 -0.04880992 -0.038357843 0.0035294164
000380 2d 21 1f 3d dc dd 8c 3c 69 8e 11 3d cf a9 ec 3b
       0.03885 0.017195635 0.035536204 0.007222391
000390 9b 5a 15 bd 1c 51 aa bc d2 9b 2e bd d5 71 02 bd
       -0.03646336 -0.02079063 -0.04262907 -0.03184684
0003a0 55 44 ad bc c5 32 aa 3b 18 0c 0c bd fa 1c 17 bd
       -0.021150747 0.0051940405 -0.03419122 -0.03689287
0003b0 bc 75 cf 3c 88 b2 a2 3c c0 dc 80 3c ac 70 79 3d
       0.025324695 0.019860521 0.015730262 0.060898468
0003c0 d7 ca 28 3d a8 0d 74 3b c6 ae c0 3c 60 3f 49 bd
       0.04120907 0.0037239585 0.023520838 -0.049132705
0003d0 cb eb 8a 3c 7b 70 5a 3d d0 48 a4 bb 8a fe c6 bc
       0.016958138 0.053329926 -0.0050135627 -0.024291296
0003e0 24 59 24 bd 24 c7 2d 3d 0e 57 4a 3d 3e a6 84 bb
       -0.040124074 0.042426243 0.049399428 -0.004048138
0003f0 ed 0b 6d 3c 97 22 14 3d 53 cd 52 bd 36 48 bd 3b
       0.014468175 0.0361658 -0.051465344 0.0057764305

fc1.bias f4 [50]
000000 56 ca ca 3c 02 c3 2b bd f5 90 14 bd f2 56 0f 3d
       0.024754684 -0.04193402 -0.036271054 0.034995027
000010 dd 5d f0 3c b6 f9 66 3d 95 2f 05 bc 8b 26 68 bc
       0.029341633 0.056390487 -0.00812902 -0.014169346
000020 48 61 e5 bb fb a5 22 bd 83 92 15 3d c4 3c cf 3c
       -0.007000122 -0.039709073 0.036516678 0.02529753
000030 3f 2c d1 3c fc 7e 6a bd 14 28 96 bb 30 6f 55 3d
       0.025533793 -0.057250008 -0.0045824144 0.05210799
000040 94 13 86 3d e2 e0 9b bc c4 d8 00 3d ba ab d6 3c
       0.06546703 -0.01902813 0.031456724 0.026204932
000050 08 30 11 bd 62 d0 77 3b 1d 61 06 bc 06 a1 79 bc
       -0.035446197 0.0037813415 -0.008201865 -0.015236145
000060 b1 2f 8f 3c b5 cf a5 3c cf 88 7a 3d bc d9 90 3c
       0.017478796 0.020240644 0.061165627 0.017681949
000070 42 43 90 bc b9 1e 1a 3d 04 da 02 bd 67 f9 23 3a
       -0.017610196 0.037626956 -0.031946197 0.00062551204
000080 88 7c 95 bc be 4f 88 bc 8e b3 33 bb c3 17 f6 bc
       -0.018247858 -0.016639587 -0.0027420255 -0.030040627
000090 aa 1f 94 bc 93 0a 45 3d 35 bb 63 bd d1 4e 03 3d
       -0.018081505 0.048105787 -0.055598456 0.032057587
0000a0 65 6e 87 3d 3c 32 cc ba bd 41 58 3c 1f b4 47 bb
       0.06612853 -0.0015578936 0.013199267 -0.003047235
0000b0 97 ec 18 3d c4 78 b5 bc e2 e3 85 3c fa a4 fb 3c
       0.037335005 -0.022152312 0.016344015 0.030718315
0000c0 cc 29 8c 3d c7 0b 79 bb
       0.068439096 -0.0038001405

fc2.weight f4 [10, 50]
000000 e6 68 47 be a1 59 31 be c1 6a 0b be a7 13 51 be
       -0.1947361 -0.17319347 -0.13614942 -0.20417653
000010 52 b9 13 3e 83 94 e1 3d 67 5f 80 bd bf 94 92 3d
       0.14426163 0.110146545 -0.062681966 0.07157277
000020 45 c8 21 3e 59 24 11 3e d0 6b d8 bd 9e fa 57 be
       0.15799053 0.14174022 -0.105674386 -0.21091697
000030 01 06 46 3e bd 32 a2 3d 98 55 e8 3d 2a 1a a0 3d
       0.19338228 0.07919834 0.11344451 0.078174904
000040 d5 46 ec bd 77 67 04 3d f5 eb 7b be d8 53 2b be
       -0.11536948 0.032325234 -0.24601729 -0.16731203
000050 16 5c 5c 3c 39 df 91 bd d4 2d 69 3e e3 58 13 bd
       0.013449689 -0.071226545 0.22771388 -0.03597344
000060 4b cd d6 bd a7 24 b6 3c eb 4d c8 3b 13 04 77 be
       -0.10488375 0.022234274 0.006112804 -0.24122648
000070 c3 c0 cd 3d fb 72 29 3e 45 55 49 3e 2b aa e3 bd
       0.10046532 0.16547768 0.19661434 -0.11116441
000080 f3 b8 88 3e 20 56 0b 3d 11 54 eb 3c 16 50 f6 bd
       0.26703605 0.034017682 0.02872661 -0.12026994
000090 ce ee f2 3c 45 2c b4 bc f8 e8 bd bc b9 75 14 bd
       0.029654887 -0.021993766 -0.023182377 -0.03624508
0000a0 59 6d 8d 3d df f4 19 3e 63 8f a6 3d e2 b2 11 3e
       0.06905622 0.15034817 0.081328176 0.14228395
0000b0 f0 b2 00 be 01 cb e7 bd df a8 6f 3d 19 0c 44 be
       -0.12568259 -0.11318017 0.058510657 -0.1914524
0000c0 73 ac b2 bd 56 e4 91 bd 44 84 74 3e 13 cc 40 bd
       -0.08724298 -0.0712363 0.2387858 -0.04706962
0000d0 4c 92 6e 3d c4 20 03 3e 22 5a b4 bd 9b dc ae be
       0.05824499 0.12805468 -0.08806254 -0.34152684
0000e0 75 8c 0b 3e 75 6b 2a 3d ab 05 90 3c ba 7d 7e 3d
       0.13627799 0.041606385 0.017580828 0.06213162
0000f0 4d 57 88 3e ab a1 29 3e 81 ed 81 be 32 2a 01 be
       0.26629105 0.16565578 -0.25376514 -0.12613752
000100 2a 9c 1a bd 10 65 e6 bc 53 94 de bc 2f 1b 2e be
       -0.037746586 -0.028124362 -0.027170336 -0.17002557
000110 1a 0f 8f bd bb 22 b9 bd 69 48 5f 3e 8e 34 07 3e
       -0.06985302 -0.090398274 0.21804966 0.13203642
000120 aa 9f 07 3d 37 4a 41 be 07 df 3c 3e 25 1a 62 be
       0.033111252 -0.18875967 0.18444453 -0.22080286
000130 d3 04 99 bd 54 24 6b 3e ab a7 b8 bd f4 03 bc bd
       -0.07471623 0.22963077 -0.09016355 -0.091804415
000140 7a 48 db bc 5a c8 a0 bd bd 0c f0 3d bd 8a 82 bc
       -0.026767958 -0.07850714 0.1172118 -0.015935296
000150 4d bc f0 bd 6d b0 07 3e 0a 13 bc 3d a8 f8 35 bd
       -0.117546655 0.13250895 0.09183319 -0.04442659
000160 79 4d 4e bc ac ec 32 bc 3e 67 36 be 05 f6 20 be
       -0.012591713 -0.010920685 -0.17812821 -0.15718849
000170 c7 00 c4 bd 6f e6 2e be 01 7b 67 3e 09 91 14 3e
       -0.09570461 -0.17080091 0.22605516 0.14508452
000180 3c a8 fb bd 3c 44 51 be c7 8e 5a 3e 95 7b f3 3d
       -0.122879475 -0.20436186 0.21343528 0.11888806
000190 62 35 70 bd 46 a0 00 bd 27 36 22 bc 8e aa 26 3e
       -0.05864466 -0.03140285 -0.009900606 0.16275999
0001a0 7d 17 79 3d 56 95 90 bc 8f 86 ce 3d 74 14 3e 3d
       0.060813416 -0.017649334 0.10084259 0.046406224
0001b0 6a 23 f9 3d b8 42 c4 bb fe ff bd bd 7d 01 39 3e
       0.12164958 -0.005989399 -0.09277342 0.18066974
0001c0 b8 0c ca bd a0 cb 85 bd 32 c3 24 be 66 bb 40 3e
       -0.09865707 -0.06532979 -0.16090086 0.18821487
0001d0 4a a4 21 be da 94 2d 3e 19 4f 0c be af c3 a9 bd
       -0.15785328 0.16951314 -0.13702048 -0.08289277
0001e0 5b 81 39 3d 1d 01 b4 3d 99 a6 06 3e ea 52 2e be
       0.04528938 0.08789275 0.1314949 -0.17023817
0001f0 26 bd f1 3d d5 c4 82 be c2 3b de 3d c3 a3 0a be
       0.11803655 -0.25540796 0.10851242 -0.13539033
000200 b1 a8 05 be a4 0c 41 bc 3d 49 e5 bd 16 2f d7 bd
       -0.13052632 -0.011782799 -0.1119561 -0.10507028
000210 39 80 37 bd 46 26 84 3e 4f c0 ee 3d cb 21 34 3e
       -0.044800017 0.2581045 0.11657774 0.17591016
000220 f8 3d cf 3d 5f 25 5d 3e 0a e9 be bd 89 9b 3c 3d
       0.101192415 0.21596287 -0.093217924 0.046046767
000230 c5 59 d7 bd b7 cf 00 3e 94 07 46 3e 87 bb 4c 3b
       -0.10515169 0.12579237 0.19338828 0.0031239705
000240 39 1e 08 3e c4 4e 3d be 27 9a 9d 3b 78 f5 87 3e
       0.13292779 -0.18487078 0.004809636 0.26554465
000250 b5 a4 8a be e5 75 b0 bc b8 20 36 3e 5a 6c c6 bd
       -0.27078786 -0.021540591 0.17785919 -0.09688635
000260 f1 34 15 3d b4 0f db 3d 10 c1 28 3e aa 3d 1e bd
       0.036427442 0.106963545 0.16479897 -0.038633026
000270 90 57 7d be 7b 59 1c 3e 23 40 b0 bd 4f c1 be 3d
       -0.24740434 0.15268509 -0.08605983 0.093142144
000280 ec f9 81 be c0 4e c0 bc 01 61 22 3e 8b b4 b7 bc
       -0.25385988 -0.02347505 0.15857317 -0.022424957
000290 29 66 64 bd 5a 6e 70 3e a5 f5 7f 3e 59 4a 82 bd
       -0.05576149 0.23479596 0.2499605 -0.06361837
0002a0 cc 5f 19 3e 1e b4 91 3d 3f 5e be bb 15 21 d5 3d
       0.1497795 0.07114433 -0.005809575 0.104067005
0002b0 f4 74 c7 bd ac 8e be bc dc 6f 43 be 06 ae 0a 3d
       -0.09739104 -0.02326139 -0.1908564 0.033857368
0002c0 10 24 75 bd e1 23 18 3e e1 c7 b9 bd af ad d3 bd
       -0.059848845 0.14857437 -0.09071327 -0.10335862
0002d0 d4 3e ab bd 88 31 49 3d e2 1f 82 3d 0c f9 0d 3e
       -0.08361593 0.049119502 0.063537374 0.13864535
0002e0 f7 1c f5 3d d5 f3 56 3d 2f 66 85 bd cc 9f a8 3d
       0.11968415 0.05247863 -0.065136306 0.08233604
0002f0 80 cd ce bc be 2c 01 be 13 d4 92 be 77 52 fd bd
       -0.025244474 -0.12614724 -0.28677425 -0.123692445
000300 bf 29 11 3d 5f 73 dd bd 68 c5 49 3e 32 2a 28 bc
       0.035440203 -0.10813021 0.19704211 -0.010263966
000310 40 39 95 bc 8b 03 16 3d 90 dd a0 bd ac a0 45 bb
       -0.018215775 0.036624473 -0.0785476 -0.0030155582
000320 ec 01 78 bd 5d 04 67 bd 6f 8f a2 bd de e0 74 be
       -0.060548708 -0.056400646 -0.07937514 -0.23913905
000330 42 64 92 be 04 be 8e bd 09 7f a7 bb ae ea 09 3e
       -0.28592116 -0.06969836 -0.0051115793 0.1346843
000340 da 4c 19 be cd 25 03 be 3a 2a 60 3e d1 ca 5e be
       -0.14970723 -0.12807389 0.21891108 -0.21757056
000350 99 e1 fa 3d 35 ac bf 3d e9 44 29 3d b6 a2 6d be
       0.122500606 0.09359018 0.041325483 -0.232066
000360 e2 02 0d be 0c 58 f9 3d bb 99 54 3e 1c c0 3d 3e
       -0.13770631 0.12174997 0.20761769 0.18530315
000370 ca 95 65 bd 93 3c 4f bc 3b ce 21 3e 7a bf 5d 3e
       -0.056051053 -0.012648719 0.15801327 0.21655074
000380 2a c6 2b 3e 2a 1a c6 bd 91 bd db bd 52 92 82 bd
       0.16774812 -0.09672959 -0.10729516 -0.06375565
000390 0f 27 e4 3a 70 ac 1f be 57 ac f2 3c 26 b4 fe 3d
       0.001740666 -0.15593123 0.029623194 0.12436704
0003a0 ff 9d ff bd 37 0a 16 3e 8f 0b 05 be 25 87 36 be
       -0.12481307 0.14652334 -0.1299269 -0.17824991
0003b0 df 96 5f 3d 12 4f 54 3e 43 21 07 be 58 15 d0 3d
       0.05458724 0.20733288 -0.13196282 0.10160321
0003c0 eb 6b 24 3d ca ef 5b be 2f 50 b0 bd 7f 00 3a 3e
       0.04014198 -0.21478191 -0.08609044 0.18164252
0003d0 9c e7 0b bb ce b9 64 3e d7 c3 2d 3e a7 57 84 3e
       -0.0021347767 0.22336504 0.16969238 0.25848123
0003e0 8b 16 da bd c3 d3 a0 bc 66 9b 19 be 1b b6 19 3e
       -0.10648831 -0.019632226 -0.15000686 0.15010874
0003f0 6f 2f ec bc d6 13 71 3e 82 54 3e 3d 10 ac 17 3d
       -0.028831212 0.23542723 0.04646731 0.037029326

fc2.bias f4 [10]
000000 f7 94 b6 bd 58 49 41 bc 34 97 80 bd 43 e0 91 3d
       -0.089151315 -0.011797272 -0.0627884 0.07122853
000010 8c 57 59 bd 0b bd d2 3c 79 a9 31 3d e1 b0 93 3d
       -0.053062007 0.025724908 0.043374512 0.07211471
000020 88 26 54 bd 6c 09 a8 bd
       -0.05179456 -0.08204922

momentum_buffer f4 [10, 1, 5, 5]
000000 dd 9c aa 3c 46 2c 8c 3c f8 61 54 3c 17 0a 5a 3c
       0.020826751 0.017110955 0.012962811 0.01330807
000010 c2 c0 8e 3c 27 3b c4 3c c2 c2 5d 3c 58 8b 14 3c
       0.017425898 0.023953987 0.013535203 0.009066425
000020 af 68 f1 3b a3 40 77 3c 3d a6 b9 3c 6e 9a 7f 3c
       0.0073672156 0.015091094 0.022662276 0.015600784
000030 82 4e a5 3b 95 c1 25 3c 50 bd ae 3c 90 09 7d 3c
       0.0050447593 0.010116954 0.021330506 0.015444174
000040 66 77 b6 3b e8 4e 7e 3a b2 73 15 3c 1a 16 54 3c
       0.0055684326 0.0009701089 0.009121822 0.012944723
000050 0a 23 26 3c 5c 29 40 bb 0e 57 0c bb 52 1b ef 3b
       0.01014019 -0.0029321527 -0.0021414193 0.007296958
000060 a1 43 18 3c 42 90 c9 3a 89 d5 12 3b 36 4b 36 3b
       0.009293468 0.0015378075 0.002240511 0.0027815825
000070 77 76 b7 3a c0 5a b4 b7 e9 4c 63 3b 2e 8a 7c 3b
       0.0013997097 -2.149993e-05 0.0034683293 0.003853451
000080 e3 6b a1 3b 9e 78 73 3b b6 3f 50 3a 60 cb 6a 3a
       0.004926191 0.003715075 0.0007944064 0.0008956697
000090 d5 25 e2 3a 00 6c 8c 3b b6 2b aa 3b d7 8a 07 3b
       0.0017253706 0.0042853355 0.005193199 0.002068212
0000a0 02 50 7d ba 87 c6 a9 39 c2 8f ee 3a 94 c2 e6 3a
       -0.0009663106 0.00032382106 0.0018200802 0.0017605596
0000b0 d7 ba a4 3a a8 d6 f8 b9 f0 df 79 b9 de b0 1d ba
       0.001256789 -0.00047462177 -0.00023829914 -0.000601543
0000c0 fc 28 2a ba a9 11 55 3a d2 15 db 3c 14 88 29 3d
       -0.00064910925 0.0008127937 0.026743803 0.04138954
0000d0 8e cf fe 3c 53 7f 82 3c 3a c2 45 3b dc 9e c3 3a
       0.03110483 0.015929854 0.0030175583 0.0014924663
0000e0 b7 91 c7 bb b9 67 57 bc f3 28 02 bd 9b ed fe bc
       -0.0060903686 -0.013147288 -0.031777333 -0.031119158
0000f0 09 57 dc bc 64 68 12 bd 75 65 22 bd 92 13 43 bd
       -0.02689697 -0.035744086 -0.03964754 -0.047626086
000100 89 c1 2b bd f0 e8 f7 bc 68 f3 40 bd a6 4b 18 bd
       -0.041932616 -0.03026244 -0.04710713 -0.03718152
000110 16 09 1d bd 4f a9 09 bd 4e 21 04 bd 74 d6 eb bc
       -0.038338743 -0.03360873 -0.032258324 -0.028788783
000120 b3 09 7b bc 40 84 7e bc 36 89 78 bc bb 8e 98 3c
       -0.015322137 -0.015534461 -0.015169432 0.018622747
000130 96 4e 5f 3c 3e e3 cd 3b 26 7c 56 3c b5 81 52 3c
       0.013629576 0.006283193 0.013091123 0.012848307
000140 34 b8 59 3c a8 63 b5 3b a6 4d 83 bb 50 6f e5 ba
       0.013288546 0.0055355616 -0.004007059 -0.0017504487
000150 73 53 99 ba 72 31 ff bb 81 f6 80 bc a7 9a 83 bc
       -0.0011697843 -0.0077878768 -0.015742542 -0.016064955
000160 6f 4a 22 bc 1e 7e 9b bb 80 a0 4a bc 29 60 cc bc
       -0.009905442 -0.004745259 -0.012367368 -0.024948196
000170 b8 26 60 bc 1a 78 43 bc c8 b3 19 bc aa 58 3f bc
       -0.013681106 -0.01193049 -0.009381242 -0.011678854
000180 1f 53 3f bc 98 fb 7f bb f2 71 0f bb 04 42 14 bb
       -0.011677532 -0.0039059874 -0.0021887985 -0.0022622356
000190 19 e6 b1 b9 3c c5 b9 38 ea 9d f9 39 c0 fd e4 39
       -0.00033931507 8.858225e-05 0.00047610636 0.00043676607
0001a0 a9 df 84 39 a7 5a be ba 40 cd b6 b8 3f 79 8b 3a
       0.00025343642 -0.0014522866 -8.716667e-05 0.0010640993
0001b0 c3 1d 92 3a 73 69 6e 3a ac 7c c2 ba 4b c7 97 ba
       0.0011147786 0.00090946927 -0.001483818 -0.001157978
0001c0 14 e1 16 39 2c 62 3c 3a 67 18 01 3a a7 88 39 ba
       0.00014388963 0.00071862596 0.00049245957 -0.0007077553
0001d0 dc 8b 92 ba 69 be 81 ba e8 44 4f b9 c0 d5 50 37
       -0.0011180597 -0.0009898666 -0.00019766728 1.2447534e-05
0001e0 f8 0a 93 ba f0 d6 dc b9 50 34 52 ba 80 56 02 ba
       -0.0011218479 -0.0004212181 -0.00080186594 -0.0004971996
0001f0 da 57 a7 b9 47 37 b0 3c 44 15 af 3c 05 24 15 bc
       -0.00031918177 0.021510733 0.021372445 -0.009102826
000200 08 71 66 bc 25 2d 89 bc 47 e7 f3 3b 02 e6 29 bc
       -0.014065035 -0.01674516 0.007443342 -0.01036978
000210 e1 fa 20 bd ba 89 3a bd a2 0d 2e bd 3e b5 ab bb
       -0.039301757 -0.045541503 -0.04249347 -0.0052401116
000220 4a 15 2c bd 69 63 66 bd 64 0d 4b bd a2 62 19 bd
       -0.04201249 -0.05624715 -0.049573317 -0.03744758
000230 f9 4f fd bc 68 09 5a bd 10 7d 57 bd d0 29 13 bd
       -0.030921923 -0.053231627 -0.052609503 -0.035928547
000240 ee 89 fb bc d8 44 15 bd 4c 77 4c bd 9d 22 21 bd
       -0.030705418 -0.036442608 -0.049918458 -0.03933965
000250 71 ee 95 bc 46 14 72 bc b7 73 cb 3b 00 cf 86 3c
       -0.018302174 -0.014775341 0.0062088626 0.016456127
000260 e7 b4 8f 3c a4 61 29 3c f0 e2 9b 3b bb f4 28 3c
       0.017542316 0.010338221 0.0047572777 0.010312255
000270 a2 ca 8e 3c 35 62 24 3c 7c 5e 2b bb f4 e7 db bb
       0.017430607 0.01003318 -0.0026148846 -0.0067110006
000280 c2 73 96 3c 82 af af 3c 20 a8 c1 b9 4c c1 30 bc
       0.018365745 0.021445993 -0.00036937091 -0.010788273
000290 6c 63 7d ba b8 fd 0e 3c e4 3d 44 3c d0 0a cb ba
       -0.0009665999 0.008727483 0.0119776465 -0.0015490893
0002a0 3a 94 ab bb c0 14 6c b9 a1 94 90 bb 86 c7 a9 ba
       -0.005236176 -0.00022514444 -0.004412249 -0.0012953139
0002b0 62 8b 90 3b f7 a9 fe 3a 81 bb 78 3b 04 77 96 3c
       0.004411147 0.0019429316 0.0037953558 0.018367298
0002c0 27 bf bf 3c 9a c8 b9 3c dd 22 99 3c 71 8b 87 3b
       0.023406578 0.022678662 0.018693382 0.0041364958
0002d0 ef 23 4c 3c 70 cc 23 3c 6b 9d d1 3b ce 76 4d bc
       0.012459739 0.009997472 0.0063969395 -0.012540532
0002e0 89 ef 7b bc 55 a2 06 bc 65 3b 83 bc 2c f2 d5 bc
       -0.015376934 -0.008217414 -0.016019532 -0.026116453
0002f0 78 10 f0 bc ed 03 8c bc f0 7d 6f bc 33 4a 02 bd
       -0.029304728 -0.017091716 -0.014617428 -0.031809043
000300 1d 35 c9 bc 92 62 94 bc 28 8c 08 bc ae 94 93 bc
       -0.02456146 -0.018113408 -0.008334197 -0.018015232
000310 a9 b4 cb bc 46 fa 56 bc ac a8 0a bc 8c 32 ef bb
       -0.024866419 -0.013121193 -0.008463066 -0.007299727
000320 3a 5e a6 3b 64 73 8a 3b a0 f9 b6 3b e0 2a 8f 3b
       0.0050771507 0.0042251814 0.005583957 0.004369125
000330 00 bd 22 ba d9 16 b7 3b 04 fe 45 3b 8a 7c 4c 3b
       -0.0006207973 0.0055874404 0.003021122 0.003120216
000340 e2 81 58 3b 0f 7e 06 bb 38 7b 67 3a e0 17 aa 38
       0.00330364 -0.0020521914 0.00088303117 8.110679e-05
000350 12 03 79 bb f7 ae ce bb 97 bf de bb 8d 73 b7 ba
       -0.0037996215 -0.0063074785 -0.0067977416 -0.0013996229
000360 1e a8 b6 ba 91 56 d0 bb 02 ec 21 bc c6 82 30 bc
       -0.0013935601 -0.006357976 -0.009882929 -0.010773366
000370 d8 42 34 bc be ec 13 bc 24 e8 47 bc 6d fb 86 bc
       -0.011002265 -0.009028612 -0.012201343 -0.016477311
000380 02 9a 82 bc 46 f3 27 bb d9 b4 fa ba 84 5b 5a b8
       -0.015942577 -0.002562718 -0.0019127383 -5.206048e-05
000390 4e b9 0f 39 fa 9c 35 3a c2 4a 17 bb 97 df 46 ba
       0.00013706574 0.00069279934 -0.002308533 -0.0007586418
0003a0 e0 75 5e 37 d8 a6 04 3a bb 09 49 3a b8 42 5b ba
       1.3259676e-05 0.0005060262 0.00076689915 -0.0008364129
0003b0 0c 37 0f ba c4 be 33 b8 27 b7 0e b9 56 c6 b7 39
       -0.000546322 -4.285459e-05 -0.00013610405 0.00035052252
0003c0 0d ed 5b ba 5c c8 95 b9 55 f3 07 b9 7f 87 48 39
       -0.00083895103 -0.00028568774 -0.00012965252 0.00019123963
0003d0 8d 54 09 3a 5a 81 9a ba b5 b9 8b b9 54 3f 03 39
       0.00052387343 -0.0011787817 -0.00026650509 0.00012516725
0003e0 e6 b0 ae 39 09 01 8a 39
       0.00033319666 0.00026322182

momentum_buffer f4 [10]
000000 df 3f c2 3c f0 22 f1 ba ac a5 ef bb 82 4d 9e 3c
       0.023712097 -0.0018397253 -0.007313451 0.019324068
000010 63 15 a8 ba 0e 44 62 bc 7d 49 3e 3d a0 a1 d3 3b
       -0.0012823757 -0.013810171 0.046456803 0.006458476
000020 e1 43 d9 bb 48 a4 61 bb
       -0.0066304062 -0.0034430195

momentum_buffer f4 [20, 10, 5, 5]
000000 a8 e8 46 3c 81 70 df 3c ba bf 4b 3d 77 ae 28 3d
       0.0121404305 0.027275326 0.04974339 0.041182008
000010 07 fb 24 3d f9 7a 74 3c 8c bb b4 3c ba 25 00 3d
       0.04027846 0.014921897 0.022062086 0.03128598
000020 a3 3a 11 3d 48 14 23 3d 4c 0f a4 3c 32 0e f5 3c
       0.03545631 0.039814264 0.020026825 0.029913995
000030 ba 3d df 3c 16 c1 cb 3c 2c 78 e9 3c 88 a5 9a 3c
       0.027251113 0.024872344 0.028499685 0.01887776
000040 ad c7 fe 3c 05 08 9d 3c 6a 03 d5 3c ac f2 ea 3c
       0.031101072 0.019168863 0.026002605 0.028680168
000050 6d f3 b1 3c ae 87 ff 3c 34 23 b8 3c 89 ff 03 3d
       0.02172252 0.031192627 0.022477724 0.03222612
000060 2d 11 e9 3c 21 98 c7 3b 8f 24 42 3b a2 6b 49 3a
       0.028450573 0.006091133 0.0029623841 0.000768358
000070 82 eb ad 3a 26 7e cd 3a bf 64 6d 3b fd b0 ae 3a
       0.0013269039 0.0015677854 0.003622338 0.0013327893
000080 70 f8 48 3a 18 bc 31 3a fd c7 dc 3a 65 ac 6a 3b
       0.00076664146 0.00067800423 0.0016844269 0.0035808322
000090 ef c1 e6 3a 43 47 80 39 81 f4 39 3b 16 bb 19 3b
       0.0017605404 0.00024467157 0.0028374495 0.002345746
0000a0 63 a0 97 3b 0a 18 7c 3b 5e 88 fb 3a 10 e5 01 3b
       0.004627274 0.0038466477 0.0019190421 0.001982037
0000b0 22 1a 9d 3a ad 31 64 3b d1 3c 39 3b b4 cd fc 3a
       0.0011985938 0.0034819648 0.002826501 0.0019287379
0000c0 2d 77 df 3a 0a 2d 91 3a c3 66 50 3d e6 bb c0 3d
       0.0017049067 0.0011076045 0.05087925 0.09410839
0000d0 eb cd d5 3d be 13 bf 3d 80 be a9 3d 6e 20 8d 3d
       0.10439666 0.093299374 0.08288288 0.06890951
0000e0 37 79 b7 3d c7 9c cd 3d 61 81 ae 3d 38 49 bf 3d
       0.08958667 0.100396685 0.08520771 0.09340137
0000f0 1e 4d 8b 3d d9 34 96 3d 2e a3 8d 3d 89 07 97 3d
       0.06801818 0.07334299 0.0691589 0.07374484
000100 29 b3 c7 3d 50 29 6e 3d ea ab 73 3d 0c 10 4d 3d
       0.09750969 0.058144867 0.059490122 0.05006413
000110 9d e2 81 3d c5 cb c3 3d c9 52 57 3d 4f e5 3d 3d
       0.06342051 0.0956035 0.052569184 0.046361264
000120 7d 80 81 3d 32 13 a8 3d 5b 4f cd 3d 55 6b ab 3c
       0.06323335 0.08206786 0.100249015 0.020925203
000130 12 a6 6b 3d 54 97 88 3d f9 9d 75 3d 20 a7 5e 3d
       0.057531424 0.066694885 0.059965108 0.0543586
000140 7a 6d 14 3d 3a 9f 5b 3d b7 53 77 3d a0 02 5a 3d
       0.036237217 0.053618647 0.06038257 0.05322516
000150 ca 53 66 3d d4 e7 23 3d ac 09 46 3d 02 9e 2f 3d
       0.05623225 0.04001601 0.048349068 0.042875297
000160 ef 97 19 3d 8a 85 74 3d 71 ca 0c 3d d4 eb 21 3d
       0.03749841 0.059697665 0.03437275 0.039531544
000170 67 a4 00 3d e3 72 12 3d d2 59 77 3d de d1 0b 3d
       0.031406786 0.035754096 0.060388394 0.03413569
000180 f6 6f dd 3c d1 dd 2b 3d b7 93 55 3d a6 b1 8f 3d
       0.027030926 0.041959587 0.052142825 0.070163056
000190 5e a2 10 b9 4c d2 2e b9 e1 13 22 39 0c 8d 38 39
       -0.00013793397 -0.00016672275 0.0001545693 0.00017600151
0001a0 69 62 16 3a e9 15 29 38 43 e2 82 38 3c a3 54 39
       0.000573671 4.0313145e-05 6.2410276e-05 0.00020278705
0001b0 1b 03 96 39 b5 00 2e 3a 75 36 90 b8 24 c2 4e 39
       0.00028612543 0.00066376786 -6.8765985e-05 0.00019718014
0001c0 ba 34 c0 39 8c 7f cf 39 0b da a5 39 17 6c 19 39
       0.00036660378 0.00039577147 0.00031633707 0.00014631484
0001d0 a1 e6 84 38 a8 a1 45 3a 1b 3b 9a 39 cd 9a 8a b8
       6.3372085e-05 0.0007539042 0.00029417206 -6.609187e-05
0001e0 98 95 0d 36 06 41 d3 37 0b 81 ac b9 ad 25 a2 b8
       2.1097712e-06 2.5183439e-05 -0.0003290254 -7.7317796e-05
0001f0 60 80 f4 b8 01 4c 42 3d 47 cb e6 3d eb 83 08 3e
       -0.000116587384 0.047435764 0.11269241 0.13331573
000200 ba 53 db 3d 5c 13 cb 3d a3 f6 91 3d 6c 11 ea 3d
       0.10709329 0.09915802 0.0712712 0.11429104
000210 e7 9e 03 3e 29 f7 dc 3d e8 29 df 3d 6f 33 ab 3d
       0.12853585 0.107893296 0.10896665 0.083594196
000220 d5 df c9 3d 62 d6 b4 3d bc 2b bc 3d a0 76 f1 3d
       0.09857146 0.08829953 0.09188029 0.11790204
000230 08 f2 90 3d 6d 95 a6 3d 58 b1 83 3d 2a ea 98 3d
       0.07077414 0.081339695 0.0643031 0.07466538
000240 5a cb eb 3d 66 3f 99 3d a3 45 7e 3d 95 c0 86 3d
       0.115133956 0.074827954 0.06207813 0.06579701
000250 9a 02 d3 3d 1c 68 ff 3d 6f c9 4b 3d 31 a5 97 3d
       0.103032306 0.12471029 0.04975265 0.07404555
000260 1c 08 76 3d f2 83 5b 3d b8 e0 34 3d 24 bb 62 3d
       0.060066327 0.05359263 0.04415962 0.055354252
000270 a6 a4 84 3d 5d 2a 4d 3d ca 68 54 3d 18 db 6e 3d
       0.06476717 0.05008923 0.051857747 0.058314413
000280 7c a8 53 3d b1 d0 44 3d 61 4b 15 3d 04 2d 59 3d
       0.05167435 0.048050586 0.03644884 0.053021446
000290 e4 22 93 3d 57 25 3a 3d f2 5e 10 3d 62 1d f7 3c
       0.07184389 0.045445766 0.035246797 0.030165378
0002a0 84 05 6f 3d 30 99 97 3d 4e 6f 20 3d 94 40 dd 3c
       0.05835487 0.07402265 0.03916865 0.027008332
0002b0 44 37 51 3d be 4d 81 3d 16 6e 9b 3d 8d 33 0a 3d
       0.051078096 0.06313656 0.075893566 0.03374057
0002c0 a2 c4 94 3d e4 fb 8d 3d e3 20 76 3d 21 44 56 3d
       0.07264067 0.0693281 0.060089957 0.052311067
0002d0 fd 2e 4c 3d 85 79 88 3d ee 8e 8c 3d e4 7c 6c 3d
       0.0498495 0.06663803 0.06863199 0.057736292
0002e0 54 ed 68 3d 98 c5 47 3d 9e f3 67 3d 20 84 35 3d
       0.05686696 0.048772424 0.056628816 0.044315457
0002f0 1d 1a 40 3d 20 2e 8c 3d 91 4f 30 3d 8f c1 34 3d
       0.046899904 0.06844735 0.04304463 0.044129904
000300 b9 21 05 3d ce 6b 42 3d 79 ca 8f 3d 1d 78 19 3d
       0.032502864 0.04746609 0.070210405 0.037468065
000310 53 8b c9 3c e5 f8 50 3d e3 5c 6f 3d b2 d5 a2 3d
       0.024602568 0.051018614 0.058438193 0.079509154
000320 65 e8 a1 3c 93 1d dd 3c d7 54 9b 3c f5 0d 96 3c
       0.019764135 0.026991641 0.018961353 0.018317202
000330 4a 04 89 3c 53 13 ab 3c c6 60 b2 3c 3b 3e 85 3c
       0.016725678 0.020883238 0.02177466 0.016265025
000340 18 44 9e 3c 11 84 a7 3c 15 dc 9a 3c 2d a3 89 3c
       0.019319579 0.020448716 0.018903771 0.016801441
000350 01 b0 98 3c c7 dd 94 3c f4 f2 c4 3c 37 38 8a 3c
       0.018638613 0.018172158 0.02404163 0.016872508
000360 03 e7 06 3c 03 0a 9a 3c 31 ef a6 3c 7a e6 d9 3c
       0.008233788 0.018803602 0.020377727 0.026599158
000370 f1 46 6f 3c 5c 82 60 3c 80 8e c1 3c f1 dd bd 3c
       0.014604316 0.013702955 0.02362752 0.023177119
000380 17 9b d7 3c da cd 44 37 b3 2e 46 ba ed f6 42 3a
       0.02631907 1.1730439e-05 -0.00075600593 0.00074373075
000390 7e 55 3f 3a 32 bd 79 b9 73 80 ed b8 08 34 4d ba
       0.0007298811 -0.00023816971 -0.00011324966 -0.00078278827
0003a0 aa f0 89 ba 4f 02 2b ba fd 33 30 ba a4 d8 78 38
       -0.0010523994 -0.00065234763 -0.0006721614 5.932957e-05
0003b0 78 10 e0 ba fa b0 f2 ba 43 84 07 3a 0a 83 47 38
       -0.0017094752 -0.0018515878 0.000516955 4.7567337e-05
0003c0 74 74 90 38 47 c3 d0 b9 eb 65 09 3a 49 a6 92 39
       6.888146e-05 -0.00039818345 0.0005241322 0.00027971182
0003d0 6e 76 7f 39 9e 71 39 ba c8 22 07 b9 50 05 03 3a
       0.00024362814 -0.000707412 -0.0001288756 0.0004998045
0003e0 ce 6d 7f 3a 8c 8e 89 39 9f 2d ab bc 3d 56 74 bc
       0.000974384 0.00026236882 -0.020895777 -0.014913139
0003f0 5e c5 a4 bc 6b 16 b0 bc e8 61 6c bc 64 9a 93 bc
       -0.020113643 -0.021495065 -0.01442764 -0.018017955

momentum_buffer f4 [20]
000000 0c 4a 07 3d aa 8c fd bb 9a 53 d4 3b f4 cf 28 37
       0.0330296 -0.0077377157 0.0064796926 1.0061998e-05
000010 78 d6 fc 3a bd 90 8c bc 09 a9 d5 bc be 2b 35 3a
       0.0019289991 -0.01715886 -0.026081579 0.000691112
000020 e0 7f 6d bc 37 9a 0a 3b 55 44 32 bc 84 83 8e 3b
       -0.01449582 0.0021149048 -0.010880549 0.004349174
000030 c0 a0 c7 39 26 07 6c bb d0 f6 fb 3b 3b db 02 bb
       0.00038076006 -0.0036015003 0.0076893345 -0.0019967097
000040 65 9e 96 3c 82 ed a1 3c 2e 90 ab bc 72 7e 3f bc
       0.018386075 0.019766573 -0.020942774 -0.011687862
