lecture8/saved_mnists/mnist-4690.pth (torch_old, 177308 bytes, 16 tensors)

conv1.weight f4 [10, 1, 5, 5]
-0.13056321 0.20928177 0.026763944 -0.21162929 -0.17171592 0.013733593 0.19818315 0.21784273
-0.08064957 -0.22874872 0.3054658 0.3388488 -0.018605143 -0.034267325 0.046823237 0.18776658
0.3172912 -0.0703234 0.051922742 -0.10563566 -0.035839606 0.21887949 -0.028384926 0.28048587
0.3061428 -0.1711764 -0.18958768 -0.060756426 -0.17374945 -0.14664681 -0.03861659 0.1725058
0.13526177 0.073163636 -0.1784446 -0.1673272 -0.082473665 0.018614577 -0.0370385 0.19258651
-0.19681808 0.076640025 -0.045615967 0.02952299 -0.14196384 0.088569954 -0.16912481 0.011288751
-0.092665076 0.18584873 -0.099615395 0.017466092 0.022720253 0.3075114 0.053680584 0.2264674
0.21878146 0.45092687 0.47164667 0.40829206 0.3291001 0.1719978 0.45675394 0.36422122
0.15176764 0.044988096 0.2739409 0.13844354 0.27497643 0.1508768 0.2524961 0.24164878
-0.09280255 0.25377175 0.16586328 0.09188009 -0.13192493 0.17225522 0.25746387 0.1765445
0.16299126 -0.10278046 0.25752994 0.11132551 -0.0704241 0.09540855 0.30262893 0.19777104
0.29796624 -0.13690679 0.2582005 0.14534128 0.3971194 0.26009634 0.056436915 0.3090969
0.013917472 0.19378169 -0.059151504 0.13841915 -0.12775345 -0.024019219 -0.17466201 -0.015577065
-0.17739478 0.1779511 0.09197235 0.005323247 0.09659902 0.07370449 -0.08394888 -0.08462335
-0.0041241394 -0.11244116 -0.09422052 0.09113797 0.16351393 -0.13046798 0.10839588 -0.17323461
-0.061531167 -0.14083086 0.12458722 0.035356063 0.003622733 0.13620225 0.36016342 0.50488085
0.4454906 0.06277562 -0.015974697 0.42691866 0.52954155 0.48000005 0.064833544 0.10817245
0.4447422 0.36574155 0.44660032 0.11213402 0.22933145 0.43283838 0.18845114 0.3525986
0.1364705 0.2664604 0.2531453 0.049361195 -0.09277763 0.048081525 -0.10706743 0.034722112
0.30086398 0.3678136 0.36516282 -0.18471354 -0.15550497 0.19579329 0.34677306 0.21037178
-0.120992035 0.09978025 0.17708516 0.3302437 0.34002244 -0.13834633 0.21982545 0.12093467
0.091936864 0.043869525 -0.14798327 0.2196831 0.25172278 0.2814744 0.2154706 -0.17906706
-0.13275011 -0.010064257 0.34164706 0.2510884 0.06990597 -0.029366415 0.31897986 0.21582556
0.25575635 0.1616908 0.04645794 0.4785562 0.39330062 -0.022732072 0.06903658 0.26719728
0.3452074 0.1566142 0.14252852 0.1257387 0.05955995 0.099217966 -0.005997571 -0.022311807
0.05802488 0.043348085 0.06222358 -0.12847356 0.17797376 -0.14386413 -0.09881152 -0.12065698
0.26520643 0.005052214 -0.13048574 -0.1579678 -0.05305964 0.13526314 -0.12136893 0.028712513
-0.07816162 0.23407528 0.12655294 0.08925376 0.20434801 -0.033075117 0.021510825 0.20649806
-0.026367309 0.17322107 0.078287914 -0.19488922 -0.11738383 -0.059115876 0.047171313 0.016659664
-0.094683625 -0.056099284 0.19444151 -0.100626804 -0.09435522 -0.08435028 -0.16076566 -0.09744471
0.11000814 0.018606158 -0.105723955 0.13675182 0.00016897712 0.16254391 -0.18237014 -0.096774116
-0.06592636 -0.13315807
00000000: 5db2 05be f64d 563e 0f40 db3c 59b5 58be
00000010: 4cd6 2fbe dd02 613c 86f0 4a3e 2a12 5f3e
00000020: 9a2b a5bd 1b3d 6abe 0366 9c3e 977d ad3e
00000030: d069 98bc e55b 0cbd b9c9 3f3d e245 403e
00000040: fe73 a23e b705 90bd f1ac 543d 8257 d8bd
00000050: 8dcc 12bd f221 603e 8187 e8bc d89b 8f3e
00000060: c0be 9c3e de48 2fbe 4623 42be bbdb 78bd
00000070: 60eb 31be 952a 16be 6e2c 1ebd 5ca5 303e
00000080: 1082 0a3e d1d6 953d 2eba 36be d257 2bbe
00000090: f4e7 a8bd 997d 983c afb5 17bd 6635 453e
000000a0: ae8a 49be 72f5 9c3d cfd7 3abd 33da f13c
000000b0: f85e 11be 2a64 b53d 0e2f 2dbe 74f4 383c
000000c0: 30c7 bdbd 214f 3e3e 2803 ccbd 0d15 8f3c
000000d0: d31f ba3c 2272 9d3e 2ce0 5b3d 12e7 673e
000000e0: 3f08 603e e3df e63e ac7b f13e a80b d13e
000000f0: cf7f a83e 3120 303e a7db e93e 347b ba3e
00000100: fa68 1b3e 7045 383d fb41 8c3e 25c4 0d3e
00000110: b6c9 8c3e 737f 1a3e 2b47 813e c772 773e
00000120: 430f bebd 5fee 813e 10d8 293e a12b bc3d
00000130: 5417 07be ac63 303e 4ed2 833e 15c8 343e
00000140: 2ee7 263e 907e d2bd f7da 833e a1fe e33d
00000150: 833a 90bd 8f65 c33d 2ef2 9a3e 7e84 4a3e
00000160: 088f 983e 4b31 0cbe db32 843e 58d4 143e
00000170: 3c53 cb3e 592b 853e 652a 673d f341 9e3e
00000180: 1c06 643c b56e 463e d948 72bd c0bd 0d3e
00000190: cdd1 02be f4c3 c4bc 99da 32be f236 7fbc
000001a0: faa6 35be d038 363e 005c bc3d a26e ae3b
000001b0: b5d5 c53d 61f2 963d 64ed abbd 024f adbd
000001c0: ca23 87bb 8d47 e6bd b0f6 c0bd 8ba6 ba3d
000001d0: 3270 273e 6699 05be a9fe dd3d 6a64 31be
000001e0: 1b08 7cbd f735 10be 9627 ff3d 85d1 103d
000001f0: 606b 6d3b 9a78 0b3e 5767 b83e df3f 013f
00000200: 5817 e43e 8190 803d 5edd 82bc 1595 da3e
00000210: 0990 073f 91c2 f53e 73c7 843d 8489 dd3d
00000220: 40b5 e33e 7a42 bb3e cca8 e43e 85a6 e53d
00000230: ddd5 6a3e fe9c dd3e 56f9 403e ce87 b43e
00000240: ecbe 0b3e 7f6d 883e 439c 813e f72e 4a3d
00000250: 3302 bebd 22f1 443d 2b46 dbbd c638 0e3d
00000260: d80a 9a3e 1052 bc3e 9ff6 ba3e 8c25 3dbe
00000270: b23c 1fbe 097e 483e 3d8c b13e b36b 573e
00000280: acca f7bd 9659 cc3d d055 353e b415 a93e
00000290: 6c17 ae3e a9aa 0dbe ec19 613e 99ac f73d
000002a0: 6549 bc3d 88b0 333d ed88 17be 9bf4 603e
000002b0: cfe1 803e 6a1d 903e 53a4 5c3e 5b5d 37be
000002c0: a5ef 07be 8ee4 24bc 5dec ae3e a98e 803e
000002d0: dc2a 8f3d d691 f0bc 5451 a33e 6001 5d3e
000002e0: 7ff2 823e 4692 253e ae4a 3e3d 5105 f53e
000002f0: b35e c93e 9c38 babc 0d63 8d3d 15ce 883e
00000300: 06bf b03e 795f 203e fff2 113e a5c1 003e
00000310: 22f5 733d ca32 cb3d 4687 c4bb 40c7 b6bc
00000320: 7fab 6d3d c38d 313d 27de 7e3d 938e 03be
00000330: c13e 363e 1e51 13be b25d cabd 021b f7bd
00000340: 23c9 873e 0b8d a53b 0e9e 05be 50c2 21be
00000350: 1155 59bd 6c82 0a3e 4690 f8bd 8136 eb3c
00000360: 3313 a0bd 6eb1 6f3e 1897 013e adca b63d
00000370: 9b40 513e c679 07bd 7837 b03c 3a74 533e
00000380: 4100 d8bc dd60 313e 6a55 a03d 0a91 47be
00000390: ef66 f0bd 7d23 72bd b536 413d d979 883c
000003a0: 7de9 c1bd 5dc8 65bd ad1b 473e 6d15 cebd
000003b0: 4f3d c1bd d7bf acbd c19f 24be 1891 c7bd
000003c0: f34b e13d f16b 983c cd85 d8bd ab08 0c3e
000003d0: 732f 3139 e971 263e 3dbf 3abe 8231 c6bd
000003e0: 6604 87bd 975a 08be

conv1.bias f4 [10]
0.17211767 0.11101523 0.0130518805 0.00023692919 -0.1069905 0.17033365 0.00023973969 0.0024223
0.21521868 -0.12650476
00000000: 9d3f 303e f45b e33d 8ed7 553c 3270 7839
00000010: d61d dbbd f26b 2e3e a262 7b39 73bf 1e3b
00000020: 4962 5c3e 778a 01be

conv2.weight f4 [20, 10, 5, 5]
0.06515411 0.030779036 -0.05167901 0.02156702 -0.046214998 -0.029665949 0.019003613 0.0628411
-0.01601407 -0.09541652 -0.024907393 0.052405287 0.1553217 -0.048601817 -0.077977814 -0.10227505
0.11227325 0.05528444 -0.019168384 0.02119808 -0.0043647643 0.0143891685 0.058275465 0.007712086
0.04482615 0.0464382 0.010685964 -0.038568158 0.054638483 -0.000811946 -0.057193913 0.002774906
0.051347677 -0.0468648 -0.029740397 -0.043060027 -0.053424314 0.032825198 0.055889364 0.06372264
-0.063969955 0.04014578 -0.0034299619 -0.018717483 0.026295396 -0.052446418 0.047603093 -0.0036866413
0.029544549 -0.03597797 0.04521287 0.06432489 0.04377716 -0.067466006 -0.06769137 0.042002052
0.1013577 -0.058794588 -0.18120842 -0.06730968 0.019340565 0.065350235 -0.059300795 -0.18798554
-0.0770662 0.047215026 0.11264585 -0.02562303 -0.08068155 -0.02080279 -0.008937481 0.09854491
0.09118029 0.018582447 0.05919434 -0.040120844 0.06748557 0.07216483 0.016582297 -0.023293069
-0.0057992237 0.0883635 0.11178924 -0.10104451 -0.044130255 0.034383744 0.158094 -0.042399544
-0.09328768 -0.08035566 0.0667258 -0.00205848 0.06473061 0.017877886 0.049765423 -0.05190702
0.036501285 0.09115131 0.070505396 0.059152722 0.058670867 0.026513677 -0.04407951 0.029885452
0.050904382 0.009051719 -0.03982943 -0.023932628 0.010031939 -0.0103938505 0.017362278 -0.047767498
-0.011934531 0.0033933674 -0.01564983 0.05058872 -0.009401302 0.041069154 0.03550004 0.0054388805
0.02059657 -0.0012113746 0.04242958 -0.0215052 0.038495623 -0.059796598 0.00070276886 0.1128821
-0.047996573 -0.08916201 -0.03746618 0.10978721 0.1304879 -0.14818297 -0.05973459 0.052332427
0.16860811 0.069325544 -0.22374795 -0.11620249 0.0147353 0.14045689 0.019978274 -0.09696074
0.004124644 -0.072389714 0.11564574 0.070678815 0.0062656067 0.019183405 0.05665759 0.09835768
0.009595719 0.010273924 -0.06689244 0.09567988 0.18842994 -0.054890983 -0.036154717 -0.026228668
0.18071721 0.17014919 -0.13608576 -0.031795703 -0.0083892485 0.10664021 0.09356509 -0.06796651
-0.080554076 -0.0019323021 0.05320268 0.09037062 0.041291796 -0.028766828 -0.04900717 -0.0069671106
-0.024098458 0.07718797 -0.03538369 -0.015706701 0.026544373 0.09775343 0.021491805 -0.14741226
-0.07332384 0.083206505 0.1251444 -0.13938554 -0.09294797 -0.06821563 0.098679975 0.07072801
0.0005505382 -0.0052624373 -0.03866536 -0.024392368 -0.0002880013 -0.03939216 -0.009191007 0.0035768333
-0.014568323 0.012624937 0.013717434 -0.05877515 -0.07418413 0.030768998 0.0918835 -0.048398063
0.02537647 -0.014981209 0.036981188 0.048424937 0.008944687 -0.024667377 0.027814483 0.069637306
-0.019244839 -0.0020349799 0.038903784 0.041312024 -0.0033793466 0.052402947 -0.04831059 -0.008973414
0.036232494 0.051520184 -0.041431684 0.06547908 -0.016490554 -0.045317907 -0.047900137 0.012507209
0.054715417 -0.04022765 0.050364166 -0.03254523 -0.013634223 0.026216215 -0.02647256 -0.05580134
0.0028415902 -0.027338708 -0.01711979 -0.04402443 -0.03844686 -0.02671882 -0.010469244 -0.005714712
0.017564863 -0.04123318 0.0005786808 0.010472216 0.02034414 0.04646391 -0.042126935 0.027899845
00000000: 856f 853d 5124 fc3c 5fad 53bd 52ad b03c
00000010: f04b 3dbd 0106 f3bc 77ad 9b3c d6b2 803d
00000020: f02f 83bc bd69 c3bd 970a ccbc eda6 563d
00000030: a70c 1f3e b312 47bd d5b2 9fbd 9575 d1bd
00000040: 85ef e53d f071 623d 0407 9dbc 99a7 ad3c
00000050: 4c06 8fbb 8cc0 6b3c 41b2 6e3d abb5 fc3b
00000060: a09b 373d fb35 3e3d 2e14 2f3c a5f9 1dbd
00000070: 9acc 5f3d c6d8 54ba 2a44 6abd 33db 353b
00000080: f151 523d 4ef5 3fbd 22a2 f3bc b65f 30bd
00000090: 74d3 5abd b773 063d 3fec 643d 0481 823d
000000a0: ae02 83bd e76f 243d 36c9 60bb 6855 99bc
000000b0: 7169 d73c 0ed2 56bd 76fb 423d 949b 71bb
000000c0: 6907 f23c a35d 13bd 2131 393d c5bc 833d
000000d0: ae4f 333d 9e2b 8abd c6a1 8abd 580a 2c3d
000000e0: a094 cf3d 98d2 70bd b38e 39be a8d9 89bd
000000f0: 1b70 9e3c 58d6 853d 64e5 72bd 487f 40be
00000100: e2d4 9dbd 8b64 413d deb2 e63d 63e7 d1bc
00000110: 5e3c a5bd 9d6a aabc 836e 12bc ead1 c93d
00000120: bbbc ba3d 373a 983c c475 723d c155 24bd
00000130: e035 8a3d 28cb 933d 99d7 873c 1bd1 bebc
00000140: 6a07 bebb ecf7 b43d c2f1 e43d 6df0 cebd
00000150: edc1 34bd f8d5 0c3d 65e3 213e 25ab 2dbd
00000160: 9c0d bfbd 8291 a4bd 89a7 883d 90e7 06bb
00000170: 7b91 843d a574 923c d4d6 4b3d 759c 54bd
00000180: 5f82 153d 8aad ba3d 2265 903d 204a 723d
00000190: dd50 703d 3633 d93c b78c 34bd 56d2 f43c
000001a0: 1d81 503d a94d 143c 2f24 23bd 5c0e c4bc
000001b0: 005d 243c f84a 2abc 563b 8e3c daa7 43bd
000001c0: 0d89 43bc 4263 5e3b 1334 80bc 1e36 4f3d
000001d0: eb07 1abc 2138 283d 7d68 113d a338 b23b
000001e0: 23ba a83c fdc6 9eba a4ca 2d3d ac2b b0bc
000001f0: 96ad 1d3d 47ed 74bd 053a 383a bb2e e73d
00000200: 0e98 44bd 929a b6bd 2376 19bd 1ed8 e03d
00000210: 9f9e 053e 47bd 17be 42ac 74bd 875a 563d
00000220: 9ba7 2c3e 8dfa 8d3d 2f1e 65be 92fb edbd
00000230: 546c 713c eed3 0f3e 7aa9 a33c 5a93 c6bd
00000240: 0628 873b 0f41 94bd acd7 ec3d 0ec0 903d
00000250: b84f cd3b 8426 9d3c ca11 683d c06f c93d
00000260: 5d37 1d3c f653 283c e7fe 88bd d0f3 c33d
00000270: c7f3 403e 5ed5 60bd f816 14bd 81dd d6bc
00000280: ef0d 393e 973b 2e3e 115a 0bbe 363c 02bd
00000290: 0f73 09bc 2f66 da3d 0e9f bf3d 0732 8bbd
000002a0: 89f9 a4bd 4d45 fdba 0eeb 593d 3b14 b93d
000002b0: 9621 293d 69a8 ebbc bebb 48bd 5c4c e4bb
000002c0: 216a c5bc ba14 9e3d 7dee 10bd 57ab 80bc
000002d0: 9673 d93c f332 c83d 950f b03c 3df3 16be
000002e0: cf2a 96bd 2c68 aa3d db25 003e 15bb 0ebe
000002f0: 815b bebd a3b4 8bbd ba18 ca3d d9d9 903d
00000300: fe51 103a 8670 acbb 925f 1ebd 81d2 c7bc
00000310: e1fe 96b9 ac59 21bd e195 16bc 4e69 6a3b
00000320: faaf 6ebc d3d8 4e3c 17bf 603c 36be 70bd
00000330: d9ed 97bd 440f fc3c 6b2d bc3d 0c3d 46bd
00000340: 51e2 cf3c bf73 75bc 9679 173d 3a59 463d
00000350: bd8c 123c 3d13 cabc 33db e33c 019e 8e3d
00000360: 5aa7 9dbc 4c5d 05bb 9359 1f3d cc36 293d
00000370: 0778 5dbb 79a4 563d 53e1 45bd 3a05 13bc
00000380: 8668 143d d406 533d 45b4 29bd e519 863d
00000390: 3317 87bc 459f 39bd ef32 44bd 09eb 4c3c
000003a0: 461d 603d c0c5 24bd a84a 4e3d 264e 05bd
000003b0: 1362 5fbc 63c3 d63c fbdc d8bc f28f 64bd
000003c0: f939 3a3b 6df5 dfbc cd3e 8cbc f652 34bd
000003d0: 747a 1dbd 6de1 dabc 3187 2bbc 7b42 bbbb
000003e0: 30e4 8f3c 1fe4 28bd 9cb2 173a a893 2b3c
000003f0: c1a8 a63c f150 3e3d 4b8d 2cbd 378e e43c

conv2.bias f4 [20]
0.024897104 0.002710944 -0.06686147 -0.06318647 0.04634208 0.042640977 0.07946708 -0.04693289
0.038781982 -0.009436497 -0.0058005373 0.010341782 -0.003436253 -0.060789406 -0.051103715 0.016071253
0.0055533266 0.076510444 0.08701775 0.011496114
00000000: 03f5 cb3c 18aa 313b abee 88bd e867 81bd
00000010: 31d1 3d3d 4ea8 2e3d a3bf a23d b43c 40bd
00000020: dbd9 1e3d 8a9b 1abc 6f12 bebb 9470 293c
00000030: c232 61bb 50fe 78bd 2152 51bd dca7 833c
00000040: aef8 b53b 82b1 9c3d 5d36 b23d 325a 3c3c

fc1.weight f4 [50, 320]
-0.031133374 -0.017833753 0.07915701 0.09569394 -0.06845867 -0.06875958 0.022088744 0.020513024
-0.05423917 -0.06754924 0.032185484 -0.038657483 0.044306763 -0.077581555 -0.041629057 0.026015792
-0.0045753364 -0.0022228456 0.0974957 0.057193384 -0.0448008 0.013676526 -0.05194064 -0.03531857
-0.041921083 0.010785035 0.044904184 0.059289765 -0.034971394 -0.022255812 0.015204523 -0.01029375
0.035364628 -0.029669113 0.08088431 0.11078234 -0.011809953 -0.10742816 0.023758886 0.042731293
0.021803357 0.022056485 0.042313695 -0.06202591 0.041256554 0.008107119 -0.06653208 -0.02368184
0.031988405 -0.038280945 -0.036917817 0.02287867 -0.043919362 -0.052578215 0.05140944 -0.037208755
0.049748007 -0.005267706 0.047730133 0.004232203 -0.010237808 0.031181693 0.036035903 -0.037785575
0.022605553 0.052277874 0.021796646 0.02858453 0.0054443516 0.007019719 0.0063477657 0.0025850446
0.026859116 0.023207393 -0.0884469 -0.07375066 -0.028419945 -0.034229945 -0.020964308 0.017659638
0.06960127 0.05669381 0.047255736 -0.014355373 0.03810405 -0.024057854 -0.01874128 0.027296523
-0.037804116 0.012587036 0.013157569 -0.02410965 0.014318258 0.022943763 0.028432105 -0.01865631
-0.02782729 -0.027730806 -0.035900183 -0.031815656 0.007446513 0.02111593 0.0079276785 0.09040595
-0.0018650183 0.021604724 0.05788054 -0.08354418 0.01309782 -0.05995584 -0.007039048 -0.036484424
-0.049444217 -0.077477016 0.033334803 -0.03859423 -0.059163447 0.05907686 0.062062364 0.020838635
-0.05794458 -0.0399242 -0.027649192 -0.047951672 -0.0006677164 0.00741855 0.08312095 0.072915256
0.006420462 -0.012420132 -0.035045527 -0.064571 0.025730118 -0.042202704 0.04292285 0.027643915
0.034118276 0.11025636 0.008106923 -0.046651136 -0.03730832 0.06411969 -0.011465989 0.04072368
-0.0041128653 0.02200749 -0.021962948 -0.007930052 0.019832171 0.052411478 -0.04235701 0.039357305
-0.023909556 -0.023840422 -0.018182164 -0.041558992 -0.05144774 -0.05443652 -0.010970692 -0.016631804
0.056964204 0.055608496 -0.02279594 -0.048596364 0.023544924 0.056374636 0.047108993 0.0025005722
-0.00019177134 0.021473693 0.060544096 0.015327103 -0.05363389 -0.017790914 -0.01669956 -0.038946904
-0.0114093525 0.03153283 0.036972046 -0.04577991 0.026177786 0.050864726 0.046191856 0.042854644
-0.0044240616 -0.010410451 0.0069251102 -0.041703757 -0.05508577 0.01050708 -0.034555674 0.02915899
-0.020501817 0.061114866 0.04442047 0.090521805 0.00415564 0.06856115 0.06199901 0.04108247
-0.08414693 -0.021724293 -0.011838839 0.020304186 -0.045627676 -0.008282665 0.05475121 0.0055846237
0.034894295 0.054748867 -0.014548368 -0.060865045 0.001148576 0.000839921 0.022147495 0.036936734
0.032530013 -0.023253383 0.047561917 0.026908366 -0.064070314 -0.04966874 -0.03931137 0.0031384823
0.03821807 0.018168299 0.03626494 0.008327767 -0.036457956 -0.021509603 -0.042639315 -0.031684197
-0.020698817 0.0047192527 -0.034789193 -0.034189783 0.024649017 0.019668536 0.014131183 0.06205631
0.04120851 0.0037239527 0.023520838 -0.049098983 0.016955445 0.053329702 -0.0050135627 -0.024324654
-0.040122814 0.04242536 0.04939936 -0.0041821506 0.014472021 0.03616441 -0.05146458 0.005830004
00000000: 6b0b ffbc 1718 92bc 121d a23d 2ffb c33d
00000010: 0f34 8cbd d3d1 8cbd 74f3 b43c ee0a a83c
00000020: e429 5ebd 4257 8abd edd4 033d 4f57 1ebd
00000030: 027b 353d 14e3 9ebd 3b83 2abd 121f d53c
00000040: b4ec 95bb 29ad 11bb d3ab c73d 9c43 6a3d
00000050: 0b81 37bd 8213 603c b5bf 54bd 34aa 10bd
00000060: 71b5 2bbd b7b3 303c 73ed 373d d3d9 723d
00000070: 2a3e 0fbd d251 b6bc 641c 793c 1ea7 28bc
00000080: 80da 103d a40c f3bc aca6 a53d dae1 e23d
00000090: 887e 41bc 4c03 dcbd ffa1 c23c 0207 2f3d
000000a0: f49c b23c cdaf b43c 2051 2d3d e10e 7ebd
000000b0: a2fc 283d b9d3 043c f941 88bd 6b00 c2bc
000000c0: 4606 033d 7bcc 1cbd 2337 17bd 0c6c bb3c
000000d0: cae4 33bd 415c 57bd b492 523d 3568 18bd
000000e0: 91c4 4b3d b89c acbb ac80 433d 4bae 8a3b
000000f0: 7bbc 27bc c070 ff3c 629a 133d 0cc5 1abd
00000100: 482f b93c 5321 563d e18e b23c 1b2a ea3c
00000110: 8866 b23b ac05 e63b eb00 d03b da69 293b
00000120: a607 dc3c 6e1d be3c a623 b5bd 960a 97bd
00000130: f2d0 e8bc b334 0cbd 57bd abbc f2aa 903c
00000140: 1c8b 8e3d c537 683d 3b8f 413d cc32 6bbc
00000150: fe12 1c3d fa14 c5bc 5087 99bc f59c df3c
00000160: 7dd8 1abd db39 4e3c d892 573c 9a81 c5bc
00000170: 2097 6a3c 8ff4 bb3c 72ea e83c 1ed5 98bc
00000180: 0ff6 e3bc b72b e3bc 120c 13bd 2251 02bd
00000190: e101 f43b 51fb ac3c 18e3 013c c126 b93d
000001a0: a173 f4ba 64fc b03c 2514 6d3d 3619 abbd
000001b0: 3d98 563c 4194 75bd d0a7 e6bb b170 15bd
000001c0: 0586 4abd 45ac 9ebd 138a 083d fc14 1ebd
000001d0: 5f55 72bd 94fa 713d 1b35 7e3d c9b5 aa3c
000001e0: 4c57 6dbd 8f87 23bd 8f80 e2bc f968 44bd
000001f0: b009 2fba 4f17 f33b 513b aa3d 9854 953d
00000200: bd62 d23b cf7d 4bbc e68b 0fbd cd3d 84bd
00000210: f8c7 d23c bedc 2cbd dfcf 2f3d 7e75 e23c
00000220: 9bbf 0b3d 16ce e13d e6d2 043c 4315 3fbd
00000230: 9cd0 18bd 2f51 833d d8db 3bbc e0cd 263d
00000240: 37c5 86bb 0d49 b43c a4eb b3bc 0ced 01bc
00000250: 1477 a23c 6bad 563d 8b7e 2dbd 2035 213d
00000260: f9dd c3bc fd4c c3bc c3f2 94bc c339 2abd
00000270: deba 52bd d4f8 5ebd 6bbe 33bc 6c3f 88bc
00000280: 4c53 693d bcc5 633d 8dbe babc fb0c 47bd
00000290: 49e1 c03c 17e9 663d 5cf5 403d a4e0 233b
000002a0: 3a16 49b9 99e9 af3c 16fd 773d 881e 7b3c
000002b0: 36af 5bbd 40be 91bc 84cd 88bc ca86 1fbd
000002c0: 4bee 3abc 9228 013d 0070 173d b783 3bbd
000002d0: cc72 d63c 8857 503d ac33 3d3d 5a88 2f3d
000002e0: b8f7 90bb 9990 2abc 09ec e23b 8fd1 2abd
000002f0: 9ea1 61bd e325 2c3c 408a 0dbd d6de ee3c
00000300: 6df3 a7bc 9553 7a3d 3df2 353d 7f63 b93d
00000310: 092c 883b ca69 8c3d adf2 7d3d 1846 283d
00000320: 3a55 acbd 25f7 b1bc b1f7 41bc f754 a63c
00000330: 16e4 3abd 04b4 07bc ce42 603d 38ff b63b
00000340: 52ed 0e3d 5940 603d 475c 6ebc a04d 79bd
00000350: d18b 963a 252e 5c3a aa6e b53c f94a 173d
00000360: 313e 053d e17d bebc 49d0 423d ef6e dc3c
00000370: 4c37 83bd 7371 4bbd f604 21bd ffae 4d3b
00000380: 8d8a 1c3d afd5 943c 8c8a 143d 3071 083c
00000390: f054 15bd e834 b0bc 90a6 2ebd 4ac7 01bd
000003a0: 9190 a9bc f6a3 9a3b 1d7f 0ebd 960a 0cbd
000003b0: bcec c93c e91f a13c 7a86 673c c22e 7e3d
000003c0: 41ca 283d 8f0d 743b c6ae c03c 041c 49bd
000003d0: 25e6 8a3c 3f70 5a3d d048 a4bb 7f44 c7bc
000003e0: d257 24bd 37c6 2d3d fc56 4a3d 6c0a 89bb
000003f0: 0e1c 6d3c 2221 143d 86cc 52bd 9e09 bf3b

fc1.bias f4 [50]
0.02439654 -0.040923037 -0.03628614 0.037718736 0.031351082 0.060340125 -0.009767967 -0.015614612
-0.0062051113 -0.03971175 0.03331062 0.024209812 0.02450285 -0.057245605 -0.004367557 0.052295905
0.06693638 -0.018673016 0.03283034 0.026229896 -0.035246946 0.0022937546 -0.010191126 -0.014523669
0.017627088 0.025007816 0.06297431 0.01755414 -0.017441973 0.038807888 -0.031864952 0.00062551204
-0.019412898 -0.016762972 -0.0027420255 -0.030646225 -0.018081505 0.0456911 -0.05541297 0.032290854
0.06720498 -0.00031207124 0.015083358 -0.003971252 0.033904877 -0.021878032 0.015757613 0.031327013
0.06836214 -0.0034549243
00000000: 41db c73c ea9e 27bd c7a0 14bd f67e 1a3d
00000010: fe69 003d 3527 773d d309 20bc 6ed4 7fbc
00000020: 3f54 cbbb caa8 22bd b770 083d a853 c63c
00000030: 33ba c83c 5e7a 6abd b91d 8fbb 3b34 563d
00000040: f115 893d 27f8 98bc 1b79 063d 14e0 d63c
00000050: 1a5f 10bd d152 163b aef8 26bc aff4 6dbc
00000060: af66 903c 31dd cc3c adf8 803d b3cd 8f3c
00000070: 78e2 8ebc 05f5 1e3d d384 02bd 67f9 233a
00000080: cc07 9fbc 8052 89bc 8eb3 33bb cb0d fbbc
00000090: aa1f 94bc 9726 3b3d b6f8 62bd 6a43 043d
000000a0: c4a2 893d 7e9d a3b9 3020 773c 4721 82bb
000000b0: d7df 0a3d 8f39 b3bc 1c16 813c c150 003d
000000c0: 7301 8c3d 036c 62bb

fc2.weight f4 [10, 50]
-0.19759658 -0.1764248 -0.1361495 -0.22405529 0.14129658 0.11512672 -0.058553807 0.07740896
0.16743311 0.14174119 -0.098134615 -0.21388808 0.19616579 0.07919833 0.12433177 0.08018759
-0.122284405 0.044331115 -0.24661273 -0.15343449 0.013304255 -0.055342823 0.23107417 -0.043401215
-0.109190956 0.014059534 0.0013045188 -0.2559342 0.11350764 0.1617455 0.2156507 -0.11116441
0.2659485 0.025724849 0.02872661 -0.11125124 0.029654887 -0.014432694 -0.022388872 -0.03032552
0.07212711 0.15526094 0.08490188 0.14526628 -0.123862006 -0.11898116 0.08471227 -0.17390853
-0.08403858 -0.07123809 0.24125226 -0.05341405 0.05824321 0.115921885 -0.09970915 -0.3566568
0.14100535 0.047155637 0.03296092 0.06213162 0.2836918 0.166675 -0.2627719 -0.12615603
-0.03321585 -0.01768885 -0.041238517 -0.17370418 -0.0735729 -0.084235035 0.23264672 0.12958992
0.048492882 -0.18626428 0.18995956 -0.24041773 -0.07653126 0.22478217 -0.08222096 -0.091611296
-0.027221207 -0.07850714 0.11984105 -0.0027523453 -0.117546655 0.12956034 0.09183319 -0.043388624
-0.012596385 -0.009899437 -0.17879076 -0.15472269 -0.102365874 -0.16612889 0.24591745 0.14703609
-0.10957434 -0.20412192 0.20656988 0.11643482 -0.064814195 -0.017186629 -0.009901292 0.17847724
0.06502415 -0.012277353 0.1076969 0.04544139 0.13270986 -0.0059460215 -0.09364178 0.18250701
-0.10919479 -0.06530638 -0.17328621 0.20107736 -0.17351823 0.19192222 -0.15418611 -0.07591091
0.04757793 0.082813084 0.12204673 -0.17962092 0.13387652 -0.26914346 0.12413513 -0.14894874
-0.14744908 -0.00863851 -0.12436264 -0.10507028 -0.06496012 0.2555196 0.11657774 0.18989925
0.101192415 0.21929845 -0.093118414 0.039695952 -0.11045238 0.14348873 0.2139033 0.010580752
0.12171722 -0.19029562 -0.004247958 0.2628793 -0.2787962 -0.023993133 0.17077006 -0.08921774
0.036426473 0.109835826 0.1704432 -0.03270742 -0.2713019 0.16672406 -0.10117035 0.09314202
-0.27050704 -0.011772334 0.1813181 -0.022425994 -0.050456833 0.23174028 0.27450725 -0.08761531
0.16391167 0.07353522 -0.01149943 0.10165497 -0.12001061 -0.043572605 -0.20363967 0.044186465
-0.059808597 0.16011862 -0.08694481 -0.113578826 -0.09578056 0.049119502 0.075065926 0.1372784
0.11968415 0.05124199 -0.065136306 0.08077759 -0.02547301 -0.12952814 -0.29671222 -0.11785581
0.036047213 -0.117441654 0.21027362 -0.017819175 -0.02578799 0.028545251 -0.07715393 -0.0041858614
-0.056092445 -0.06424509 -0.07937514 -0.25556365 -0.29183847 -0.08385182 0.0057100453 0.14835493
-0.15653808 -0.1280739 0.22048165 -0.21512906 0.11527097 0.09359018 0.03880202 -0.2361933
-0.13416606 0.109843075 0.20630245 0.1961137 -0.062969275 -0.018218247 0.18358098 0.21281148
0.1817897 -0.10789764 -0.120274656 -0.055073097 0.0012800188 -0.17048651 0.033925302 0.12436704
-0.12724027 0.17391743 -0.1299269 -0.18582256 0.05458724 0.21786325 -0.13181108 0.09874148
0.038706012 -0.23382987 -0.08774021 0.17524879 -0.01975785 0.24490301 0.1657911 0.27534467
-0.124289274 -0.02541276 -0.15275238 0.16005257 -0.028841207 0.23400986 0.039750375 0.027830007
00000000: c256 4abe b4a8 34be c66a 0bbe c06e 65be
00000010: 0db0 103e 8fc7 eb3d 1ed6 6fbd 9788 9e3d
00000020: 9673 2b3e 9a24 113e cdfa c8bd 7a05 5bbe
00000030: afdf 483e bc32 a23d a8a1 fe3d 6439 a43d
00000040: 3f70 fabd 8b94 353d 0c88 7cbe ee1d 1dbe
00000050: 17fa 593c 28af 62bd b59e 6c3e 79c5 31bd
00000060: 829f dfbd f659 663c 63fc aa3a cf09 83be
00000070: b276 e83d 9da0 253e 89d3 5c3e 2baa e3bd
00000080: 672a 883e ebbc d23c 1154 eb3c b1d7 e3bd
00000090: ceee f23c 1b77 6cbc de68 b7bc 3a6d f8bc
000000a0: 61b7 933d b9fc 1e3e 09e1 ad3d afc0 143e
000000b0: 5dab fdbd 65ac f3bd a07d ad3d 1415 32be
000000c0: 6b1c acbd 47e5 91bd d50a 773e b1c8 5abd
000000d0: 6f90 6e3d 7468 ed3d 5034 ccbd b89b b6be
000000e0: b563 103e 4526 413d 0802 073d ba7d 7e3d
000000f0: 0d40 913e daac 2a3e 0a8a 86be 0c2f 01be
00000100: 580d 08bd 35e8 90bc b8e9 28bd 82df 31be
00000110: 63ad 96bd 6b83 acbd f13a 6e3e 38b3 043e
00000120: 79a0 463d 10bc 3ebe c284 423e 1130 76be
00000130: 6cbc 9cbd 4c2d 663e 7663 a8bd b49e bbbd
00000140: 02ff debc 5ac8 a0bd 396f f53d b160 34bb
00000150: 4dbc f0bd 77ab 043e 0a13 bc3d 45b8 31bd
00000160: 1161 4ebc 4031 22bc ed14 37be a06f 1ebe
00000170: 33a5 d1bd b11d 2abe c9d1 7b3e a190 163e
00000180: 8368 e0bd 5605 51be 0e87 533e 6175 ee3d
00000190: 4ebd 84bd f9ca 8cbc 0739 22bc bdc2 363e
000001a0: 622b 853d f326 49bc 3190 dc3d c020 3a3d
000001b0: 18e5 073e d8d6 c2bb 43c7 bfbd 1ee3 3a3e
000001c0: 85a1 dfbd 5abf 85bd f171 31be 39e7 4d3e
000001d0: c3ae 31be 4287 443e f7e2 1dbe 2e77 9bbd
000001e0: 13e1 423d e899 a93d a3f3 f93d 8cee 37be
000001f0: ed16 093e 2ccd 89be 8f3a fe3d 0586 18be
00000200: e4fc 16be 8988 0dbc d7b1 febd 162f d7bd
00000210: d009 85bd 77d3 823e 4fc0 ee3d f374 423e
00000220: f83d cf3d c68f 603e deb4 bebd 3998 223d
00000230: db34 e2bd b6ee 123e 7709 5b3e e45a 2d3c
00000240: e146 f93d dbdc 42be 7432 8bbb 1e98 863e
00000250: 60be 8ebe 3f8d c4bc 59de 2e3e cab7 b6bd
00000260: ed33 153d 9bf1 e03d aa88 2e3e 37f8 05bd
00000270: 15e8 8abe b6b9 2a3e 6732 cfbd 3ec1 be3d
00000280: e67f 8abe bfe0 40bc 74ab 393e b8b6 b7bc
00000290: d3ab 4ebd 534d 6d3e 378c 8c3e a86f b3bd
000002a0: 76d8 273e a299 963d 1b68 3cbc 7b30 d03d
000002b0: 1fc8 f5bd 3079 32bd eb86 50be defc 343d
000002c0: dcf9 74bd 23f6 233e 1f10 b2bd 049c e8bd
000002d0: 9928 c4bd 8831 493d 2abc 993d b592 0c3e
000002e0: f71c f53d 1fe3 513d 2f66 85bd b96e a53d
000002f0: c6ac d0bc 06a3 04be aaea 97be 635e f1bd
00000300: 3ea6 133d 4085 f0bd f851 573e 85f9 91bc
00000310: 5641 d3bc bbd7 e93c e102 9ebd 8d29 89bb
00000320: 31c1 65bd ee92 83bd 6f8f a2bd 3dd9 82be
00000330: da6b 95be 81ba abbd 551b bb3b 5bea 173e
00000340: 854b 20be ce25 03be f1c5 613e cb4a 5cbe
00000350: 3013 ec3d 35ac bf3d deee 1e3d a8dc 71be
00000360: d462 09be 68f5 e03d f340 533e 08d2 483e
00000370: 09f6 80bd 6f3e 95bc a7fc 3b3e 41eb 593e
00000380: 1427 3a3e 70f9 dcbd 8f52 f6bd 5494 61bd
00000390: 4ec6 a73a 0494 2ebe 42f5 0a3d 26b4 fe3d
000003a0: 464b 02be 6917 323e 8f0b 05be 4548 3ebe
000003b0: df96 5f3d 8b17 5f3e 7cf9 06be f938 ca3d
000003c0: 328a 1e3d 1971 6fbe 24b1 b3bd 6b74 333e
000003d0: 37db a1bc dbc7 7a3e 24c5 293e faf9 8c3e
000003e0: 608b febd 6c2e d0bc 1f6b 1cbe d2e4 233e
000003f0: 6544 ecbc 48a0 6f3e 4ad1 223d c1fb e33c

fc2.bias f4 [10]
-0.09033083 -0.016798826 -0.06226883 0.06963847 -0.056171473 0.031312816 0.041140363 0.07073418
-0.044814624 -0.08064106
00000000: 5fff b8bd b19d 89bc 9a0d 7fbd 9d9e 8e3d
00000010: 0f14 66bd de41 003d cc82 283d 15dd 903d
00000020: 8a8f 37bd 2427 a5bd

momentum_buffer f4 [10, 1, 5, 5]
-0.008766605 -0.013648718 -0.0052385526 0.008197838 0.0012226952 -0.015872864 -0.021510141 -0.007813587
0.009404383 0.0060056793 -0.009034199 -0.018482227 -0.007954661 0.012910294 0.014308862 -0.0076743565
-0.011888447 -0.0071732 0.007712849 0.0130858505 -0.010275464 -0.01695709 -0.018683862 -0.0021189963
0.0023677174 0.0030200817 0.0056443457 0.003977582 0.00076080236 0.0006825122 0.0043721814 0.008881681
0.009878625 0.006563889 0.0042306646 0.0038409827 0.0058969734 0.008733956 0.009488253 0.008664442
0.0015705546 0.0035853349 0.0042090965 0.0057888515 0.0058821957 -0.0004210903 0.0006788967 0.00015888747
0.0010171542 0.0026321828 0.013907354 -0.008752255 -0.018965222 -0.026552344 -0.021809252 0.00988321
-0.013812493 -0.02874229 -0.027379157 -0.012721257 -0.007071606 -0.030626914 -0.03437595 -0.02367909
-0.0070690834 0.00013653334 -0.011975845 -0.015405571 -0.0044943686 -0.0068329955 0.012025561 0.0052050864
-0.00020209397 -0.0011499817 -0.0047093397 -0.008503559 -0.0132915275 -0.019510306 -0.023378553 -0.020345492
-0.014003325 -0.01891255 -0.025655929 -0.021465175 -0.011992789 -0.014377201 -0.029241927 -0.027945466
-0.02322834 -0.015460463 -0.012448659 -0.029002491 -0.032563407 -0.021239227 -0.016497921 -0.010757936
-0.021458097 -0.017903712 -0.009801927 -0.009541642 0.00017512887 0.0002118283 -5.0293907e-05 -0.00022312664
-0.00042568345 -0.0012492848 -1.3352634e-05 -0.00072074385 -0.00018954612 -8.9836925e-05 -0.0012760435 -0.0007472291
0.00010185862 5.799319e-05 -9.237233e-05 -0.0009217244 -0.0013337203 -0.00075152953 -0.00037045928 0.00030788037
-0.0009546243 -0.0019214071 -0.001476169 -0.0012077931 -0.00019574323 0.011045735 -0.017483346 -0.024630362
-0.0077680517 0.000259283 0.013167502 -0.01654128 -0.0325555 -0.010218974 0.009438102 -0.0026188525
-0.031685397 -0.04591958 -0.019407425 -0.0012841318 -0.008349127 -0.031545468 -0.035515755 -0.013910865
-0.00411605 -0.0104788225 -0.030933943 -0.025069134 -0.0115130935 -0.0027989196 0.014062241 0.0029285552
-0.021831583 -0.045711525 -0.028948653 0.009217603 -0.0019929225 -0.024034841 -0.0480871 -0.03193183
0.0037229639 -0.01283856 -0.030506205 -0.047453657 -0.031038348 0.00912247 -0.0065693962 -0.024200168
-0.03581186 -0.023181291 0.013867399 -0.0059814164 -0.025397215 -0.029305134 -0.020987168 0.0028602704
-0.010359549 -0.02070582 -0.027778829 -0.02240459 -0.0016708607 -0.020240651 -0.032817893 -0.03515767
-0.018292405 -0.0060249837 -0.023440814 -0.03017205 -0.025059445 -0.009407813 0.0036387965 -0.009862537
-0.014705785 -0.0072132885 -0.0011115093 0.011861289 -0.0023289484 -0.012110395 -0.0066019045 -0.004479673
0.0011553785 -0.0019031924 -0.0038413152 -0.009774061 -0.0051117158 0.0059862966 0.0028681296 -0.0028489712
-0.008245405 -0.0070675574 0.008170716 0.0031707285 -0.0010218278 -0.008068328 -0.008911362 0.005207158
0.002134135 -0.0056928135 -0.011266804 -0.0074496414 -0.0028568467 -0.0028326937 -0.0040838374 -0.009870515
-0.008953186 -0.0031258455 -0.0011936509 0.00022485173 -0.00032753235 -0.0002406415 -0.0016480172 -0.00036305582
-5.4032305e-05 -0.00012440672 -0.0004336037 0.00047008827 0.00026520368 -0.00015535735 -7.3986766e-06 -7.9493e-05
-0.0016818333 -0.00018445936 -0.00018600389 -0.00024899744 -0.00034735235 -0.0021872832 -0.00016323855 0.000112609494
-4.607111e-05 -0.00017526571
00000000: cea1 0fbc df9e 5fbc 2aa8 abbb 3a50 063c
00000010: d842 a03a cf07 82bc 0936 b0bc 8f04 00bc
00000020: d714 1a3c 4acb c43b 2d04 14bc 0a68 97bc
00000030: 4454 02bc b385 533c b86f 6a3c 2b79 fbbb
00000040: c3c7 42bc 2a0d ebbb 11bc fc3b 0966 563c
00000050: 6b5a 28bc 98e9 8abc e60e 99bc dcde 0abb
00000060: b52b 1b3b 90ec 453b 34f4 b83b 6056 823b
00000070: 9570 473a 9eea 323a 8444 8f3b 7884 113c
00000080: f5d9 213c e415 d73b 63a1 8a3b ffb8 7b3b
00000090: 663b c13b de18 0f3c 9e74 1b3c 4ef5 0d3c
000000a0: 11db cd3a f0f7 6a3b 76ec 893b 68b0 bd3b
000000b0: 6fbf c03b c9c5 dcb9 fcf7 313a 089b 2639
000000c0: 0852 853a b380 2c3b acdb 633c 9e65 0fbc
000000d0: f45c 9bbc 4d84 d9bc 51a9 b2bc 30ed 213c
000000e0: cb4d 62bc f374 ebbc 414a e0bc d26c 50bc
000000f0: eeb8 e7bb 4be5 fabc cccd 0cbd a7fa c1bc
00000100: c5a3 e7bb 642a 0f39 5636 44bc a667 7cbc
00000110: 7f45 93bb 52e7 dfbb dc06 453c 6e8f aa3b
00000120: 30e9 53b9 fcba 96ba ce50 9abb 8352 0bbc
00000130: b5c4 59bc 14d4 9fbc 6184 bfbc 97ab a6bc
00000140: 346e 65bc 7eee 9abc 622c d2bc bcd7 afbc
00000150: 677d 44bc 5a8e 6bbc c48c efbc e4ed e4bc
00000160: 5c49 bebc e24d 7dbc 76f5 4bbc a296 edbc
00000170: 3561 05bd e3fd adbc a626 87bc 0e42 30bc
00000180: e4c8 afbc ceaa 92bc 4398 20bc 8c54 1cbc
00000190: cca2 3739 3a1e 5e39 acf2 52b8 1af7 69b9
000001a0: 442e dfb9 0bbf a3ba 2005 60b7 4df0 3cba
000001b0: e6c0 46b9 d566 bcb8 ea40 a7ba b2e1 43ba
000001c0: ee9c d538 b73d 7338 04b8 c1b8 e19f 71ba
000001d0: 3ad0 aeba 4b02 45ba 343a c2b9 016b a139
000001e0: c13f 7aba b9d7 fbba 037c c1ba d04e 9eba
000001f0: 6c40 4db9 2cf9 343c 3c39 8fbc 9dc5 c9bc
00000200: 248b febb 60f0 8739 82bc 573c 9481 87bc
00000210: ea58 05bd 7c6d 27bc 45a2 1a3c 0ea1 2bbb
00000220: 8cc8 01bd 2b16 3cbd 52fc 9ebc 5050 a8ba
00000230: c7ca 08bc d235 01bd f878 11bd 66ea 63bc
00000240: eedf 86bb 5eaf 2bbc 2e69 fdbc c95d cdbc
00000250: 6aa1 3cbc 146e 37bb 5065 663c 01ed 3f3b
00000260: 26d8 b2bc 023c 3bbd ba25 edbc 6e05 173c
00000270: b19b 02bb b7e4 c4bc fbf6 44bd f3ca 02bd
00000280: f8fc 733b d358 52bc 26e8 f9bc c45e 42bd
00000290: 2244 febc 6a76 153c 1744 d7bb 6e3f c6bc
000002a0: 75af 12bd b1e6 bdbc 1634 633c c2ff c3bb
000002b0: d20d d0bc 5211 f0bc 48ed abbc 6073 3b3b
000002c0: 19bb 29bc 409f a9bc 6d90 e3bc d589 b7bc
000002d0: c800 dbba b9cf a5bc 0e6c 06bd 7d01 10bd
000002e0: f4d9 95bc 3a6d c5bb f306 c0bc 602b f7bc
000002f0: 7749 cdbc 3a23 1abc e078 6e3b 7a96 21bc
00000300: 88f0 70bc 735d ecbb 10b0 91ba da55 423c
00000310: 45a1 18bb ae6a 46bc ca54 d8bb 39ca 92bb
00000320: 1270 973a 8a74 f9ba 93be 7bbb 6223 20bc
00000330: 2e80 a7bb b228 c43b 3bf7 3b3b ceb5 3abb
00000340: bc17 07bc f896 e7bb 78de 053c ffcb 4f3b
00000350: daee 85ba 0531 04bc f600 12bc cfa0 aa3b
00000360: d8dc 0b3b c88a babb 6798 38bc 1f1c f4bb
00000370: ef39 3bbb b7a4 39bb b6d1 85bb f1b7 21bc
00000380: 62b0 12bc fcda 4cbb 4774 9cba 2dc6 6b39
00000390: a6b8 abb9 b654 7cb9 4802 d8ba 8758 beb9
000003a0: bfa0 62b8 2d73 02b9 4e55 e3b9 2e76 f639
000003b0: 090b 8b39 6ce7 22b9 2642 f8b6 7bb5 a6b8
000003c0: f670 dcba 6f6b 41b9 0a0a 43b9 df8b 82b9
000003d0: d81c b6b9 8658 0fbb 042b 2bb9 c328 ec38
000003e0: 7a3c 41b8 88c7 37b9

momentum_buffer f4 [10]
0.011972811 0.010777905 -0.0065858588 -0.028587421 -0.0010381417 -0.005404303 -0.0387841 -0.024570465
0.007120081 -0.0076574157
00000000: 9c29 443c cf95 303c 30ce d7bb 2b30 eabc
00000010: 4112 88ba 9416 b1bb 14dc 1ebd 0048 c9bc
00000020: 924f e93b 0feb fabb

momentum_buffer f4 [20, 10, 5, 5]
-0.016838701 -0.024116792 -0.0138101075 -0.0089253355 -0.0058707404 -0.0055170595 -0.014979947 -0.013253822
0.0066404715 0.0065063653 -0.012299501 -0.034290597 -0.027916443 -0.0015722092 0.0040393304 -0.00899011
-0.030598167 -0.045333307 -0.02356762 -0.008924904 0.018508092 -0.0030409875 -0.02359674 -0.011680062
-0.008850007 0.00071263756 0.00052483776 0.0016016802 0.0014681701 -0.00041715684 0.00045102258 0.00041448738
-0.00041568102 -0.00084054057 -0.00011205069 0.00040223525 -0.000307913 -0.00029269702 -0.001129063 -0.0017516431
-8.27139e-05 -0.00053003966 -0.000103697996 -1.8655555e-07 -0.00060664024 0.0009156734 0.00014695426 -0.0003788824
-0.00057937496 -7.015106e-05 -0.052976612 -0.055136926 -0.04833954 -0.036707416 -0.036520865 -0.037133045
-0.033428013 -0.016300784 0.00636916 -0.0103901485 -0.03387874 -0.03273549 -0.007423863 0.018852191
0.0032984638 -0.046408005 -0.059116445 -0.040248595 -0.014917059 -0.015644412 -0.025171943 -0.045788165
-0.0398394 -0.029267035 -0.030353826 -0.034866124 -0.033466637 -0.032150388 -0.01889189 -0.01751251
-0.017802626 -0.021412762 -0.014711801 0.0073654214 -0.0009467944 -0.019851832 -0.031483863 -0.02093346
0.005947916 0.0044904444 -0.021528572 -0.043081846 -0.039890654 -0.01847173 -0.013730519 0.0010787288
-0.018277165 -0.020233236 -0.01429298 -0.019710591 -0.0003107879 -0.0001569098 6.160997e-06 -8.424999e-05
-3.2834614e-06 -9.29463e-05 -0.0004050783 0.0006951917 9.7490454e-05 -0.00011408596 -1.7838527e-05 0.00017492278
-0.000358834 0.00040590562 -4.26761e-05 -0.0002075104 -0.00039160586 0.0003643052 6.583515e-05 -8.111952e-05
5.46394e-06 0.00018112305 0.0004763124 3.01439e-05 -0.0002101983 -0.0643091 -0.07281207 -0.07055945
-0.053061947 -0.04705065 -0.043434583 -0.052748002 -0.03911285 -0.0013888609 -0.01585354 -0.03374493
-0.053656004 -0.03045447 0.017626448 0.004350192 -0.039679434 -0.078235224 -0.056311354 -0.0045027277
-0.017764937 -0.024555176 -0.06778352 -0.063737296 -0.029189207 -0.03469994 -0.04423361 -0.044745177
-0.023641866 -0.019230068 -0.025891526 -0.036588423 -0.042001918 -0.005839949 0.004054562 -0.020094834
-0.04343932 -0.042073444 -0.0023156966 0.010826074 -0.01137577 -0.039348386 -0.05150806 -0.0059795687
0.0008496421 -0.019535424 -0.0266442 -0.04557272 -0.010432046 -0.008891576 -0.014255804 -0.039003223
-0.037468836 -0.033685923 -0.021461822 -0.023211697 -0.024286006 -0.028267223 -0.008652564 0.009366665
-0.0099335015 -0.020673808 -0.028914355 -0.005919616 0.015956555 -0.00050897064 -0.031178156 -0.046777956
-0.028015291 -0.007175259 -0.017791206 -0.015579497 -0.031662624 -0.013354826 -0.01423463 -0.028854685
-0.011796942 -0.010865996 -0.007265769 -0.0005306563 -0.005431705 -0.01181327 -0.010412377 0.00021920679
0.0025554555 -0.004126338 -0.018372463 -0.016688332 -0.0016328956 -0.0063056285 -0.005813742 -0.009230107
-0.012502763 -0.00014211156 -0.005119254 -0.0124562485 -0.005839858 -0.003804585 0.0034782111 -0.0023422693
-0.0052716625 -0.00040849118 -0.0011411696 -0.0010905867 -0.0004836176 0.00033637142 -0.001036446 -0.0020980295
-0.0027470056 -0.002050133 -4.602685e-05 -0.0004533996 -0.0010347271 -0.0017531351 -0.0018530842 4.4719047e-05
-0.0004523851 0.00031041805 -0.0015794401 -0.00042116205 0.00076039444 -0.00043102796 0.0012576495 -0.0011970202
-0.0011384876 0.0004389257 -0.011865829 -0.016614426 -0.021163061 -0.008392744 0.0060306992 -0.0074202125
00000000: 51f1 89bc 9490 c5bc ca43 62bc 923b 12bc
00000010: 575f c0bb 73c8 b4bb 746e 75bc 8f26 59bc
00000020: 5098 d93b 5933 d53b d983 49bc 4c74 0cbd
00000030: 06b1 e4bc 9612 ceba 5c5c 843b 414b 13bc
00000040: 02a9 fabc 6baf 39bd e210 c1bc c339 12bc
00000050: 489e 973c 4e4b 47bb f34d c1bc bb5d 3fbc
00000060: 9fff 10bc 4cd0 3a3a 4495 093a 78ef d13a
00000070: 9d6f c03a d8b5 dab9 3a77 ec39 8e4f d939
00000080: c3ef d9b9 b957 5cba c2fc eab8 1ae3 d239
00000090: 626f a1b9 2175 99b9 11fd 93ba 6497 e5ba
000000a0: b076 adb8 5cf2 0aba 7078 d9b8 0050 48b4
000000b0: f006 1fba cd09 703a bc17 1a39 bca4 c6b9
000000c0: 32e1 17ba 101e 93b8 01fe 58bd 42d7 61bd
000000d0: aeff 45bd 845a 16bd e796 15bd d218 18bd
000000e0: d0eb 08bd 3989 85bc 63b4 d03b 713b 2abc
000000f0: 6fc4 0abd a615 06bd e043 f3bb e96f 9a3c
00000100: 0a2b 583b 5216 3ebd 1624 72bd b6db 24bd
00000110: ae66 74bc b628 80bc 6435 cebc 5f8c 3bbd
00000120: a42e 23bd 6cc1 efbc 96a8 f8bc c8cf 0ebd
00000130: 5014 09bd 20b0 03bd 2ac3 9abc 6576 8fbc
00000140: d0d6 91bc d169 afbc c409 71bc a259 f13b
00000150: 4c32 78ba 4fa0 a2bc 39f5 00bd a67c abbc
00000160: bce6 c23b 9424 933b b05c b0bc 9776 30bd
00000170: 6264 23bd 0752 97bc f9f5 60bc 2264 8d3a
00000180: feb9 95bc 2cc0 a5bc 1a2d 6abc 1b78 a1bc
00000190: 3ff1 a2b9 2788 24b9 90ba ce36 5eaf b0b8
000001a0: 7059 5cb6 2aec c2b8 b060 d4b9 863d 363a
000001b0: ca73 cc38 6f41 efb8 f2a3 95b7 7a6b 3739
000001c0: e221 bcb9 bbcf d439 1dff 32b8 2697 59b9
000001d0: 7350 cdb9 3700 bf39 fa10 8a38 b61e aab8
000001e0: e356 b736 d9eb 3d39 91b9 f939 88dd fc37
000001f0: ad68 5cb9 7db4 83bd 7f1e 95bd 7981 90bd
00000200: 7c57 59bd 2fb8 40bd 76e8 31bd 4a0e 58bd
00000210: cc34 20bd 700a b6ba 48df 81bc 2038 0abd
00000220: 66c6 5bbd a77b f9bc 5765 903c 0e8c 8e3b
00000230: e786 22bd ca39 a0bd bca6 66bd 9e8b 93bb
00000240: c687 91bc f027 c9bc 16d2 8abd b388 82bd
00000250: 341e efbc 8621 0ebd 4d2e 35bd b846 37bd
00000260: 96ac c1bc 6088 9dbc 771a d4bc bedd 15bd
00000270: 340a 2cbd 0b5d bfbb 22dc 843b ec9d a4bc
00000280: 6eed 31bd 3455 2cbd f1c2 17bb d85f 313c
00000290: 7061 3abc c62b 21bd 1efa 52bd 42f0 c3bb
000002a0: 84ba 5e3a c108 a0bc f044 dabc 76aa 3abd
000002b0: 2ceb 2abc f9ad 11bc 2d91 69bc d8c1 1fbd
000002c0: ec78 19bd 40fa 09bd b4d0 afbc 7526 bebc
000002d0: 72f3 c6bc aa90 e7bc 7cc3 0dbc a476 193c
000002e0: 20c0 22bc 1e5c a9bc ccdd ecbc 57f9 c1bb
000002f0: 52b7 823c 716c 05ba 5569 ffbc 3e9a 3fbd
00000300: 5380 e5bc 6f1e ebbb ddbe 91bc 2641 7fbc
00000310: abb0 01bd 33ce 5abc 5e38 69bc a960 ecbc
00000320: f647 41bc 4a07 32bc b015 eebb be1b 0bba
00000330: 72fc b1bb 728c 41bc ad98 2abc e0da 6539
00000340: 6e79 273b 3b36 87bb d981 96bc f8b5 88bc
00000350: e206 d6ba 729f cebb 3481 bebb e039 17bc
00000360: 64d8 4cbc c803 15b9 6abf a7bb 4b15 4cbc
00000370: 485c bfbb 5856 79bb b3f2 633b c280 19bb
00000380: e9bd acbb c22a d6b9 4c93 95ba 04f2 8eba
00000390: 0e8e fdb9 025b b039 5bd9 87ba 187f 09bb
000003a0: 1b07 34bb 865b 06bb f40c 41b8 44b6 edb9
000003b0: ae9f 87ba 74c9 e5ba 30e3 f2ba b690 3b38
000003c0: 1a2e edb9 9bbf a239 3705 cfba 6acf dcb9
000003d0: 3555 473a 98fb e1b9 b7d7 a43a 55e5 9cba
000003e0: 4e39 95ba 9c1f e639 e568 42bc fa1a 88bc
000003f0: 285e adbc b881 09bc 2c9d c53b 4125 f3bb

momentum_buffer f4 [20]
-0.011073934 -0.012340847 -0.015091604 1.7822075e-06 0.004779094 -0.00284155 0.010660521 -0.015944399
0.0074232835 0.0040792194 -0.009462662 -0.008083006 -0.016222566 0.00456906 -0.0016358055 0.000522443
0.018416874 0.0010670545 0.018166931 0.020296015
00000000: 726f 35bc 4431 4abc c642 77bc 2f34 ef35
00000010: f299 9c3b 4c39 3abb 77a9 2e3c d49d 82bc
00000020: 043f f33b f9aa 853b 4809 1bbc 966e 04bc
00000030: 30e5 84bc 0eb8 953b 8668 d6ba 8ef4 083a
00000040: fcde 963c 68dc 8b3a d1d2 943c d443 a63c

momentum_buffer f4 [50, 320]
-0.0133816805 -0.0133976145 -0.09923287 -0.111818 -0.03852536 -0.032227658 -0.08005816 -0.14484252
-0.02249625 -0.0069903145 -0.10806644 -0.16212294 -0.003030811 -0.0069560697 -0.12543502 -0.113564484
-0.012480905 -0.023632651 -0.0620545 -0.019389443 -0.027837321 -0.046537153 -0.095781565 -0.04553863
-0.03002534 -0.04028751 -0.07963176 -0.042370163 -0.020912383 -0.05064995 -0.07836303 -0.03789159
-0.016031163 -0.006723659 -0.025397038 -0.070491485 -0.028342225 -0.01181171 -0.037160743 -0.128861
-0.009448569 -0.0015030588 -0.071806274 -0.12179342 -0.008133961 -0.0052290843 -0.08641265 -0.113773465
0.0 0.0 0.0 0.0 0.0 0.0 0.0 5.7395375e-32
1.1992063e-11 0.0 0.0 2.5905596e-37 1.8358962e-06 0.0 0.0 -1.12e-43
-0.05458941 -0.036688454 -0.012557294 -0.0124445595 -0.057925995 -0.06994218 -0.08804473 -0.011220864
-0.033325378 -0.09334579 -0.11450264 -0.0029723025 -0.055307537 -0.12023269 -0.073906854 -0.0061645256
-0.019747365 -0.043025292 -0.032263633 0.009228805 -0.068873584 -0.088844895 -0.07189726 -0.02228048
-0.056939565 -0.0723324 -0.075473964 -0.04900983 -0.052889235 -0.078833565 -0.07517104 -0.0369687
-0.017119318 -0.02063815 0.00094617344 0.010974353 -0.048507415 -0.03301823 -0.030029742 -0.016699975
-0.052649647 -0.048293095 -0.036414634 -0.039599836 -0.04408045 -0.066209584 -0.058021042 -0.049646236
-0.10775964 -0.12356253 -0.115385346 -0.07187365 -0.055149518 -0.08246995 -0.13098858 -0.09973903
-0.055473875 -0.08321884 -0.10101499 -0.07220304 -0.034361213 -0.05230579 -0.09366253 -0.062279966
-0.02644831 -0.0209096 0.01703588 0.0147187235 -0.0564709 -0.047993824 -0.015196912 -0.02520366
-0.044323873 -0.037237935 -0.058513794 -0.03938764 -0.05108796 -0.056080386 -0.058966164 -0.03175178
-0.0010796054 0.00014109482 0.00049785635 0.0014251374 -0.0017197699 -0.004093401 -0.0026582945 0.0013432275
-0.0035707117 -0.006121695 0.00042688605 -0.0075242915 -0.0030065498 -0.0054664365 -0.0028512129 -0.010489806
-0.017210927 -0.030358423 -0.023282718 0.008170039 -0.036279447 -0.041510683 -0.044626754 -0.025322568
-0.04161407 -0.048099987 -0.045953937 -0.037755363 -0.027742362 -0.04526332 -0.048266836 -0.045624167
-0.06441797 -0.090611234 -0.08119462 -0.030923646 -0.06939408 -0.07850899 -0.08804472 -0.06513717
-0.04637272 -0.10330399 -0.11046068 -0.043082386 -0.04083672 -0.098373294 -0.08239113 -0.040861882
-0.06672278 -0.05689292 -0.03771979 -0.005442069 -0.06856297 -0.10629031 -0.106246226 -0.005798379
-0.071858674 -0.12620014 -0.090269245 -0.0071978127 -0.07116747 -0.12689433 -0.08499236 -0.007623926
-0.0030116318 -0.0032251533 0.0012018511 0.001112725 -0.011700176 -0.016320389 -0.0055931243 0.0043077418
-0.016706007 -0.015839987 -0.0018661614 -0.0064069303 -0.013146852 -0.017609216 -0.0090413 -0.016075488
-0.0047622854 -0.0064370697 -0.015880698 -0.023774538 -0.0029700894 -0.0027881605 -0.019263964 -0.022700403
-0.002500697 -0.0023450153 -0.012382157 -0.021070234 -0.00040098466 -0.0027220165 -0.0131655205 -0.017766666
2.2183884e-05 4.2979954e-34 6e-45 -8.199656e-05 3.6340552e-07 1.1858974e-12 6e-45 -6.9855494e-05
9.1037236e-08 6.393777e-08 1.4936967e-11 0.0003773683 5.934137e-07 4.1197005e-08 -5.8563096e-06 -0.00036502976
00000000: d63e 5bbc ab81 5bbc 9a3a cbbd d600 e5bd
00000010: c5cc 1dbd 2601 04bd 88f5 a3bd 9951 14be
00000020: 0e4a b8bc 020f e5bb f051 ddbd 8e03 26be
00000030: 92a0 46bb beef e3bb 0a72 00be 7f94 e8bd
00000040: b67c 4cbc 4399 c1bc dc2c 7ebd 9cd6 9ebc
00000050: 180b e4bc be9d 3ebd 2029 c4bd b786 3abd
00000060: b4f7 f5bc 8404 25bd fa15 a3bd 568c 2dbd
00000070: 7250 abbc 5276 4fbd cc7c a0bd 3634 1bbd
00000080: c953 83bc 2452 dcbb 730d d0bc d75d 90bd
00000090: f42d e8bc e785 41bc dd35 18bd 23f4 03be
000000a0: 2cce 1abc 4902 c5ba 2b0f 93bd d46e f9bd
000000b0: 4e44 05bc bd58 abbb 1ef9 b0bd 1002 e9bd
000000c0: 0000 0000 0000 0000 0000 0000 0000 0000
000000d0: 0000 0000 0000 0000 0000 0000 c501 950b
000000e0: 73f7 522d 0000 0000 0000 0000 ea4d b002
000000f0: ea68 f635 0000 0000 0000 0000 5000 0080
00000100: 2599 5fbd a246 16bd 1cbd 4dbc 44e4 4bbc
00000110: cf43 6dbd d83d 8fbd cc50 b4bd b7d7 37bc
00000120: 3180 08bd 142c bfbd 5c80 eabd f6ca 42bb
00000130: 288a 62bd 8e3c f6bd 7a5c 97bd caff c9bb
00000140: 3ac5 a1bc 4a3b 30bd df26 04bd 6a34 173c
00000150: 980d 8dbd 50f4 b5bd df3e 93bd 8e85 b6bc
00000160: 7639 69bd 0223 94bd 1892 9abd 88be 48bd
00000170: 62a2 58bd 7e73 a1bd 46f3 99bd 7e6c 17bd
00000180: d03d 8cbc 5611 a9bc a008 783a c6cd 333c
00000190: b6af 46bd 203e 07bd ef00 f6bc 63ce 88bc
000001a0: 28a7 57bd fbce 45bd 8327 15bd 7033 22bd
000001b0: b48d 34bd e498 87bd 79a7 6dbd da59 4bbd
000001c0: 16b1 dcbd 5a0e fdbd 274f ecbd 7e32 93bd
000001d0: 76e4 61bd 01e6 a8bd df21 06be fa43 ccbd
000001e0: 9338 63bd a46e aabd f2e0 cebd 30df 93bd
000001f0: 58be 0cbd 993e 56bd 24d2 bfbd 4719 7fbd
00000200: 20aa d8bc 9c4a abbc d48e 8b3c cd26 713c
00000210: 084e 67bd 2c95 44bd 78fc 78bc e877 cebc
00000220: f38c 35bd ce86 18bd 29ac 6fbd ef54 21bd
00000230: 9c41 51bd 8cb4 65bd 8186 71bd 280e 02bd
00000240: 8c81 8dba daf2 1339 9382 023a adcb ba3a
00000250: e769 e1ba f021 86bb c836 2ebb 3c0f b03a
00000260: 9a02 6abb 8098 c8bb adcf df39 558e f6bb
00000270: 8909 45bb cb1f b3bb 6adb 3abb 6fdd 2bbc
00000280: eefd 8cbc 3ab2 f8bc 66bb bebc a1db 053c
00000290: c299 14bd 1b07 2abd 8bca 36bd 4671 cfbc
000002a0: 8473 2abd 7e04 45bd 323a 3cbd 5ea5 1abd
000002b0: f343 e3bc 0866 39bd 72b3 45bd 68e0 3abd
000002c0: 92ed 83bd 6292 b9bd 5d49 a6bd 9653 fdbc
000002d0: 7c1e 8ebd 52c9 a0bd ca50 b4bd a366 85bd
000002e0: 52f1 3dbd 0b91 d3bd 3639 e2bd 2877 30bd
000002f0: 6844 27bd f077 c9bd aebc a8bd ca5e 27bd
00000300: f4a5 88bd 8d08 69bd 1180 1abd 6253 b2bb
00000310: be6a 8cbd bcae d9bd 9f97 d9bd 5400 bebb
00000320: a42a 93bd 9c3a 01be 15df b8bd a1db ebbb
00000330: 40c0 91bd 96f0 01be 7910 aebd 20d2 f9bb
00000340: cc5e 45bb 185d 53bb 6e87 9d3a dbd8 913a
00000350: 18b2 3fbc 56b2 85bc 8746 b7bb f527 8d3b
00000360: 09db 88bc dcc2 81bc fc99 f4ba 3af1 d1bb
00000370: e565 57bc 3441 90bc f621 14bc beb0 83bc
00000380: f20c 9cbb 0eee d2bb 3d18 82bc d2c2 c2bc
00000390: d5a5 42bb 92b9 36bb 76cf 9dbc 32f6 b9bc
000003a0: bce2 23bb d4ae 19bb 88de 4abc 7c9b acbc
000003b0: 403b d2b9 dc63 32bb 32b4 57bc 668b 91bc
000003c0: 8717 ba37 4dd3 0e08 0400 0000 91f5 abb8
000003d0: 131a c334 75e6 a62b 0400 0000 627f 92b8
000003e0: 4080 c333 294e 8933 0f63 832d 84d9 c539
000003f0: 144b 1f35 96f0 3033 5181 c4b6 7761 bfb9

momentum_buffer f4 [50]
-0.012949934 0.00157788 3.338676e-14 -0.0062140096 -0.002123681 -0.021660099 0.0008672256 0.0019163067
-0.009173491 -1.8165748e-15 -0.0031204582 0.010865326 0.012570354 -5.2110472e-08 -0.0005626093 0.0029246798
0.0069788843 0.00824634 -0.01933747 -0.010839545 -0.0034695235 -0.00033324957 -0.0074735684 0.0031155916
-0.0063512377 -0.019305997 -0.0075470665 0.009921551 -0.011536857 0.0011744011 -0.0018740454 -6e-45
0.0065636244 0.010797236 6e-45 0.003333729 6e-45 0.020114686 0.0001654737 -9.269611e-05
-0.008008389 -0.002017078 -0.0038985834 0.0069365483 0.026750285 -0.005617231 -0.012288821 -0.000367648
0.00022190122 -0.0008216975
00000000: f62b 54bc ded0 ce3a 505c 1629 e49e cbbb
00000010: 742d 0bbb 8570 b1bc 8656 633a 952c fb3a
00000020: 694c 16bc e4e5 02a7 9a80 4cbb 7b04 323c
00000030: e3f3 4d3c 12d0 5fb3 127c 13ba fcab 3f3b
00000040: 20af e43b a81b 073c 9d69 9ebc 5998 31bc
00000050: f260 63bb 00b8 aeb9 d6e4 f4bb f42e 4c3b
00000060: 0b1e d0bb 9c27 9ebc 624d f7bb 008e 223c
00000070: 1605 3dbc 5dee 993a 87a2 f5ba 0400 0080
00000080: ac13 d73b e4e6 303c 0400 0000 b17a 5a3b
00000090: 0400 0000 8ec7 a43c 0283 2d39 d865 c2b8
000000a0: 9e35 03bc f430 04bb 607f 7fbb fc4b e33b
000000b0: 6a23 db3c c010 b8bb 0d57 49bc e1c0 c0b9
000000c0: 28ae 6839 3067 57ba
