lecture8/saved_mnists/mnist-2000.pth (torch_old, 177308 bytes, 16 tensors)

conv1.weight f4 [10, 1, 5, 5]
00000000: 3805 1bbe 2bee 343e ad3c 783c ebc2 43be
00000010: f418 0fbe bba4 e7bb e846 273e 7b83 543e
00000020: 5276 81bd d79b 4dbe 89e2 8f3e 121b 993e
00000030: 9239 28bd 767b 1abd 3c2e 6c3d 5950 273e
00000040: c597 8c3e 1109 dabd 5525 d83c 350c f7bd
00000050: 5f00 60bd 369d 3a3e 8fbf 8cbd 17c0 773e
00000060: ebb2 8b3e 0174 2bbe 69f9 3cbe 2b51 67bd
00000070: f2e5 2fbe 0a3c 14be 3fdb 0ebd 8218 363e
00000080: f5c3 103e 8615 a03d b95b 34be 37c7 29be
00000090: 1dee a5bd 1dd9 bb3c 0775 fabc a839 473e
000000a0: 6363 48be 3baa 9f3d 5313 34bd ce5e f53c
000000b0: cc23 14be b74e c03d 6d6c 2abe 94e4 253c
000000c0: ca90 c5bd 2b4a 383e 44b3 91bd f05d 183d
000000d0: b914 e33c 2b6a 983e 1bd4 323d c9f5 603e
000000e0: 42ba 3b3e e1b6 c33e 9392 c83e 38ef b53e
000000f0: d476 933e abce ce3d 68f2 b93e cabf 933e
00000100: 0c43 e03d 3c2e 673c 0ef0 6e3e fb4b e13d
00000110: b8da 833e 9fbc 063e b342 7e3e fefa 813e
00000120: 7bad 87bd b290 883e ca5e 283e e207 d03d
00000130: c4d4 02be 3468 243e 8fad 7d3e f82a 383e
00000140: 9eed 2a3e fa56 e3bd 06c4 693e 2311 b43d
00000150: fe8c 8ebd 4230 a53d 2296 863e 1d2e 0f3e
00000160: 9ed2 833e b64a 18be 224c 6a3e 4a15 c93d
00000170: 8ad3 af3e dee9 613e f11c 093d 6c27 953e
00000180: 9f7e 37bb 695e 333e 2376 95bd f2ce 043e
00000190: 4e26 04be 5fc6 c9bc 8a00 33be 099a 7fbc
000001a0: debe 35be fb12 323e de31 b63d 7afa 7d3b
000001b0: 1007 c53d 1a18 973d 1181 b4bd c9d3 b5bd
000001c0: 71b7 e3bb a511 e8bd eca0 c0bd 86c9 b53d
000001d0: 525a 233e 421c 09be b3e9 d93d 7baa 31be
000001e0: 3a59 80bd b828 13be b66f f73d 279c 043d
000001f0: d18d fc3a 27bf 113e 7faf a43e 8f77 e23e
00000200: 8baf d23e 88ca 6e3d 2bcd 5abc 9366 ba3e
00000210: d77a da3e 2e39 d23e 0d2b 1f3d 3bba b93d
00000220: 35df bb3e 5df7 873e 4fe0 c63e 7be5 a33d
00000230: 012d 4c3e d866 be3e f4e7 0f3e bbe3 a73e
00000240: f8f9 f13d c2ee 843e cd5b 723e ec25 283d
00000250: 06c5 a5bd eacb 893d fccd b8bd c856 403d
00000260: 60e6 903e 1421 a13e 6b98 a63e f7df 25be
00000270: 43ef 0fbe bb62 2b3e 128c 8c3e 2ede 293e
00000280: 8bdc cfbd 9bd6 d63d 9da8 0b3e a103 833e
00000290: eb9b 9a3e c7bf 07be 6c96 5a3e 627c a83d
000002a0: c5c5 0e3d 9e6d 9b3c 660f 1ebe 24e4 583e
000002b0: 040a 6d3e 8192 813e 99a6 4f3e 7258 20be
000002c0: ba9a e3bd ed16 60bb c848 a33e 8d8d 623e
000002d0: 9ff1 a03d 732a 09bd fb15 8f3e 23eb 193e
000002e0: 83c3 563e a457 0b3e 6afe 38bb 1dc3 cc3e
000002f0: 3abc a63e fd4b 40bd 54be fa3c 2ec2 5e3e
00000300: a639 9a3e f251 0f3e e1e4 153e c87a de3d
00000310: 9c76 453d 3b9c cf3d c541 093c 305f 36bb
00000320: 6cb5 8b3d 56a5 563d 5aae 863d 3f3d 0ebe
00000330: 35ca 273e fa49 06be f7c8 b8bd 0312 fabd
00000340: e209 803e f856 1bbc 3fa7 efbd 99f1 18be
00000350: 5b6b 73bd 9f08 e93d 5307 0ebe 17ec 0d3d
00000360: 1a2a 9abd a61f 653e e7ee d33d e548 943d
00000370: 11d6 473e 47f9 2cbd fc5f ab3b 97a7 3c3e
00000380: cb9b 29bd 3542 2f3e 21e7 a13d 677a 46be
00000390: 2b66 f0bd c8e7 71bd 2c9d 303d 4635 6b3c
000003a0: e9cf c1bd fb7d 65bd 1057 473e 40d5 dabd
000003b0: 94fb c7bd 290e adbd bc9c 24be 1222 c7bd
000003c0: 0051 d03d d76a 813c f8d6 d8bd 7911 0c3e
000003d0: 3956 cb39 14bc 1d3e 93ae 3cbe d0df c5bd
000003e0: 4553 86bd fdbf 07be
-0.1513871 0.17668979 0.015151185 -0.19117324 -0.13974363 -0.007069198 0.16335642 0.20753281
-0.06321396 -0.2007898 0.2810252 0.29903466 -0.04107053 -0.037715398 0.05766128 0.16339244
0.2745954 -0.106462605 0.026384989 -0.12062875 -0.054687854 0.18224034 -0.068724744 0.2419437
0.2728494 -0.1674347 -0.18454517 -0.056473892 -0.17177561 -0.14476028 -0.034877058 0.17782786
0.14137252 0.07816605 -0.17613114 -0.165799 -0.08102057 0.022930676 -0.030573381 0.19455588
-0.19569163 0.07796141 -0.04396374 0.029952433 -0.1446678 0.09390014 -0.16642924 0.010125298
-0.09646757 0.17997043 -0.0711427 0.03719896 0.027719842 0.297685 0.04365931 0.2196876
0.1833277 0.38225463 0.39174327 0.35534072 0.28801596 0.100980125 0.36317754 0.2885726
0.10950288 0.014110144 0.23333761 0.1100082 0.25752807 0.1315789 0.24830131 0.25386804
-0.06624886 0.26672894 0.16442409 0.101577535 -0.12776476 0.16055375 0.24773239 0.17985141
0.16692206 -0.11100574 0.22828683 0.08792331 -0.06960486 0.08065845 0.26286417 0.13982435
0.25746626 -0.1487225 0.22880605 0.09818514 0.3434108 0.2206187 0.033474866 0.2913164
-0.0027999056 0.17516483 -0.072979234 0.12969568 -0.12905237 -0.024630724 -0.17480674 -0.01560069
-0.17748591 0.17390053 0.0889623 0.0038754032 0.09620488 0.07377644 -0.0881368 -0.088782854
-0.006949358 -0.113314904 -0.094056934 0.08876328 0.15952423 -0.13389686 0.10640278 -0.1735019
-0.062670186 -0.14371002 0.12081854 0.03237548 0.0019268339 0.14233075 0.32165143 0.4423184
0.41149554 0.058298618 -0.01335458 0.36406383 0.42671844 0.4105925 0.038859416 0.09068724
0.3669373 0.2655591 0.3884301 0.08002754 0.19939043 0.3718784 0.14053327 0.32790932
0.11815256 0.25963408 0.23667832 0.04105179 -0.0809422 0.06728347 -0.090236634 0.04695776
0.28300762 0.3147055 0.3253816 -0.16198717 -0.14056115 0.16736881 0.27450615 0.16588661
-0.10149487 0.104901515 0.1363854 0.25588706 0.3019708 -0.13256751 0.21346444 0.08226849
0.034856576 0.018973168 -0.15435562 0.21180779 0.23148352 0.25307086 0.20278396 -0.15658739
-0.11113496 -0.0034193352 0.31891465 0.2212431 0.078585856 -0.03348775 0.27946457 0.15031104
0.2097302 0.13607651 -0.0028227814 0.3999261 0.3256548 -0.046947468 0.030608334 0.21753761
0.30122107 0.13996103 0.14638092 0.108632624 0.048208818 0.101372205 0.008377497 -0.0027827732
0.06821713 0.05240377 0.06576224 -0.13890551 0.1638573 -0.13114157 -0.09022706 -0.12210467
0.2500754 -0.009481184 -0.117018215 -0.14935912 -0.059428554 0.113785975 -0.13869981 0.03464898
-0.075275615 0.22375354 0.103483014 0.07240466 0.19515254 -0.042229917 0.005229948 0.18423305
-0.04140834 0.171151 0.079054125 -0.1938263 -0.11738237 -0.059058934 0.04311864 0.014355963
-0.09463484 -0.056028347 0.19466805 -0.106852055 -0.097647816 -0.084499665 -0.16075414 -0.09723295
0.101716995 0.015798016 -0.10587877 0.1367854 0.00038783418 0.15403777 -0.1842597 -0.096618295
-0.06558851 -0.13256831

conv1.bias f4 [10]
00000000: 71ed 323e 01a3 d33d 3c4a b0bb 7eed 4cb8
00000010: a8e9 e2bd baf3 2e3e 26db bf3c fd14 f338
00000020: 2026 573e b1b6 09be
0.17473389 0.10333825 -0.005379943 -4.8858572e-05 -0.11079723 0.17085162 0.023419928 0.00011591052
0.21010637 -0.13448597

conv2.weight f4 [20, 10, 5, 5]
00000000: 9f01 7a3d 6cbc e93c c857 46bd 5a2f d63c
00000010: 2547 2abd d953 edbc 0ebe 173c 4930 1b3d
00000020: 8dc6 a2bb 8dcb 96bd c604 45bc 01d4 1d3d
00000030: 7d0d f23d 0bea 0dbd 3c69 8abd 9a9f b9bd
00000040: 20ac e13d 888e de3c c16b 9dbc eaa1 ae3c
00000050: da1f fc3b fbc2 c93c b414 233d 6667 54b9
00000060: bea3 393d 60ca 3d3d 1e5a 303c 4c36 15bd
00000070: f242 5d3d 21f7 4bba 1a3b 66bd f6e9 5d3b
00000080: 1d6c 5a3d 7937 3ebd 8915 f3bc 2b34 21bd
00000090: 7a63 51bd 0948 0a3d 6b47 6a3d 953a 833d
000000a0: 176e 71bd a9f5 293d 90e5 93bb 9c59 8fbc
000000b0: 7d6c e03c 9f72 40bd 1a6d 4c3d 86cc 35bb
000000c0: e928 033d 8f0c 0bbd 6a18 363d 4b82 833d
000000d0: 132e 3e3d fd5c 6abd d515 95bd e103 ed3c
000000e0: b13d a53d a2eb 41bd c0b9 10be bfd8 77bd
000000f0: 9d9f 2a3c 8517 433d 50d6 f0bc 8805 14be
00000100: 99b4 97bd e351 533d 39ea d53d bcaa 8dbc
00000110: db8a 90bd ab4c d3bc 982d 383c 64ed c03d
00000120: 0361 a53d a9d9 b43c 8f99 5c3d 4e60 29bd
00000130: 416d 853d 5d0e 863d 5cea ce3c aab8 94bc
00000140: b438 06bc 5760 873d bb9c d23d 3305 91bd
00000150: 396c 11bd 34ce 0d3d 5734 093e dbd3 1fbd
00000160: 170d 96bd 9337 a4bd 8f4c 9c3d 1e4d 0fbc
00000170: d9d0 843d 78d0 933c 7c69 463d 84e0 03bd
00000180: dacc 0f3d f620 a13d 76ca 863d a9b4 6d3d
00000190: 37da 6f3d afb1 d83c 7cb5 33bd 49c9 fa3c
000001a0: c82f 523d 3994 153c 9944 21bd 3ea2 bebc
000001b0: 7687 323c c93a 22bc b930 8f3c a78f 40bd
000001c0: 6e73 38bc 9ab2 813b af75 77bc 10ad 4f3d
000001d0: eb97 0fbc 40b3 2b3d 650e 133d 9ed7 bc3b
000001e0: a7e4 a93c b7ca 67ba efe4 2e3d 5d38 adbc
000001f0: 28c2 1e3d e888 78bd c300 323b 1061 c93d
00000200: 32e6 36bd 8a9f b2bd fdaa 32bd fb67 9b3d
00000210: 64a3 ea3d dda5 dcbd 4376 58bd da1a 563d
00000220: bc32 033e bbc1 893d ed78 28be 16db dbbd
00000230: b989 163d 6cbf ef3d b5d1 8a3c 9cb6 9bbd
00000240: 6454 5b3a ba4d 02bd 6c6b e23d 34a5 353d
00000250: 25af 423c d873 9f3c 0b3f 4d3d 0e17 a53d
00000260: 2035 413b 39d7 5a3c 92e8 a7bd c41b 8f3d
00000270: c17d 143e 4833 6ebd c550 bfbc 5257 6ebd
00000280: 7e18 1b3e 450e fb3d b710 fcbd cca2 65bc
00000290: 5806 0bbd 2d4a bc3d bbec 743d 9951 90bd
000002a0: 279f 93bd d65b a4bc bdfc 753d fbc7 783d
000002b0: e961 123d 5869 a1bc b315 76bd 6026 4cbb
000002c0: 4bd7 f3bc b4e2 883d 5ec1 f3bc 7441 a1bc
000002d0: 6c2d a43c e4ee 893d a247 b83c 5b63 e5bd
000002e0: fec6 a1bd 269c 973d f816 c73d b9dc ebbd
000002f0: 4a80 8cbd 77a8 a6bd 05fc d03d f5d5 823d
00000300: 88b6 353c e147 ca39 f319 36bd 0a44 b3bb
00000310: 804d ddbb def5 2ebd 2bee c5bb 499e 1d39
00000320: 24fb 85bc 2494 e83b 36d1 533c 5c0f 43bd
00000330: 932e 96bd 65f6 d93c 8610 a33d 1ca5 1abd
00000340: 91e7 0f3d c850 b6bc 125e 083d 05da 1d3d
00000350: 05d7 c63c 1e0f b1bc 8bb0 c53c d327 973d
00000360: d37a cbbc 597b e33b 6939 2f3d 6e6a 273d
00000370: 4ae0 0a3b cd63 443d 4d20 29bd e091 99bb
00000380: 8d62 073d 7fec 513d 3ff3 2dbd c337 813d
00000390: c5f7 8cbc 600e 3cbd adca 47bd dd3a 243c
000003a0: fb12 4d3d 5377 2dbd 4d47 4c3d c1fb 08bd
000003b0: 2f0f 89bc 94b4 ab3c 80e5 edbc 7582 63bd
000003c0: 01a9 073b 0f02 f3bc cddb 93bc 1c4b 35bd
000003d0: c33f 1ebd 9adc e2bc b04f 30bc 7db4 95bb
000003e0: 4afa 8f3c 4307 2abd fdc3 0cbc e75d 263a
000003f0: ebf0 f13b 02de 333d eca8 22bd 7aba 113d
0.061036702 0.02853223 -0.04842356 0.026145626 -0.041571755 -0.028970646 0.009261621 0.037887845
-0.0049675168 -0.07363043 -0.012025064 0.03853226 0.11818979 -0.03464703 -0.06758353 -0.09063645
0.11019158 0.027167574 -0.01921642 0.021317441 0.0076942267 0.024629107 0.039814666 -0.00020256414
0.045322172 0.046335578 0.010763673 -0.036428735 0.054018922 -0.00077806605 -0.056208707 0.0033861375
0.05332576 -0.04643962 -0.029673355 -0.039356392 -0.05112026 0.033760104 0.057197016 0.06407658
-0.05894288 0.041494045 -0.00451345 -0.017498784 0.027395481 -0.04698431 0.049908735 -0.0027740314
0.032021437 -0.033947524 0.044456877 0.06421336 0.04643066 -0.057217587 -0.07279555 0.028932514
0.08068407 -0.047343858 -0.14133358 -0.06050944 0.010414031 0.04762985 -0.029399067 -0.14455235
-0.07407493 0.051591765 0.10445065 -0.017293327 -0.070577346 -0.025793394 0.011241339 0.09420279
0.08075144 0.022076445 0.053857382 -0.04135161 0.06514979 0.06545708 0.025258236 -0.018154461
-0.00819223 0.06610172 0.102838 -0.0708107 -0.0355036 0.03462048 0.13398872 -0.0390204
-0.073267154 -0.080184124 0.0763179 -0.0087464135 0.06485147 0.018043742 0.04844044 -0.032196537
0.03510747 0.07867615 0.06581585 0.05803362 0.058557715 0.026451914 -0.04387425 0.030613558
0.0513151 0.009129577 -0.03937206 -0.023270722 0.010896554 -0.009901711 0.017479287 -0.047011998
-0.011257989 0.0039580585 -0.015103742 0.050702155 -0.008764247 0.041918993 0.0359024 0.0057630083
0.020738913 -0.00088421575 0.042698797 -0.02114504 0.03875938 -0.06067744 0.0027161099 0.09832966
-0.044653125 -0.08721836 -0.0436201 0.07588192 0.114569455 -0.107738234 -0.05284716 0.0522717
0.12812322 0.06726404 -0.1645238 -0.10735147 0.036752436 0.11706433 0.0169457 -0.07603189
0.0008366762 -0.031812407 0.11055645 0.044347003 0.011882578 0.019464418 0.05010895 0.08061038
0.0029481128 0.013356977 -0.08198656 0.06987718 0.14501096 -0.058154374 -0.023353944 -0.058188744
0.15146062 0.12258581 -0.123078756 -0.014015865 -0.033941597 0.091938354 0.059796076 -0.070468135
-0.0720809 -0.020063322 0.060055483 0.06073759 0.035737906 -0.019703552 -0.060079288 -0.0031150803
-0.029765746 0.06683865 -0.02975529 -0.01968453 0.02004119 0.06735018 0.022495095 -0.11200591
-0.07899283 0.0740283 0.09721178 -0.11516709 -0.06860407 -0.08137601 0.10204319 0.06388465
0.011090882 0.00038581996 -0.04445834 -0.0054707574 -0.0067536235 -0.042714946 -0.0060403547 0.00015031653
-0.016355105 0.007097738 0.012928298 -0.04762207 -0.07333102 0.026606748 0.07962136 -0.037755117
0.03513295 -0.022255316 0.033292837 0.038537998 0.024272451 -0.021613654 0.024132034 0.07380643
-0.02483884 0.0069421944 0.04277936 0.040872984 0.0021190816 0.04794674 -0.04129057 -0.004686579
0.03305297 0.05125093 -0.042468306 0.06309464 -0.01720799 -0.045912147 -0.04877727 0.0100238
0.05006693 -0.042350125 0.049872685 -0.033443216 -0.016730873 0.02096013 -0.029040098 -0.055544335
0.00207001 -0.029664068 -0.018049145 -0.044261083 -0.038635027 -0.027693082 -0.0107611865 -0.004568635
0.017575402 -0.04151083 -0.008591649 0.000634639 0.007383456 0.043912895 -0.039711878 0.03557823

conv2.bias f4 [20]
00000000: 31ad 0a3d 77e0 8f39 4df9 62bd f629 81bd
00000010: cefe 853d e1ae 0f3d 2e5a 863d 5f78 56bd
00000020: 84a0 063d d771 6fbc 4aa2 00bc 61e4 7d3c
00000030: aac9 693c 2104 6abd ec17 3fbd 4da3 843c
00000040: 299d 15bb 3d64 a73d 3897 a53d 0b81 833a
0.033856574 0.00027442325 -0.055413533 -0.063068315 0.06542741 0.035078887 0.06560169 -0.05236089
0.032867923 -0.014614544 -0.007851193 0.015496344 0.014269272 -0.057132844 -0.046653673 0.01619115
-0.002282927 0.08173416 0.08085483 0.0010032965

fc1.weight f4 [50, 320]
00000000: 33a4 2cbc 65d3 0a3a 2411 8b3d e2ed a23d
00000010: bd10 55bd edcf 95bd 78da c23c 92d0 983b
00000020: acae 4dbd 2903 61bd 9b1c 253c 0bd3 86bd
00000030: 1db1 2c3d 891c 69bd 8d04 16bd ffd6 f53c
00000040: 82d9 0cbb 18aa e0b8 0d5b aa3d eb57 373d
00000050: 73bb 3cbd b655 8b3c 592d 3cbd 7f7a d5bc
00000060: 30e4 2abd 18ca a53b c1a3 f43c ed0d 853d
00000070: cc97 13bd f557 3bbc 17fa b73c c7db 15bb
00000080: 15ee 343d fc86 90bc e765 8e3d 3b46 ab3d
00000090: 070e 013b 69be e3bd cdc2 9b3c 12b9 8c3c
000000a0: 5c25 023d c5c7 063d 87c7 3e3d ec63 6cbd
000000b0: e1ec 383d dac2 503c 1f08 83bd fde7 7abc
000000c0: 4606 033d 7bcc 1cbd 2337 17bd 0c6c bb3c
000000d0: cae4 33bd 415c 57bd b492 523d 3568 18bd
000000e0: b3cb 4b3d b89c acbb ac80 433d 58b3 8a3b
000000f0: 95a6 27bc c070 ff3c 629a 133d adc8 1abd
00000100: 45b6 063d fa4f 0e3d 63d7 9e3c 3729 b33c
00000110: 8cb2 3abc 424f 083d 7934 84bc 701b 32bc
00000120: 4bd0 943c ac83 243d a778 c0bd 2477 79bd
00000130: da52 cdbc ce63 14bd 7b21 82bc 12f8 853c
00000140: c0b6 8f3d b0f5 473d 9c49 323d 2032 23bc
00000150: 46a7 0d3d 085c fdbc 6f1d 8abc 7865 173d
00000160: 837e 2ebd d93c f3bb f632 d33b ec33 72bc
00000170: 26af e33c 85f2 f83c b4a8 113d 5b2e 81bc
00000180: 30f1 a4bc df71 91bc d64f dbbc 13c3 c4bc
00000190: 7b86 1ebc 0857 463c 4de9 d1bb 563b ad3d
000001a0: 064f 1fbc 596d ae3c d7f0 973d 3ac6 6fbd
000001b0: 084d 723c fc4c 65bd fa78 56bc 9511 36bd
000001c0: 2f32 4abd efe5 9bbd 638c 183d 2c1c d7bc
000001d0: e37c 93bd d1ff 603d 0988 913d af37 263d
000001e0: e596 3abd 8dfc f2bc 14f1 79bc d446 17bd
000001f0: 917e 1dbd c59a b5bb 6131 7c3d 079f 563d
00000200: 3bad 823c 468c 9b3a 2299 99bc 698b 56bd
00000210: a5d4 7c3c 6ef1 8bbd 1638 293d 4c08 763c
00000220: 573c 603c 85f5 b93d 8d57 993c 638d 18bd
00000230: 3503 dbbc 611c 783d e0b2 c0bc 24f3 433d
00000240: ec61 93bb a605 c03c 3384 aebc 939e c7bb
00000250: b411 983c d27c 583d 0931 27bd ab20 203d
00000260: da2d bcbc f4df c9bc ceef 8fbc 9ef5 31bd
00000270: 5702 44bd 58c3 5cbd e088 edbb 7df0 61bc
00000280: 3e59 623d 9a4d 833d 3ecd 9cbc ebb2 4bbd
00000290: 81d0 2f3c 4712 453d d8c3 fd3c 73f1 8a3a
000002a0: 5871 743b 3706 463c f2f8 5a3d 30c3 f33c
000002b0: 3f07 69bd 592c 55bc 1fa4 acbc 3b73 59bd
000002c0: fa42 72bc 1688 7a3c d63c 113d 7e38 14bd
000002d0: c70b c63a 0365 1e3d b164 213d 04d1 433d
000002e0: 5297 3f3c 200c cdbb 7590 ed3b c8ef b2bc
000002f0: ff39 7dbd 0332 78bb 8d3c 06bd 7e3e 5d3c
00000300: c94a ecbc 6fe0 4a3d 2256 dd3c 8ff2 903d
00000310: 2914 02bc a5b8 8c3d b904 6b3d ec9c 3a3d
00000320: 203f 9bbd 4ebc 60bc d7d7 60bc 8d7e dd3c
00000330: 1e3b 09bd 31b3 243c 89b5 573d 8892 dabb
00000340: f80d 0b3d 71f1 673d 2c07 60bc aa8c 6abd
00000350: ab1a 1cbb c708 d739 9712 a33c 7492 223d
00000360: 228c f53c 86d5 cabc dafc 513d 4706 e73c
00000370: a278 6cbd 97c1 36bd 9930 09bd 951a 5b3b
00000380: b564 243d f325 733c 1c8c 103d f38a bc3b
00000390: 996b 12bd 7f9f 99bc f3f6 35bd 473f f7bc
000003a0: 8aed adbc 1c34 ce3b 7001 11bd 88c0 1fbd
000003b0: 27f7 d53c 85ef a03c 6a60 943c 2570 733d
000003c0: eccb 283d 2c0e 743b c6ae c03c f660 49bd
000003d0: 7803 8b3c 5771 5a3d d048 a4bb e603 c7bc
000003e0: 2d5e 24bd 23c8 2d3d 0e57 4a3d 4602 7ebb
000003f0: 4fdc 6c3c ce26 143d 42d1 52bd 5e94 b93b
-0.010537195 0.00052957825 0.06790379 0.07955529 -0.052017916 -0.07315049 0.023785815 0.0046635354
-0.05021541 -0.054934654 0.010077621 -0.06583222 0.042161096 -0.05691198 -0.036625434 0.030009745
-0.002149195 -0.00010712835 0.08318148 0.04476158 -0.046077203 0.017008644 -0.045941684 -0.026059387
-0.041721523 0.005059492 0.02986324 0.06496797 -0.036033437 -0.011434545 0.02245812 -0.0022866593
0.044172365 -0.01764249 0.0695303 0.08363005 0.00196922 -0.11120302 0.019013787 0.017178092
0.03177391 0.03290536 0.046577003 -0.05771248 0.04514778 0.012741769 -0.06398033 -0.015314099
0.031988405 -0.038280945 -0.036917817 0.02287867 -0.043919362 -0.052578215 0.05140944 -0.037208755
0.04975481 -0.005267706 0.047730133 0.004232805 -0.010232587 0.031181693 0.036035903 -0.037789036
0.03288867 0.03474424 0.019389814 0.021870239 -0.011395108 0.03327871 -0.016138302 -0.010870799
0.018165728 0.040164635 -0.093980126 -0.060904637 -0.02506392 -0.036227994 -0.015885105 0.01635364
0.07017279 0.04881829 0.04352723 -0.009960681 0.034583353 -0.030927673 -0.016859738 0.036962003
-0.04260112 -0.007423025 0.006445284 -0.014782887 0.027793478 0.03038908 0.03556128 -0.015769174
-0.020134538 -0.017754493 -0.026771467 -0.0240188 -0.009675617 0.012105711 -0.0064059854 0.08458583
-0.0097234305 0.021292375 0.074189834 -0.058538653 0.0147888735 -0.05598162 -0.0130903665 -0.04445036
-0.049364265 -0.07612216 0.03724326 -0.02625855 -0.072015546 0.054931466 0.07106025 0.040580448
-0.04555406 -0.029661441 -0.015255231 -0.03693278 -0.03845078 -0.0055421316 0.06157053 0.052397754
0.015951743 0.0011867366 -0.018749777 -0.052379046 0.015431558 -0.068331584 0.041313253 0.015016627
0.013686261 0.09080032 0.018718505 -0.037244212 -0.026734928 0.06057394 -0.023522794 0.0478393
-0.004497757 0.023440193 -0.021303272 -0.0060919016 0.018563129 0.052853413 -0.040818248 0.039093655
-0.022971082 -0.024642922 -0.017570402 -0.04344713 -0.047853794 -0.05389723 -0.007248983 -0.013790247
0.05526089 0.06411286 -0.019140836 -0.049731176 0.010730864 0.048113134 0.030977175 0.0010600522
0.0037299003 0.012086443 0.05346007 0.029756159 -0.056891676 -0.013011062 -0.021074353 -0.053088408
-0.014786476 0.0152912345 0.03545841 -0.036186688 0.0015109711 0.03867055 0.039402667 0.047806755
0.011693792 -0.006257549 0.0072498866 -0.021842852 -0.061822888 -0.0037871606 -0.03277259 0.013503669
-0.028844254 0.049530443 0.02701861 0.070775144 -0.007939377 0.06871156 0.05737755 0.04555981
-0.075803995 -0.01371677 -0.013723335 0.027037883 -0.033503644 0.010052488 0.05266336 -0.0066703
0.03394887 0.05662674 -0.013673585 -0.057263054 -0.0023819606 0.00041014535 0.019906325 0.03969045
0.029974047 -0.024760019 0.05126653 0.028201235 -0.057732232 -0.044618215 -0.033493612 0.0033432592
0.040135104 0.014840591 0.03528987 0.0057538687 -0.035747144 -0.018752811 -0.044424962 -0.03018154
-0.021231432 0.006292833 -0.03540176 -0.03900197 0.026118828 0.019645462 0.01811238 0.05943312
0.0412101 0.0037239892 0.023520838 -0.049164735 0.016969427 0.053330746 -0.0050135627 -0.024293851
-0.040128876 0.042427193 0.049399428 -0.003875868 0.014456823 0.03616982 -0.051469095 0.0056634387

fc1.bias f4 [50]
00000000: 9e4e da3c 0fe4 3cbd 4980 14bd 6f70 fe3c
00000010: bb23 dd3c c2b6 533d 9451 a2bb 854a 30bc
00000020: 6cc1 1bbc b69b 22bd 574b 283d d7d8 dc3c
00000030: 9a6b db3c 0086 6abd 49f7 a4bb 6d7a 573d
00000040: 8f75 7b3d 739a 9abc 1331 fd3c fef8 e13c
00000050: 7271 16bd f9de e53b 4da6 98bb 057c 87bc
00000060: ef35 8d3c 9b50 423c f499 683d 432c 843c
00000070: 94ae 8fbc 8d57 123d 71d8 02bd 67f9 233a
00000080: d924 91bc 5bae 83bc 8eb3 33bb b4af e1bc
00000090: aa1f 94bc 8172 573d 589a 63bd 2a4e 043d
000000a0: 7f41 843d 5558 6dbb f12a 333c ad57 00bb
000000b0: a63b 2a3d eee9 b8bc 2574 943c 0c62 f83c
000000c0: dbd4 8c3d 1638 83bb
0.026648816 -0.04611593 -0.036255155 0.031059472 0.026994577 0.051687963 -0.0049535725 -0.010759954
-0.009506565 -0.03969928 0.041087475 0.026958866 0.026784707 -0.0572567 -0.0050343615 0.05260699
0.06139141 -0.018872475 0.03090719 0.027584549 -0.036729284 0.007015106 -0.0046584965 -0.01653863
0.017237632 0.011860038 0.056787446 0.016134387 -0.0175393 0.035728026 -0.031944696 0.00062551204
-0.017717766 -0.01607435 -0.0027420255 -0.027549602 -0.018081505 0.052599434 -0.055567116 0.032301106
0.06457805 -0.003621598 0.010935531 -0.001958351 0.04156079 -0.022572484 0.018121788 0.03032019
0.068765365 -0.0040044887

fc2.weight f4 [10, 50]
00000000: 736b 40be 4611 28be c16a 0bbe 3c4b 3fbe
00000010: 0367 103e 2ce1 bd3d 1e52 9ebd fcb8 823d
00000020: 716c 163e de23 113e 09d4 e9bd 5a38 57be
00000030: 13bb 433e bd32 a23d 94bf be3d 6aa3 8b3d
00000040: 207f debd c6a4 be3c 1521 7cbe 9b50 4fbe
00000050: c660 783c 394f d4bd 24f7 663e 1c37 3dbc
00000060: b2f3 bbbd 7a01 883c eade 823c 5976 6abe
00000070: 855d 8f3d edd9 303e 8f40 363e 2baa e3bd
00000080: decf 883e e943 443d 1154 eb3c 01c5 15be
00000090: ceee f23c 725c 06bd 93f0 c2bc aea2 3cbd
000000a0: f099 863d cbb8 123e 9bcb 913d c7cc 153e
000000b0: 1262 02be 383a d6bd 2960 473c 9be7 4dbe
000000c0: b380 c0bd e205 96bd 11a1 6a3e e7b1 16bd
000000d0: 8a93 6e3d 7931 113e 679e 9cbd 72fd a3be
000000e0: 9e59 ee3d 6180 c53c c11f 3cbc ba7d 7e3d
000000f0: 252b 733e 694a 2e3e 2fc9 7ebe cf26 01be
00000100: 7e29 39bd 63d6 33bd e8d7 9cbc 16a7 27be
00000110: b6d3 6cbd e212 d7bd 87a4 263e cd22 0f3e
00000120: e735 253c 9728 44be 3118 343e 619d 4dbe
00000130: 7244 9abd a9ff 5f3e 3a18 d3bd b44b b4bd
00000140: c318 dabc 5ac8 a0bd 1349 ac3d 1085 0dbd
00000150: 4dbc f0bd c128 063e 0a13 bc3d f540 5ebd
00000160: 634b 4ebc 7cda 6cbc 53df 42be 1f2d 22be
00000170: ec67 b8bd c1b0 31be 3b8f 493e ef4e 103e
00000180: 4ec7 0ebe 9955 4dbe c610 663e ed1a ff3d
00000190: e39c 4dbd 5dd7 8fbd 9d35 22bc d4c0 183e
000001a0: 4650 303d df8a 66bc 13a5 e23d a9a0 4f3d
000001b0: c62d d53d 3f43 c7bb 1f95 b9bd 6c86 403e
000001c0: a76f ddbd 27d4 85bd 0d1f 0bbe d93a 213e
000001d0: 0b32 0bbe f9df 0c3e 07bf d4bd d8aa e6bd
000001e0: 5f28 673d c089 c73d b749 183e 18a0 18be
000001f0: 4d62 d43d 6357 56be b0cf d53d 489f efbd
00000200: fb53 c4bd ff7b 8ebc 764f bcbd 162f d7bd
00000210: 52a3 ff3a dc9b 823e 4fc0 ee3d f1b6 2a3e
00000220: f83d cf3d e8ae 513e 35bd bebd 9c89 793d
00000230: 7fe0 adbd 5180 b63d 1c98 263e 19df a7bc
00000240: f7c9 143e 5e30 30be 9d79 093d 0303 753e
00000250: 4baf 64be f03a 2dbc 5a1e 403e 0ad2 d3bd
00000260: 3735 153d d4cd a93d 2151 193e 7200 50bd
00000270: 9afb 5dbe a4bc 023e 49b4 92bd 61c1 be3d
00000280: e2e3 6bbe 7e0b 57bd f9d2 113e 8ab2 b7bc
00000290: 7400 77bd f4d8 6a3e bd02 6b3e 4be7 dfbc
000002a0: b8ee f23d a039 a33d 752e e03b 327e c13d
000002b0: 77cc 8dbd 7184 4f3c 0669 3cbe a918 553c
000002c0: 3517 8cbd 45aa 0a3e 9533 9fbd 41f0 aebd
000002d0: 8087 9bbd 8831 493d ef57 313d ff2f fb3d
000002e0: f71c f53d badd 3e3d 2f66 85bd ba74 af3d
000002f0: e4cf cbbc 1886 f2bd 171a 8bbe f88c 0ebe
00000300: cce1 083d 2cf3 babd 9201 273e 5daf 16bb
00000310: 216a e33a 9567 393d edd5 a5bd 2478 e5bb
00000320: 3d82 99bd 0d78 31bd 6f8f a2bd 5d7c 4cbe
00000330: 672b 8bbe 9cc6 18bd 56ff ddbc 3355 d53d
00000340: 292a 0abe cd25 03be 944a 503e 71ec 54be
00000350: 77f3 e03d 35ac bf3d 8236 5f3d 7ad0 6cbe
00000360: e215 0abe e471 113e 715b 5c3e 1467 333e
00000370: 5adc 32bd 2f9a 11bc 2f1a dd3d 0e20 5e3e
00000380: 37b7 203e f5c6 82bd 9ada 98bd 3e23 abbd
00000390: 5b21 5d3b 4ac8 0dbe 23e5 c83c 26b4 fe3d
000003a0: 9283 04be c2a6 da3d 8f0b 05be d5a3 24be
000003b0: df96 5f3d c361 323e e653 07be 4ad9 cc3d
000003c0: 4a78 0c3d bebc 39be 37fb afbd 7ff1 3c3e
000003d0: 2e22 683c 25f1 4f3e 13ad 2c3e 017f 6c3e
000003e0: 4479 98bd 3f73 83bb a612 11be 7926 043e
000003f0: 4029 ecbc fcdb 503e d258 343d 1233 213d
-0.18790989 -0.1641284 -0.13614942 -0.18681043 0.14101796 0.09271464 -0.07730506 0.06382939
0.14689805 0.14173838 -0.114173956 -0.2101759 0.19114332 0.07919834 0.093138844 0.06818278
-0.10864091 0.02327193 -0.24621995 -0.20245592 0.015159791 -0.10366673 0.22555214 -0.011548784
-0.091773406 0.016602267 0.015975434 -0.22896709 0.07000259 0.17270632 0.17798065 -0.11116441
0.2672109 0.047916327 0.02872661 -0.14625932 0.029654887 -0.032803006 -0.023796355 -0.04605358
0.0657233 0.14328305 0.07118913 0.14628898 -0.12732723 -0.10460323 0.012168922 -0.20107882
-0.093995474 -0.07325341 0.22913004 -0.036790755 0.058246173 0.14179029 -0.076474 -0.320293
0.11638187 0.024109067 -0.01148218 0.06213162 0.23746927 0.17020573 -0.24881433 -0.1261246
-0.045205586 -0.043905627 -0.01914592 -0.16372332 -0.05781909 -0.105016485 0.162737 0.13978119
0.010083652 -0.19156109 0.17587353 -0.20079567 -0.07532586 0.2187487 -0.10307355 -0.08803502
-0.026623135 -0.07850714 0.08412375 -0.034550726 -0.117546655 0.13101484 0.09183319 -0.054261167
-0.012591216 -0.014456388 -0.19030504 -0.15837525 -0.090041965 -0.17352583 0.19683544 0.14092611
-0.13943216 -0.20052184 0.22467336 0.124563076 -0.050198447 -0.07023499 -0.009900478 0.14917308
0.043045305 -0.014071195 0.11066642 0.050690327 0.10409121 -0.0060810144 -0.09061646 0.18801278
-0.108123116 -0.065346055 -0.13586064 0.15745105 -0.13593309 0.13757314 -0.10387998 -0.112630546
0.056434985 0.097430706 0.1487187 -0.14904821 0.10370312 -0.20931773 0.10440004 -0.11700302
-0.095863305 -0.01739311 -0.091948435 -0.10507028 0.0019503629 0.25509536 0.11657774 0.16671349
0.101192415 0.20476878 -0.09313432 0.06092225 -0.08490085 0.08911193 0.16268963 -0.020492123
0.14530168 -0.1720595 0.033563245 0.2392693 -0.22332494 -0.010573134 0.18761578 -0.10342796
0.036427703 0.08291212 0.14972354 -0.050781675 -0.2167801 0.12767273 -0.07163293 0.09314228
-0.23036149 -0.052501194 0.14240636 -0.022424001 -0.060303167 0.22934324 0.22950263 -0.027331969
0.11861938 0.079699755 0.0068414756 0.09447898 -0.06923764 0.012665854 -0.18399438 0.013006368
-0.06840364 0.13541515 -0.0777351 -0.085419185 -0.07594204 0.049119502 0.04329675 0.12265014
0.11968415 0.046598174 -0.065136306 0.08567186 -0.024879403 -0.118419826 -0.27168342 -0.13920963
0.03341846 -0.091284126 0.16309193 -0.0022992708 0.0017350354 0.0452648 -0.08097444 -0.0070028473
-0.07495544 -0.04332738 -0.07937514 -0.19969316 -0.2718155 -0.037298784 -0.027099293 0.10416641
-0.13492645 -0.12807389 0.2034095 -0.2079332 0.10983937 0.09359018 0.054495342 -0.23126402
-0.1348491 0.14203602 0.21519257 0.1751979 -0.043667175 -0.008886858 0.1079601 0.21691915
0.15694891 -0.06385604 -0.0746357 -0.08356331 0.0033741805 -0.13845935 0.024523323 0.12436704
-0.12940815 0.10676338 -0.1299269 -0.16078122 0.05458724 0.17420106 -0.13215598 0.10002382
0.034294404 -0.18138406 -0.08592837 0.18451498 0.014168305 0.20306833 0.16862898 0.23095323
-0.074450046 -0.004011541 -0.1416727 0.12905301 -0.028828263 0.20396417 0.04403002 0.039355345

fc2.bias f4 [10]
00000000: e9f5 b0bd 2093 d6bb 1685 7dbd a7e6 973d
00000010: 861f 3ebd 7c23 383c 6395 443d 2a75 973d
00000020: 509d 6cbd b933 b1bd
-0.08640654 -0.0065483004 -0.0618945 0.0741704 -0.04641678 0.011238929 0.04799403 0.07395394
-0.057767212 -0.086524434

momentum_buffer f4 [10, 1, 5, 5]
00000000: 52ff dabc b737 09bd 4c35 afbc e172 093b
00000010: 5816 2f3c 327c 13bd 48ff 1ebd fe80 8bbc
00000020: c129 923b 6801 0c3c d2c4 4dbd 0066 4cbd
00000030: 4d44 17bd be60 a0bc b49d 18bc 6cc2 45bd
00000040: ce6a 6dbd 44b8 5bbd 142a 11bd 1aa0 d6bc
00000050: 5697 05bd ecf4 38bd 9d69 39bd de59 17bd
00000060: 2d23 2bbd ccde 9b3a d30d ce3a 6ca6 d039
00000070: 92fc 343a e85b 943a f34f 91b9 aa69 fdba
00000080: bcfd aaba 2c83 c138 9293 55ba 7628 d53a
00000090: 0924 2cbb ec2d c0ba 4ee5 49ba bf83 aabb
000000a0: 8818 9eba 96a3 82bb 340c 9ebb 9cd8 febb
000000b0: 29d9 36bc 8b53 a3bb 56ce c5bb 56cf 0abc
000000c0: 363d 2dbc 715c 7cbc 3b6c 64bc 678b 75bc
000000d0: ec4b 5bbc 9878 81bc cbf4 b0bc 5beb 21bd
000000e0: 5220 77bd 95aa a1bd da0a b2bd 2a66 88bd
000000f0: 7823 51bd a92f 95bd a434 d5bd 86e3 bcbd
00000100: 42b3 9abd 6ef7 8ebc 94e5 dabc a47a 23bd
00000110: a1d9 30bd bec9 33bd 724e df3c 52a8 f03c
00000120: b088 983c ac54 6b3c a09d b13b faec 4bbb
00000130: 78a4 efbb 018a 4bbc 22cc 4dbc d269 49bc
00000140: db17 33bc 7652 a9bc 27e8 f5bc 9302 d9bc
00000150: 169a 84bc 22f8 1bbd a20a 61bd 0809 8dbd
00000160: d953 63bd 5fa3 28bd ec6c 3bbd 0c9d 59bd
00000170: 128d 82bd 844b 84bd b2a5 51bd 19a0 bfbc
00000180: eafd 6ebc a87d d0bc 3450 1fbd 4a23 e3bc
00000190: 3015 03ba 0d7c 03ba 488f a638 cb99 4139
000001a0: ca66 7739 6c54 91ba 40fc 2539 99b8 183a
000001b0: 94cf 5e3a 4b33 9c3a f691 5bbb 8675 17bb
000001c0: 6955 2aba e6e2 88b9 db43 a739 90ea 67bb
000001d0: 79e5 99bb eca4 75bb 4c0f b7ba 8f1b 1f39
000001e0: 92be afba 551a 8fbb 25ea cebb 0919 73bb
000001f0: ec46 89ba d66e e3bc 995f 8ebd 5390 82bd
00000200: f995 cdbc b599 55bc 59f6 19bd dcd1 bdbd
00000210: 4357 c8bd cea8 81bd a710 30bd 5976 3fbd
00000220: 78ee a4bd b505 b1bd eb19 7ebd d218 84bd
00000230: 5553 84bc a981 bebc 4d7b 95bc 507e 12bd
00000240: adbc 1bbd 4e4d 9d3c ec74 b33c 6111 7f3c
00000250: ee57 793c 9b3f fa3c 7872 b8bb 94d1 36bc
00000260: 1110 b4bc 304e 26bd c35f 19bd 1adc bb3a
00000270: e7a3 63bc 0e8a 32bd a61b 7fbd cec8 1fbd
00000280: 820a 34bc a231 d5bc f4e7 4bbd dbf4 62bd
00000290: 133d d8bc 16e4 48bc d9cb 6dbc 0ccb 02bd
000002a0: 35c0 23bd 0c9e 55bc c04f 973a b0ec 5cba
000002b0: b6a7 babc 397b 61bc 34db 84b9 14ab 6cbb
000002c0: 3999 1bbc 0ebd 71bc 8329 bebc cf67 fdbc
000002d0: 522c f4bb 2e34 d3bc 8a86 35bd 108c 73bd
000002e0: 5831 2abd dfe7 10bd ccb1 5ebd 7d9d 9fbd
000002f0: 18fe 7abd 66bd 1bbd 4b83 0fbd ff5a 08bd
00000300: 5eed 33bd ccc4 d2bc 2d0d 81bc 1080 fa38
00000310: 1656 353c a0cf 1a39 26d0 053c 2398 753c
00000320: 568d 98bb 0c16 43ba 06d0 223b 2726 29bc
00000330: 2ef1 69bc c420 c83a 6a49 4f3b 7596 39ba
00000340: f3a8 6fbc f8cb 84bc 8bbd d23b 20a3 ef3b
00000350: 8ce0 3cbb 4ac6 90bc eee9 77bc c0ae ae3a
00000360: 0852 023b 2884 bfbb fd6a 79bc c0c3 e8bb
00000370: d7ff 81bc 5ae6 35bc aa14 79bc 369f a7bc
00000380: 5480 65bc d3d2 e4ba 8855 cb3a 5caf 753a
00000390: 2c63 0939 f286 f8b9 ba8f 15bb e28e 8aba
000003a0: ebb6 b7b9 eef3 90b8 d059 13ba 8dcf 81bb
000003b0: 040a eaba 8fec eeb9 7680 e0b8 6ad7 a2b9
000003c0: 57aa d8bb 78a3 1fbb 7e96 ab39 5e07 7e39
000003d0: b7b5 a138 1610 f7bb fe1f 0ebb 7d38 1238
000003e0: 6054 e2b7 0b1f 023a
-0.026733074 -0.0335004 -0.021387719 0.0020973014 0.0106864795 -0.036007114 -0.038817674 -0.017029282
0.004460544 0.008545257 -0.05023653 -0.049901962 -0.03693037 -0.01957738 -0.009314943 -0.04828112
-0.057963185 -0.053642526 -0.03544052 -0.02619939 -0.03261503 -0.04515545 -0.045266736 -0.03695094
-0.041781593 0.001189196 0.0015720673 0.00039796846 0.0006904091 0.0011318894 -0.00027716122 -0.0019333859
-0.001304559 9.22739e-05 -0.0008147295 0.0016262669 -0.0026266596 -0.0014662123 -0.00077017106 -0.0052036936
-0.0012061754 -0.003986786 -0.004823232 -0.0077772867 -0.011160173 -0.0049843243 -0.00603656 -0.008472284
-0.010573676 -0.015402899 -0.01394182 -0.014986849 -0.0133848 -0.015804574 -0.021601101 -0.039531093
-0.060333557 -0.07893864 -0.08693476 -0.06660111 -0.051059216 -0.07284481 -0.10410431 -0.09223084
-0.07553722 -0.017451968 -0.0267208 -0.03991188 -0.043176297 -0.04389357 0.027259085 0.029377136
0.018619865 0.014363449 0.0054204017 -0.003111659 -0.0073133074 -0.012423039 -0.012560876 -0.012293296
-0.010930981 -0.020669203 -0.030017925 -0.026490485 -0.016186755 -0.038078435 -0.05494178 -0.06886488
-0.055499885 -0.041171428 -0.045758173 -0.053128287 -0.06374563 -0.06459716 -0.05118341 -0.02339177
-0.014586905 -0.025450543 -0.038894847 -0.027726788 -0.00050004106 -0.00050157384 7.942185e-05 0.00018463207
0.00023594048 -0.0011087782 0.00015829597 0.0005825847 0.00084995595 0.0011917142 -0.0033503748 -0.002311082
-0.00064977125 -0.00026108994 0.00031903278 -0.0035387613 -0.0046965447 -0.0037482334 -0.0013966351 0.00015173688
-0.0013408235 -0.0043671527 -0.0063145333 -0.003709378 -0.0010473407 -0.027762812 -0.069518276 -0.06375184
-0.025095927 -0.013037135 -0.03758845 -0.09268543 -0.09782269 -0.06331025 -0.04298463 -0.046743724
-0.08053297 -0.08643667 -0.062036436 -0.064500466 -0.016153017 -0.023255186 -0.018247271 -0.035764992
-0.038021732 0.0192019 0.021906339 0.015568108 0.015218718 0.030547908 -0.00562888 -0.011158366
-0.021980317 -0.04060191 -0.03744484 0.0014332563 -0.013894058 -0.04358869 -0.062282227 -0.03900986
-0.010988833 -0.026024643 -0.049781755 -0.055409294 -0.02639631 -0.012261411 -0.014513933 -0.03193192
-0.039978225 -0.01303817 0.0011544153 -0.0008427603 -0.022785049 -0.013762289 -0.0002534032 -0.0036112713
-0.00949698 -0.014754547 -0.023213154 -0.030933289 -0.0074515725 -0.025781717 -0.04431776 -0.059459746
-0.041550964 -0.03537738 -0.05436878 -0.077937104 -0.06127748 -0.03802242 -0.03503732 -0.033289906
-0.043927543 -0.025728606 -0.015753353 0.000119447825 0.011067888 0.00014763931 0.008167302 0.0149898855
-0.0046555204 -0.0007441945 0.002484323 -0.010324038 -0.014278693 0.0015268554 0.0031629452 -0.000707961
-0.014627683 -0.016210541 0.0064312867 0.007313147 -0.0028820364 -0.017672677 -0.015131457 0.0013327226
0.001988532 -0.0058446117 -0.015223262 -0.0071034133 -0.015869064 -0.011102283 -0.015202681 -0.02046166
-0.014007647 -0.001745785 0.0015513161 0.0009372139 0.00013102283 -0.00047402788 -0.0022821263 -0.0010571147
-0.00035040764 -6.9118905e-05 -0.0005620988 -0.0039615096 -0.0017855768 -0.00045571147 -0.0001070508 -0.00031059544
-0.006612103 -0.002435891 0.00032727787 0.00024226072 7.710925e-05 -0.0075397594 -0.002168655 3.486172e-05
-2.698059e-05 0.0004963732

momentum_buffer f4 [10]
00000000: fa25 8dbc 7101 bbbc 18aa 05bd d39a ecbb
00000010: 5287 4ebb f963 563d 5026 3c3c 3264 fa3c
00000020: 26d3 aebb 5ec2 f3bb
-0.017230023 -0.022827836 -0.032632917 -0.007220605 -0.0031513763 0.052341435 0.011483744 0.030565355
-0.0053352294 -0.007438942

momentum_buffer f4 [20, 10, 5, 5]
00000000: 5f7b f3bb 70ad 96bc 1eb1 bfbc c55c 6fbc
00000010: d972 03bc ab4e 30bc 2bd1 15bd cc87 1bbd
00000020: 506c ecbb ee41 143b 365b 6dbc e148 20bd
00000030: b251 17bd 3169 aeba 76f9 07bb e034 33bc
00000040: a4d1 fbbc 97c8 18bd 0e78 bebc 6fc6 27bc
00000050: 1bca c53b ab4e b5bc 4543 21bd 2c14 00bd
00000060: 5429 d8bc ae32 85bb 5edb 39bb 0143 7339
00000070: 88de 27bb cc19 2cbb 99b8 5cbb ba6b 6e3a
00000080: a599 a73a bcc8 80b9 e076 8cbb bd4c 9c39
00000090: 773c a439 b02e 4d39 f017 cbba 2c1b 45bb
000000a0: fafa 843b 2853 43bb abd3 49bb ecbd e4ba
000000b0: cbd6 45bb 4117 b53a 8223 6aba 0c3f 30ba
000000c0: bda7 83b9 0c69 803a 2a58 c1bc c59c 5abd
000000d0: 4150 43bd d753 91bc 7493 e6bc 408c 7bbd
000000e0: d431 96bd b2f0 05bd 819c 153c 1779 94bc
000000f0: 89fb 8dbd 15c2 6dbd 36b4 06bc 4f49 9e3c
00000100: 0a3d f1bc 14ad 70bd bbd2 41bd 2bc1 eabc
00000110: fad5 9abc 4cce 82bd a4b3 debc 125a 61bd
00000120: bad2 65bd ebfd 8dbd ae57 cfbd 2411 4bbc
00000130: f3b7 12bd 9b9a 24bd 5175 76bc dccf 41bc
00000140: 4a50 09bd a8f7 67bd 1eba 0fbd 75e1 253c
00000150: 6a0c 92bb 0cf5 39bd 7172 66bd 36bc aabc
00000160: 2aa6 003c 014f 3dbc 76c8 c5bc b07f 01bd
00000170: 1c75 cdbc c3af e5bb 0c19 0ebd b54d 0bbc
00000180: d4d7 f2bc de6f 29bd fd22 2abd 3466 88bd
00000190: 6ef4 73b8 36e8 3cb9 8caa b5b9 8891 2437
000001a0: 8a8c 01ba 8164 eeb8 9403 9039 30b5 fb38
000001b0: a504 5d39 9439 d539 50ca 6439 5416 ff39
000001c0: fc9a 4439 4599 063a 954e 073a da28 abb7
000001d0: f83d 1b3a 1450 5239 2221 dc38 24dd 8a37
000001e0: 9e76 2139 cd6c 9739 bd77 7c39 20e8 22b8
000001f0: 6682 3f39 0b67 77bc 90d6 81bd a021 a5bd
00000200: 52fd 1bbd ea25 d7bc b998 63bd 5312 dcbd
00000210: 04a7 95bd 4c9c 6cba a2e6 a0bc b89e 9dbd
00000220: 93e8 c8bd 7570 24bd e5ae 8a3c c433 8fbc
00000230: 2e04 7dbd 7088 9cbd e7e0 1ebd 6e64 b8bb
00000240: 6d09 6cbd ab2e dabc 386f 8cbd f076 99bd
00000250: 4c19 91bd 9a03 d4bd 6c82 f1bc bc79 5fbd
00000260: bd31 ebbc 5805 15bc 18a1 d5bc 468f 6cbd
00000270: d120 8fbd 279d 87bc 7e64 cfba c2bf 1dbd
00000280: cdb4 84bd 39ad 6abd 4232 07bb ae18 4b3c
00000290: 32b1 42bd 2bcb 4abd c0ae 35bd a6e8 01bc
000002a0: f795 36bc 4159 83bd 3ef6 04bd 97b3 67bd
000002b0: cecf 00bd 9343 24bd 6b1d a5bd b464 63bc
000002c0: 570a 49bd 9153 2cbd da7e 71bc 8d1e 99bc
000002d0: cc3e 45bd 68ca 8abd 0c18 dcbc 6c5f 6c3c
000002e0: b683 70bc 21aa 63bd 940b 59bd 9cbf ecba
000002f0: 3691 673c e127 f4bc 7e54 11bd deeb 00bd
00000300: 789a 19bc 9c74 59bb 8047 47bd 4c30 55bc
00000310: ceac 0bbd f762 ecbc 8cbd 37bd 40d1 a5bd
00000320: a8af 7dbc 0d09 b7bc 2be7 4fbc 2499 02bb
00000330: b546 1ebc 8f5c abbc 3360 b9bc 2eba 66ba
00000340: 223f 6b3a ad9a 63bc 4415 abbc 3c88 7bbc
00000350: 3ebf e5ba 145b e2ba 5186 96bc 7294 d8bb
00000360: 56e1 2cbc ab65 9dbb 9737 35bc e9b3 d2bc
00000370: ea9c 1dbc 5b58 7fbc dc84 3ebc dc0b 9ebc
00000380: 2659 fcbc bcf6 a5b9 9280 cdb9 d6a4 27bb
00000390: b956 67ba 4774 0eb9 78ca 6d39 751c 2abb
000003a0: 71d1 82bb e3ee b6ba b5ae 0839 38d5 2d37
000003b0: 6c7d 61bb 64fa aabb 9244 03bb 29f6 2a3a
000003c0: 5343 93b9 1f29 1dbb 83ec 12bb ff6b 29ba
000003d0: a6a5 fa39 e6e4 86b9 9ca8 b7b9 4e42 39ba
000003e0: b876 8bb8 a2ad b03a fcaa 7f3c bc0e 463c
000003f0: d4d3 173c a46f 903c 14c2 583c 80f1 043d
-0.0074304785 -0.018393248 -0.023399886 -0.01460952 -0.008022987 -0.010760943 -0.03657643 -0.037971303
-0.0072150603 0.0022622305 -0.014487078 -0.039132003 -0.036943145 -0.0013306496 -0.0020748056 -0.010937899
-0.030739613 -0.037300672 -0.023250606 -0.010240181 0.0060360557 -0.022132238 -0.039370794 -0.031269237
-0.026386894 -0.0040648794 -0.0028359513 0.00023199247 -0.0025614817 -0.0026260493 -0.0033679365 0.0009095032
0.0012786879 -0.0002456362 -0.004286632 0.00029811813 0.00031325567 0.00019567716 -0.0015494805 -0.003007601
0.004058239 -0.0029804204 -0.003079633 -0.0017451621 -0.003018784 0.0013816134 -0.00089316827 -0.0006723262
-0.00025111242 0.0009796931 -0.02360161 -0.053372163 -0.047683958 -0.017740173 -0.028146483 -0.06141305
-0.07333723 -0.032700248 0.009131552 -0.018124146 -0.06932742 -0.05804642 -0.008221677 0.019322066
-0.029448051 -0.05875881 -0.04732011 -0.028656563 -0.01890086 -0.06387004 -0.027185269 -0.05501754
-0.056109168 -0.06933197 -0.101241454 -0.012394223 -0.03581996 -0.040186506 -0.015042619 -0.011829343
-0.033523835 -0.056632668 -0.035089605 0.010124554 -0.0044570463 -0.04539971 -0.056261484 -0.0208417
0.007852117 -0.0115544805 -0.024143439 -0.031615913 -0.025080256 -0.007009478 -0.034691855 -0.0085024135
-0.02964393 -0.04136645 -0.041537274 -0.06660119 -5.8163358e-05 -0.00018015582 -0.00034650078 9.809046e-06
-0.00049419014 -0.00011367445 0.00027468486 0.000120023615 0.00021077933 0.00040669425 0.00021819142 0.00048654026
0.00018749753 0.0005134533 0.0005161551 -2.0403812e-05 0.0005922015 0.00020056992 0.00010496589 1.6553859e-05
0.00015398345 0.00028882027 0.00024077199 -3.8839993e-05 0.00018263757 -0.015100251 -0.06339753 -0.08063054
-0.038083382 -0.026263196 -0.05556557 -0.107456826 -0.07307246 -0.00090259756 -0.019641224 -0.07696289
-0.09809985 -0.04014631 0.0169291 -0.017480738 -0.061771564 -0.07643211 -0.038788702 -0.0056272065
-0.057626177 -0.026633581 -0.06857151 -0.07493389 -0.07084903 -0.103522494 -0.029481135 -0.054559454
-0.02871024 -0.009095512 -0.026077792 -0.057753824 -0.06988681 -0.016554428 -0.0015822796 -0.038512953
-0.064797975 -0.057294104 -0.0020629321 0.012396021 -0.047532268 -0.049510162 -0.044356108 -0.007929003
-0.011144153 -0.06413508 -0.032461397 -0.056567755 -0.031448178 -0.040103506 -0.08062252 -0.01387899
-0.049082126 -0.042071883 -0.014739716 -0.018691326 -0.04815559 -0.06776887 -0.026866935 0.014427047
-0.01467984 -0.05558217 -0.052989557 -0.0018062475 0.014133742 -0.029804172 -0.03548097 -0.03147494
-0.009375207 -0.0033181077 -0.048652172 -0.013012003 -0.034100346 -0.028855784 -0.0448585 -0.08096552
-0.015483774 -0.022343183 -0.012689392 -0.0019927705 -0.009660413 -0.020918159 -0.02262888 -0.00088015466
0.0008973946 -0.013891858 -0.020884164 -0.015352305 -0.0017528308 -0.0017269575 -0.018374594 -0.006609493
-0.010551771 -0.0048033795 -0.011060617 -0.025720553 -0.009619931 -0.01558503 -0.011628356 -0.019292764
-0.030804228 -0.00031655084 -0.0003919644 -0.0025580428 -0.00088248734 -0.00013585492 0.00022677507 -0.0025956903
-0.0039922525 -0.0013956692 0.00013035054 1.0361247e-05 -0.0034407033 -0.005217837 -0.0020029885 0.0006521666
-0.00028088185 -0.002398081 -0.0022418804 -0.0006462931 0.00047807134 -0.00025729014 -0.00035030104 -0.000706707
-6.6501496e-05 0.0013479481 0.015604731 0.012088474 0.009266812 0.01763136 0.013229866 0.032456875

momentum_buffer f4 [20]
00000000: 3c98 a2bc 4feb 803c be8e c93b f484 9c36
00000010: 5798 98bc da34 9a3c 6304 cc3b 4ffd 633c
00000020: 762b 933c 623c 27bc cfbf a73c c46c 993c
00000030: ea3a 973c 9995 de3b d464 b4bb 98d4 e0b8
00000040: 52b7 37bc a62d 48bc 8441 c0ba c049 36b9
-0.019847982 0.015737204 0.0061510494 4.66464e-06 -0.018627329 0.01882403 0.006226109 0.013915374
0.01796506 -0.0102072675 0.020477204 0.018728621 0.01846071 0.006792736 -0.0055051837 -0.00010720751
-0.011213141 -0.012217915 -0.0014667963 -0.00017384347

momentum_buffer f4 [50, 320]
00000000: f8a5 763c 1a48 583c 8a57 c9bc c5c2 54bd
00000010: 7323 6b3c 1a68 babb 6daf dcbc a4b0 43bd
00000020: 42ad 83bb 4885 e83c d502 e0bc 1c18 5dbd
00000030: fa11 5fbc ca3c 233d de98 edbc ba2c 49bd
00000040: 02ec 31bc eeb3 b3ba e8b7 4bbc 6062 90bc
00000050: ba82 4b3b 8303 7abb fdc3 ccbc 387b 10bc
00000060: eef3 823b 48f8 ebbc 9006 08bd e8b5 21bb
00000070: a624 383c a4b3 c2ba 6706 7dbc 3aa6 21bb
00000080: c033 7b3c fbd2 993c 8990 d7bc f81d 51bd
00000090: 557c 163c d0dc 3cbc 8c4f 32bc 1032 febc
000000a0: 6e6b 9fba b319 333d 992d aabb 87b8 0ebd
000000b0: 7016 2e3c 4652 293d d188 3ebc 2a53 17bd
000000c0: 0000 0000 0000 0000 0000 0000 0000 0000
000000d0: 0000 0000 0000 0000 0000 0000 0000 0000
000000e0: 93b4 8c30 0000 0000 0000 0000 0400 0000
000000f0: ea49 792f 0000 0000 0000 0000 93d3 44b2
00000100: c0d1 77b9 aad6 a5bc b9d9 bdbc c9f9 efbb
00000110: 66f9 98bb 919c 1a3c 123c 26bc a035 6abc
00000120: 0c4f 39bb 4fae c1bb 8d2d 19bd 070c 1a3b
00000130: 73d4 553c e1da 22bd d3db b2bc 6367 093c
00000140: 2cee 1dbb 8121 1cbc 48d1 76bc 823f 9dbc
00000150: 74ad 92bc 982b 0fbd 5ead 95bc 1109 143c
00000160: 229f e8bc 4ac3 36bd b680 9bbc 17b0 523c
00000170: 82be 4c3c e0e4 78ba eed9 48bc e434 75bb
00000180: caaa 173c a2a6 373c f83b 1c3c 7a97 6bbb
00000190: cfd4 a5bc 2042 88bc a8bc 18bc 44cc 6ebb
000001a0: 0645 a8bc f4aa f8bb c8f0 5e3c 6365 723c
000001b0: 4d9e 9c3c ecee 833c 5cbe 6dbb e7dc 8abc
000001c0: d5e0 04bd bcd0 f9bc aa1e 0fbd e00f 21ba
000001d0: f58b ffbc 6b16 f0bc edee cbbc 14a0 edbb
000001e0: cc25 1f3d 80e0 4dbb 44dd 26bd c060 01bd
000001f0: 7097 8b3b f423 00bd f121 93bd 4008 3bbd
00000200: 04fb 603b 9a08 443c 50c5 d7b8 1480 65bb
00000210: 677f aabc 944f a3bc cef6 84bb e1e3 b33b
00000220: 12a7 24bd 179b 4fbc f39e 823c 5905 5e3b
00000230: e0b3 bd3c ce49 17bb cc4a 21bc c08d 34bb
00000240: 5c5f c039 b384 9139 fae9 aa39 30b9 413a
00000250: 6c27 3c3a e04d 9b3a 5ccd 1b3a 6d00 763a
00000260: ca80 42ba 6ebe feba 00e8 8fb7 a86c 8039
00000270: 6583 6fb9 ed6f 423b 39df 8b3b db23 933a
00000280: 5c00 f4b9 6c82 0a3a b602 87bb 7cda 4ebb
00000290: 62aa 92bc 05c1 bdbc b07b 8ebc 616e eabb
000002a0: 94b6 c4bb 4a8c d5bc b9aa 6cbc 7689 ed3b
000002b0: 000e 0c3c d7ae 093c 4f8a f8bb ac16 89bc
000002c0: ea5c abbc 7dba 14bd 98a8 1ebd 3e12 adbb
000002d0: 3ec9 f8bc 6b8a fcbc b612 d0bc c062 e6b9
000002e0: a373 b23c b237 98bb fcd0 f9bc 9eb2 31bc
000002f0: 7ae9 983c f4ac d0bc c96c 24bd c478 cabc
00000300: 5425 4bbc 14ad b9bc 4e44 6bbc b02b adbc
00000310: 2937 8abc c43d a5bc 83a9 9dbc 6a79 b1bb
00000320: 207b 373c 0b3c 23bd 82e8 fbbc bece f83b
00000330: 347d b73b e3f1 2cbd 54dd bcbc eb83 ce3b
00000340: cbfe 5dbb ca95 7aba 882e 27ba 38c0 87ba
00000350: 2dca 00bc b341 07bc 4a84 f9bb 94df 7b3b
00000360: d624 12bc 7a53 70bc 2f5f 0b3b e0cc a23b
00000370: a0a8 1538 c30c 893b 93fb f83b 447f 15ba
00000380: 4635 87b9 d897 81bb 2bbe e0ba 64fd 9ebb
00000390: c2ad ab39 27e7 f23a c6bf d5ba 40e5 e6bb
000003a0: 0ab8 a5ba be85 313a c387 d4bb 88be 02bc
000003b0: a97f 49ba 1763 fa3a 52cc 3e39 6377 a6bb
000003c0: 014c 58b6 6131 bf26 0400 0000 dbfd 42b5
000003d0: aa59 3737 906b f3ae 0400 0000 3e4c 4a37
000003e0: 829b 85b6 2126 da33 0400 0000 4bf5 1639
000003f0: 6b86 85b5 064c c536 633e 8b36 5cf4 12b9
0.0150542185 0.013200784 -0.024577875 -0.05194356 0.0143517135 -0.0056886794 -0.026939118 -0.04777588
-0.0040184567 0.028383866 -0.0273451 -0.05397807 -0.013615126 0.039852895 -0.029003557 -0.04911492
-0.010859491 -0.001371024 -0.012433983 -0.017625034 0.003105326 -0.0038149066 -0.024995798 -0.00881844
0.003996364 -0.028804913 -0.033209383 -0.0024675075 0.011239206 -0.0014854562 -0.015443421 -0.002466573
0.015332162 0.018777361 -0.026314037 -0.05105397 0.0091849165 -0.011527255 -0.010883223 -0.031029731
-0.0012162754 0.04372568 -0.005193424 -0.034843948 0.010625467 0.041338228 -0.011629299 -0.036944546
0.0 0.0 0.0 0.0 0.0 0.0 0.0 0.0
1.0237663e-09 0.0 0.0 6e-45 2.2672678e-10 0.0 0.0 -1.1456808e-08
-0.00023633894 -0.020243961 -0.023175107 -0.007323478 -0.0046684025 0.009436742 -0.010146158 -0.014295012
-0.0028275875 -0.005910672 -0.037396956 0.0023505704 0.01305114 -0.03975952 -0.021833336 0.008386466
-0.002409826 -0.009529472 -0.015064545 -0.019195322 -0.017904975 -0.034953684 -0.018271144 0.009035365
-0.028396193 -0.044619836 -0.018982273 0.012859366 0.0124965925 -0.0009494554 -0.01225899 -0.0037415558
0.009257028 0.011209162 0.009535782 -0.0035948441 -0.020243077 -0.016633093 -0.009322323 -0.003643767
-0.020540725 -0.0075887386 0.013607211 0.01479468 0.019118452 0.016105138 -0.0036276793 -0.016951038
-0.03244098 -0.03049504 -0.034941353 -0.0006144028 -0.031194666 -0.029307565 -0.024894202 -0.007251749
0.038854405 -0.003141433 -0.04073836 -0.03158641 0.004259996 -0.031284288 -0.07184208 -0.045662165
0.0034329304 0.011964941 -0.00010288751 -0.0035018967 -0.020812703 -0.019935407 -0.0040577417 0.0054898118
-0.040198393 -0.012671254 0.015944934 0.00338777 0.02315706 -0.0023084763 -0.009844493 -0.002755031
0.00036692142 0.00027755424 0.00032599253 0.0007389961 0.0007177505 0.001184877 0.00059433817 0.0009384219
-0.0007419704 -0.0019435415 -1.7154962e-05 0.00024495018 -0.00022841764 0.0029668764 0.0042685536 0.0011225896
-0.00046539574 0.00052837166 -0.004120196 -0.0031563332 -0.01790351 -0.023163328 -0.017392963 -0.0071542715
-0.0060032103 -0.026067872 -0.014445 0.0072490526 0.00854826 0.0084035015 -0.007584847 -0.016734444
-0.020918328 -0.03631066 -0.038735002 -0.0052817157 -0.030369397 -0.030827722 -0.025399547 -0.00043942593
0.021783656 -0.0046453113 -0.03049516 -0.010845808 0.018666018 -0.025473095 -0.040142808 -0.024715789
-0.012399036 -0.022665538 -0.014359547 -0.021138996 -0.016872006 -0.020171054 -0.019245869 -0.005416085
0.011198789 -0.039852183 -0.030750517 0.007593005 0.005599642 -0.04222287 -0.023054756 0.006302347
-0.0033873792 -0.00095590635 -0.0006377478 -0.0010356968 -0.007860702 -0.00825541 -0.007614647 0.0038432823
-0.008919915 -0.01466834 0.002126645 0.0049682707 3.5681413e-05 0.0041824295 0.0075983494 -0.0005702863
-0.00025788898 -0.0039548688 -0.0017146518 -0.004851984 0.0003274512 0.0018532024 -0.0016307763 -0.0070463717
-0.0012643349 0.00067719433 -0.0064859106 -0.0079799965 -0.00076865643 0.0019103017 0.00018195927 -0.00508015
-3.2230748e-06 1.3266672e-15 6e-45 -7.264004e-07 1.09285265e-05 -1.10694676e-10 6e-45 1.205789e-05
-3.9818124e-06 1.0158352e-07 6e-45 0.00014396493 -9.948393e-07 5.879908e-06 4.1497856e-06 -0.00014014676

momentum_buffer f4 [50]
00000000: 7a2b 2bbb 1f14 0e3c 0400 0080 de9b 2abc
00000010: 21d4 8a3c 6fb5 393b 413d 72ba 7303 c83b
00000020: b065 c0b9 0400 0000 6887 f6bc fe75 053c
00000030: 7b07 75bb 0400 0000 b0b7 4c3c 38f7 463c
00000040: 3c15 d73b 7e8d 483b 5aaa 69bb f1ae 643c
00000050: 206c ef3b f41a 723b 8209 fc3a 8ed9 62bc
00000060: dfa5 163c 78c5 c3bc 1097 5b3b 7eb2 353b
00000070: 335c f73b f5b4 083c 2cb3 ca3a 0400 0080
00000080: 14c5 62bc 5091 dfba 0400 0000 40d4 773b
00000090: 0400 0000 e5ce 4f3b bbaf 8436 2ba4 d6bb
000000a0: 4803 ffbb f6cf b73c 6e30 773c bec1 733b
000000b0: 299b 8e3c b86e a9bb 968e 33bc 4b5a b8bc
000000c0: fa51 bfbc 2255 483b
-0.0026118443 0.008671789 -6e-45 -0.010413138 0.016946854 0.0028336903 -0.0009240695 0.006103927
-0.00036696857 6e-45 -0.030093864 0.008145807 -0.0037388492 6e-45 0.012494966 0.0121439025
0.0065638106 0.0030601914 -0.0035654516 0.013957725 0.0073065907 0.0036942335 0.0019228908 -0.013845814
0.00919482 -0.023897871 0.0033506788 0.0027724798 0.007548833 0.008343925 0.0015464774 -6e-45
-0.013840932 -0.0017056856 6e-45 0.003781572 6e-45 0.0031709012 3.9543643e-06 -0.006550332
-0.0077823736 0.02243803 0.01508723 0.0037194337 0.01740797 -0.0051706694 -0.010959288 -0.022503993
-0.02335452 0.0030568321
