lecture8/saved_mnists/mnist-4500.pth (torch_old, 177308 bytes, 16 tensors)

conv1.weight f4 [10, 1, 5, 5]
0	0xbe0711e0	-0.13190413
1	0x3e54a094	0.2076438
2	0x3cd6496a	0.026158053
3	0xbe576106	-0.21033105
4	0xbe2e2590	-0.17006516
5	0x3c489b3f	0.012244045
6	0x3e48858b	0.19582193
7	0x3e5e10af	0.21686052
8	0xbda3ea80	-0.08003712
9	0xbe6915af	-0.22762178
10	0x3e9b8eaf	0.30382296
11	0x3eac3510	0.33634233
12	0xbca72b57	-0.020406408
13	0xbd0fad09	-0.03507713
14	0x3d3e982a	0.046531834
15	0x3e3f25a5	0.18666704
16	0x3ea13d0e	0.31491894
17	0xbd94a58f	-0.0725814
18	0x3d4baf2c	0.049727604
19	0xbddba02d	-0.107239105
20	0xbd13e470	-0.036106527
21	0x3e5e6ecf	0.21721958
22	0xbcfc5efa	-0.030807007
23	0x3e8e4558	0.2778728
24	0x3e9b8dc2	0.3038159
25	0xbe2f2d87	-0.17107211
26	0xbe41e390	-0.18934464
27	0xbd77a798	-0.060462564
28	0xbe31ccfc	-0.17363352
29	0xbe1626f7	-0.14663301
30	0xbd1dc1f8	-0.03851506
31	0x3e30ec65	0.17277677
32	0x3e0ae13d	0.13562484
33	0x3d964199	0.073367305
34	0xbe36aee4	-0.17840153
35	0xbe2b5386	-0.1673108
36	0xbda8a480	-0.08234501
37	0x3c9a96b2	0.018870685
38	0xbd16a4fa	-0.036778428
39	0x3e455726	0.19271526
40	0xbe4975d3	-0.19673853
41	0x3d9d2529	0.07673103
42	0xbd3aae6b	-0.045576494
43	0x3cf10ffd	0.02942657
44	0xbe119626	-0.14217433
45	0x3db5d228	0.08877975
46	0xbe2d13ec	-0.16902131
47	0x3c36da6d	0.011160475
48	0xbdbe7616	-0.09299867
49	0x3e3df333	0.18549804
50	0xbdcbc4d4	-0.09949651
51	0x3c8bbbdf	0.017057357
52	0x3cb6ddf0	0.022322625
53	0x3e9cf581	0.30656055
54	0x3d561955	0.052270252
55	0x3e663a14	0.22483093
56	0x3e5cd0ca	0.21564022
57	0x3ee47d9a	0.44627076
58	0x3eeec751	0.4663644
59	0x3eced4a0	0.40396595
60	0x3ea6f871	0.3261142
61	0x3e2b4c8b	0.16728418
62	0x3ee69b3c	0.4504031
63	0x3eb7b34d	0.35878983
64	0x3e176bdc	0.14787239
65	0x3d325d22	0.04354585
66	0x3e8b060d	0.27153054
67	0x3e0bfada	0.13669911
68	0x3e8c233f	0.2737064
69	0x3e18d5cd	0.14925309
70	0x3e818e2b	0.25303778
71	0x3e791b82	0.243269
72	0xbdb960e3	-0.09051683
73	0x3e8294a2	0.25504023
74	0x3e29c7ed	0.16580172
75	0x3dbb6bd7	0.09151428
76	0xbe07c793	-0.13259725
77	0x3e2f36a1	0.17110683
78	0x3e8396ef	0.2570109
79	0x3e34f035	0.17669757
80	0x3e2672ae	0.16254684
81	0xbdd46d5b	-0.103724204
82	0x3e82ee5a	0.25572473
83	0x3de15f85	0.11004547
84	0xbd914e24	-0.07094982
85	0x3dc141c0	0.09436369
86	0x3e99bcea	0.30026942
87	0x3e46eee1	0.19427063
88	0x3e972a18	0.29524302
89	0xbe0d867b	-0.13820831
90	0x3e839b62	0.25704485
91	0x3e127f47	0.14306365
92	0x3ec9b1d0	0.39393473
93	0x3e83e41d	0.25759974
94	0x3d605d65	0.054776568
95	0x3e9e199a	0.30878907
96	0x3c5edb1f	0.013602047
97	0x3e457dd7	0.19286285
98	0xbd75a05a	-0.059967376
99	0x3e0cf2db	0.13764517
100	0xbe02ee0e	-0.12786123
101	0xbcc50e9f	-0.024054823
102	0xbe32dae2	-0.1746631
103	0xbc7f26ad	-0.015573186
104	0xbe35aa20	-0.17740679
105	0x3e35e1c8	0.1776191
106	0x3dbbe057	0.09173649
107	0x3baa8dd5	0.005204896
108	0x3dc5c480	0.0965662
109	0x3d970262	0.07373501
110	0xbdac976f	-0.08427321
111	0xbdadf97f	-0.08494853
112	0xbb8d7ceb	-0.00431787
113	0xbde66da3	-0.1125138
114	0xbdc0eee8	-0.09420568
115	0x3dba63aa	0.09101041
116	0x3e273321	0.16328098
117	0xbe05d2b2	-0.13068655
118	0x3ddd9d0b	0.10820969
119	0xbe317398	-0.17329252
120	0xbd7c564f	-0.061605748
121	0xbe105f25	-0.14098795
122	0x3dfeb423	0.12436702
123	0x3d0fd7c8	0.035117894
124	0x3b5e97c8	0.003396498
125	0x3e09ecda	0.13469258
126	0x3eb6b4b5	0.35684744
127	0x3f003459	0.50079876
128	0x3ee2f7d9	0.44329718
129	0x3d7a3205	0.06108286
130	0xbc8ba7eb	-0.017047843
131	0x3ed8ce43	0.42344865
132	0x3f060f96	0.5236753
133	0x3ef37538	0.47550368
134	0x3d7c9ed8	0.061674923
135	0x3ddb14c5	0.10697321
136	0x3ee1d429	0.44107178
137	0x3eb86899	0.36017302
138	0x3ee28fe9	0.4425042
139	0x3ddea195	0.10870663
140	0x3e6a61c8	0.22888863
141	0x3edca2aa	0.43092853
142	0x3e3f1656	0.18660864
143	0x3eb4119e	0.3516969
144	0x3e0a7c63	0.13524012
145	0x3e88c460	0.26712322
146	0x3e81f285	0.2538034
147	0x3d4ca8ee	0.04996579
148	0xbdbba6dc	-0.09162685
149	0x3d48c0e9	0.0490121
150	0xbdda385d	-0.10655282
151	0x3d0ea6e6	0.034827136
152	0x3e997475	0.29971662
153	0x3ebad1e8	0.3648827
154	0x3eb996db	0.36247906
155	0xbe3c22c5	-0.18372639
156	0xbe1ef689	-0.15523733
157	0x3e4734ec	0.19453782
158	0x3eafa9be	0.3430919
159	0x3e543c7e	0.20726201
160	0xbdf60bdb	-0.1201398
161	0x3dcc7247	0.09982734
162	0x3e338fbf	0.17535304
163	0x3ea7350b	0.32657656
164	0x3eacc405	0.337433
165	0xbe0d39fd	-0.13791652
166	0x3e614aef	0.22001241
167	0x3df549ef	0.11976992
168	0x3db6e82f	0.08931004
169	0x3d2d530e	0.042315535
170	0xbe18279a	-0.14858857
171	0x3e61870a	0.2202417
172	0x3e80ec55	0.25180307
173	0x3e8f9791	0.28045323
174	0x3e5bd5d9	0.21468295
175	0xbe36e645	-0.17861278
176	0xbe076c02	-0.13224795
177	0xbc2051c4	-0.009785119
178	0x3eae5627	0.34050104
179	0x3e7ef30c	0.24897403
180	0x3d8e7a41	0.06956912
181	0xbcf7b096	-0.03023557
182	0x3ea22595	0.31669298
183	0x3e593140	0.21210194
184	0x3e8142dc	0.25246322
185	0x3e23ad19	0.15984
186	0x3d30c0dd	0.04315268
187	0x3ef2794f	0.47358176
188	0x3ec73f89	0.3891566
189	0xbcca3b1b	-0.024686387
190	0x3d889fb2	0.066710845
191	0x3e873fd6	0.2641589
192	0x3eaf811b	0.34278187
193	0x3e1f9750	0.15585065
194	0x3e11b9d6	0.14231047
195	0x3dff606f	0.12469565
196	0x3d728812	0.059211798
197	0x3dccf75a	0.10008116
198	0xbb921fd1	-0.004459359
199	0xbcb03eb3	-0.021514272
200	0x3d6d924b	0.058000844
201	0x3d3089a9	0.043100033
202	0x3d7d7097	0.061874952
203	0xbe044980	-0.12918663
204	0x3e354bd3	0.17704706
205	0xbe132459	-0.14369334
206	0xbdcaa5c7	-0.09894901
207	0xbdf7f48b	-0.1210719
208	0x3e87515e	0.26429266
209	0x3b885ce5	0.0041614645
210	0xbe0531c0	-0.1300726
211	0xbe219936	-0.15781102
212	0xbd5ab860	-0.05339849
213	0x3e097792	0.13424519
214	0xbdfa714b	-0.1222864
215	0x3ceb7861	0.028743925
216	0xbda08984	-0.07838729
217	0x3e6f1791	0.23348834
218	0x3e007e2b	0.1254813
219	0x3db4f1a7	0.08835154
220	0x3e505711	0.20345713
221	0xbd0aafe9	-0.033859167
222	0x3caaf8cd	0.02087059
223	0x3e5295cd	0.20564957
224	0xbcde7668	-0.02715607
225	0x3e3119ae	0.17294952
226	0x3da07023	0.078338884
227	0xbe4771d9	-0.19477023
228	0xbdf060c9	-0.1173721
229	0xbd723452	-0.059131928
230	0x3d4068a3	0.04697479
231	0x3c887d56	0.016661327
232	0xbdc1e83b	-0.094681226
233	0xbd65be77	-0.056089845
234	0x3e471c59	0.19444408
235	0xbdce7685	-0.100811996
236	0xbdc1683a	-0.09443708
237	0xbdacc415	-0.08435837
238	0xbe249e07	-0.16075908
239	0xbdc78da9	-0.097438164
240	0x3de083e4	0.10962656
241	0x3c9747c9	0.018466847
242	0xbdd888df	-0.10572981
243	0x3e0c0d84	0.13677031
244	0x3956adf9	0.0002047344
245	0x3e26002d	0.16211005
246	0xbe3ad2ef	-0.18244527
247	0xbdc62efc	-0.0967693
248	0xbd86f33d	-0.06589363
249	0xbe085038	-0.13311851

conv1.bias f4 [10]
0	0x3e3060d4	0.17224437
1	0x3de28da4	0.11062172
2	0x3c4097c6	0.011754936
3	0x380623e1	3.1981504e-05
4	0xbddbb0a1	-0.10727049
5	0x3e2e13c7	0.16999732
6	0xb68fbee2	-4.283954e-06
7	0x3ae6358d	0.0017563567
8	0x3e5be15d	0.21472688
9	0xbe023d2d	-0.12718649

conv2.weight f4 [20, 10, 5, 5]
0	0x3d857ac1	0.06517554
1	0x3cfae888	0.030628458
2	0xbd51a3a0	-0.051181436
3	0x3cb7c24e	0.022431519
4	0xbd39d4b1	-0.045368854
5	0xbced9bdc	-0.029004984
6	0x3c9a4639	0.018832313
7	0x3d7b90a3	0.061417233
8	0xbc80cacc	-0.015721701
9	0xbdc07757	-0.09397762
10	0xbcbe54a9	-0.023233728
11	0x3d547294	0.051867083
12	0x3e1c8a15	0.15287049
13	0xbd479aeb	-0.048731726
14	0xbd9ef5d6	-0.07761733
15	0xbdce2fc4	-0.10067704
16	0x3de7aa72	0.11311807
17	0x3d5d8a82	0.05408717
18	0xbc9d0abb	-0.019170156
19	0x3cb06109	0.021530645
20	0xbb2db735	-0.0026506905
21	0x3c80e5a0	0.015734494
22	0x3d6c8fcd	0.057754327
23	0x3bfd0cb9	0.007722464
24	0x3d3aacb5	0.045574863
25	0x3d3e71ea	0.046495356
26	0x3c2faa51	0.010721759
27	0xbd1d863e	-0.0384581
28	0x3d5f7f16	0.054564558
29	0xba4967d8	-0.00076830154
30	0xbd6a3341	-0.057177786
31	0x3b32d097	0.0027284974
32	0x3d52d65e	0.051473968
33	0xbd3fb0a8	-0.046799332
34	0xbcf39636	-0.029734712
35	0xbd2fb84b	-0.042900365
36	0xbd5a6f82	-0.053329
37	0x3d069abf	0.03286242
38	0x3d6525bf	0.0559442
39	0x3d8255e6	0.0636404
40	0xbd82a0c5	-0.063783206
41	0x3d24d122	0.040238507
42	0xbb68d394	-0.00355265
43	0xbc988a0a	-0.01862051
44	0x3cd8660a	0.026415844
45	0xbd55e8cf	-0.052223977
46	0x3d437049	0.047714505
47	0xbb6f17e5	-0.0036482748
48	0x3cf32fae	0.029685821
49	0xbd12dccb	-0.035855096
50	0x3d3c3010	0.045944273
51	0x3d864d72	0.0655774
52	0x3d3955da	0.04524789
53	0xbd8740e0	-0.06604171
54	0xbd89a466	-0.0672081
55	0x3d30ad6e	0.043134145
56	0x3dcf5069	0.10122759
57	0xbd6cf17d	-0.05784749
58	0xbe371384	-0.17878538
59	0xbd864c18	-0.065574825
60	0x3cac3d7a	0.021025408
61	0x3d851b3a	0.06499334
62	0xbd6f4ce0	-0.058422923
63	0xbe3ec90a	-0.18631378
64	0xbd9c3819	-0.07627887
65	0x3d4ae2a8	0.049532562
66	0x3de6e233	0.11273613
67	0xbcd08543	-0.02545417
68	0xbda39b4c	-0.07988605
69	0xbca86abb	-0.020558706
70	0xbbb4e8bf	-0.0055209096
71	0x3dcd726a	0.100315884
72	0x3dbd5afa	0.09245868
73	0x3ca68f97	0.02033214
74	0x3d74c5d5	0.05975898
75	0xbd237141	-0.03990293
76	0x3d8b83ea	0.0681227
77	0x3d94b66f	0.07261359
78	0x3c90de5c	0.017684154
79	0xbcb76712	-0.022388015
80	0xbb9802da	-0.004639012
81	0x3db4978b	0.08817967
82	0x3de441e2	0.11145379
83	0xbdcbc16f	-0.09949004
84	0xbd30b612	-0.043142386
85	0x3d122a78	0.035685033
86	0x3e210fbf	0.15728663
87	0xbd2f9c2c	-0.042873546
88	0xbdbdbdc5	-0.09264711
89	0xbda3be38	-0.07995266
90	0x3d8d3326	0.068945214
91	0xbad598b4	-0.001629612
92	0x3d84887b	0.06471344
93	0x3c96131c	0.018319659
94	0x3d4d94a8	0.050190598
95	0xbd4a928d	-0.049456168
96	0x3d192b1f	0.03739464
97	0x3dbb8616	0.09156434
98	0x3d92371f	0.0713942
99	0x3d743b2d	0.059626747
100	0x3d70449d	0.058659185
101	0x3cd91010	0.026496917
102	0xbd347cdb	-0.044064384
103	0x3cf54a62	0.029942695
104	0x3d50a831	0.05094165
105	0x3c146cff	0.00905919
106	0xbd2308dd	-0.039803375
107	0xbcc39d87	-0.023878826
108	0x3c2532af	0.010082885
109	0xbc2a155a	-0.010381067
110	0x3c8e4b0a	0.017369766
111	0xbd437573	-0.04771943
112	0xbc42b817	-0.011884711
113	0x3b605b72	0.0034234193
114	0xbc7fada1	-0.015605361
115	0x3d4f3a85	0.050592918
116	0xbc194f29	-0.009357252
117	0x3d2886a7	0.04114404
118	0x3d1172c0	0.035509825
119	0x3bb30a51	0.0054638763
120	0x3ca8d002	0.020606998
121	0xba9c53f3	-0.0011926874
122	0x3d2dd7c4	0.0424421
123	0xbcafd572	-0.021464083
124	0x3d1da5d5	0.038488228
125	0xbd7331b8	-0.059373587
126	0x3b103f8b	0.002201053
127	0x3de97567	0.11399346
128	0xbd3eb2d7	-0.046557274
129	0xbdb49cd5	-0.08818976
130	0xbd12d039	-0.035843108
131	0x3de01cd9	0.10943002
132	0x3e051d17	0.12999378
133	0xbe154f3b	-0.14581005
134	0xbd6dbd79	-0.058042023
135	0x3d61c678	0.055120915
136	0x3e2b6154	0.16736346
137	0x3d8bd0b8	0.06826919
138	0xbe62d673	-0.22152118
139	0xbdea96e8	-0.11454564
140	0x3c9a31db	0.018822601
141	0x3e0f83af	0.14015077
142	0x3c9acbef	0.018896071
143	0xbdc441f2	-0.095828906
144	0x3b98d901	0.0046645408
145	0xbd8a5e24	-0.06756237
146	0x3df0730b	0.11740693
147	0x3d911dd4	0.070857674
148	0x3c01c748	0.0079210475
149	0x3ca55341	0.0201813
150	0x3d68bac2	0.05681873
151	0x3dc8d163	0.09805562
152	0x3c274280	0.010208726
153	0x3c310984	0.010805491
154	0xbd89c4a3	-0.067269586
155	0x3dc32a44	0.09529546
156	0x3e3e8ab6	0.18607602
157	0xbd6281b4	-0.055299476
158	0xbd0fed79	-0.03513858
159	0xbcdbe695	-0.026843349
160	0x3e389d5d	0.1802878
161	0x3e2b08c1	0.16702558
162	0xbe0bd63d	-0.13655944
163	0xbcfacc85	-0.0306151
164	0xbc145189	-0.009052643
165	0x3ddbc614	0.1073114
166	0x3dbb2912	0.09138693
167	0xbd8c6d6e	-0.068568096
168	0xbda2b834	-0.0794529
169	0xbb39046e	-0.00282314
170	0x3d60ab7a	0.054851033
171	0x3db7394c	0.089464754
172	0x3d28ad1d	0.04118072
173	0xbce2c0d7	-0.027679844
174	0xbd4ae80e	-0.04953771
175	0xbbca57f4	-0.0061750356
176	0xbcbe5284	-0.023232706
177	0x3d9ed60b	0.07755669
178	0xbd0df40d	-0.034656573
179	0xbc7f2aef	-0.015574201
180	0x3ce2be6f	0.027678696
181	0x3dc6f7dd	0.09715245
182	0x3cb19f95	0.02168254
183	0xbe14ca0d	-0.14530201
184	0xbd950474	-0.0727624
185	0x3dac48a2	0.08412291
186	0x3dfdf590	0.12400353
187	0xbe0e38ab	-0.13888805
188	0xbdbc28e5	-0.091874875
189	0xbd8bc1ed	-0.06824098
190	0x3dcdcda3	0.10048988
191	0x3d908e65	0.070584096
192	0x3a6b06d8	0.00089655584
193	0xbb91dd1b	-0.0044514067
194	0xbd1e4f9d	-0.038650144
195	0xbcb2fd8e	-0.02184942
196	0x3a1becda	0.00059480744
197	0xbd1c8cd6	-0.03822025
198	0xbbff0d12	-0.0077835405
199	0x3b7820ce	0.003786135
200	0xbc6b32c6	-0.014355367
201	0x3c50d05d	0.01274499
202	0x3c60427b	0.013687725
203	0xbd6eb580	-0.05827856
204	0xbd978e9c	-0.074002475
205	0x3cfd05c2	0.030886535
206	0x3dbaa73d	0.091139294
207	0xbd44f698	-0.048086733
208	0x3cd4ca5e	0.025975402
209	0xbc798d1f	-0.0152314
210	0x3d1702b8	0.036867827
211	0x3d42a189	0.047517333
212	0x3c1b555d	0.009480801
213	0xbcc72421	-0.02430922
214	0x3ce2ea46	0.0276996
215	0x3d8f8459	0.07007665
216	0xbc9eb834	-0.019374944
217	0xbaa7387e	-0.0012757925
218	0x3d22223f	0.03958344
219	0x3d29246a	0.041294493
220	0xbb402191	-0.0029316882
221	0x3d55f26f	0.052233156
222	0xbd442866	-0.04789009
223	0xbc0e32e4	-0.008679125
224	0x3d12bc23	0.035823952
225	0x3d52fbf5	0.051509816
226	0xbd29d606	-0.041463874
227	0x3d85a843	0.06526234
228	0xbc8723e0	-0.016496599
229	0xbd39b235	-0.045335967
230	0xbd44614f	-0.047944363
231	0x3c4ae1b7	0.012382916
232	0x3d5ef776	0.054435216
233	0xbd25413b	-0.04034541
234	0x3d4df783	0.050284874
235	0xbd058719	-0.032599542
236	0xbc61b254	-0.013775427
237	0x3cd44c85	0.025915394
238	0xbcda7513	-0.026667153
239	0xbd649631	-0.055807296
240	0x3b364c24	0.002781638
241	0xbce0715f	-0.02739781
242	0xbc8cd735	-0.017192462
243	0xbd345ed9	-0.044035766
244	0xbd1d9b34	-0.03847809
245	0xbcdaff31	-0.026733013
246	0xbc2b47c5	-0.010454123
247	0xbbba787d	-0.005690633
248	0x3c8fa058	0.017532513
249	0xbd28f093	-0.041245054
250	0x3985d8a3	0.00025529144
251	0x3c1b3273	0.009472477
252	0x3c990bb8	0.018682346
253	0x3d3c9ad4	0.046046093
254	0xbd2c840b	-0.042118113
255	0x3cec0f8a	0.028816003

conv2.bias f4 [20]
0	0x3cd0bc84	0.025480516
1	0x3b265487	0.0025379972
2	0xbd87ce4e	-0.06631146
3	0xbd816518	-0.0631811
4	0x3d40cc1c	0.047069654
5	0x3d2c1b5e	0.042018287
6	0x3da0d64f	0.07853376
7	0xbd4342fc	-0.047671303
8	0x3d1d740c	0.03844075
9	0xbc1fa276	-0.009743324
10	0xbbd00f39	-0.006349471
11	0x3c2afd67	0.010436392
12	0xbb347601	-0.0027536156
13	0xbd79da5d	-0.060999263
14	0xbd50403a	-0.0508425
15	0x3c838c10	0.016057998
16	0x3bab8553	0.0052343993
17	0x3d9d0f34	0.076689154
18	0x3db18dd5	0.086696304
19	0x3c2ffb13	0.010741013

fc1.weight f4 [50, 320]
0	0xbcf9c0c0	-0.030487418
1	0xbc8bd535	-0.017069438
2	0x3da4cf54	0.08047357
3	0x3dc02b48	0.09383255
4	0xbd8d98d6	-0.06913917
5	0xbd8da19c	-0.0691559
6	0x3cbc529e	0.022988614
7	0x3c83fbc7	0.016111268
8	0xbd619bfd	-0.055080403
9	0xbd866426	-0.065620705
10	0x3cec9190	0.028878003
11	0xbd3812f0	-0.044939935
12	0x3d322ca9	0.043499622
13	0xbd9c9ee1	-0.07647491
14	0xbd31f945	-0.043450613
15	0x3cc611c8	0.0241784
16	0xbb87880d	-0.0041360916
17	0xba87a6a4	-0.0010349345
18	0x3dc39bac	0.095511764
19	0x3d604e63	0.054762255
20	0xbd3a9522	-0.04555238
21	0x3c5ec7b7	0.01359742
22	0xbd584b63	-0.05280627
23	0xbd13b62c	-0.036062405
24	0xbd2ddd79	-0.04244754
25	0x3c3a21f8	0.011360638
26	0x3d2f4929	0.04279438
27	0x3d723288	0.05913022
28	0xbd0ff1f9	-0.035142872
29	0xbcabd8bb	-0.020977369
30	0x3c71f287	0.014767296
31	0xbc2ea067	-0.01065836
32	0x3d0fcd30	0.03510779
33	0xbcf4de75	-0.029891232
34	0x3da796c7	0.08183055
35	0x3ddcbef1	0.10778607
36	0xbc4a044e	-0.012330128
37	0xbddb2837	-0.1070103
38	0x3cba6a86	0.022755872
39	0x3d187820	0.037223935
40	0x3cb142ea	0.021638352
41	0x3cbae237	0.022812946
42	0x3d292ca9	0.041302357
43	0xbd867e59	-0.06567068
44	0x3d276aaa	0.040873207
45	0x3bf5a6b3	0.0074966787
46	0xbd8cbcb6	-0.06871931
47	0xbcc6794c	-0.02422776
48	0x3d030646	0.031988405
49	0xbd1ccc7b	-0.038280945
50	0xbd173723	-0.036917817
51	0x3cbb6c0c	0.02287867
52	0xbd33e4ca	-0.043919362
53	0xbd575c41	-0.052578215
54	0x3d5292b4	0.05140944
55	0xbd186835	-0.037208755
56	0x3d4bc4d8	0.04974827
57	0xbbac9cb8	-0.005267706
58	0x3d4380ac	0.047730133
59	0x3b8aae4b	0.004232203
60	0xbc27b92a	-0.010237018
61	0x3cff70c0	0.031181693
62	0x3d139a62	0.036035903
63	0xbd1ac50c	-0.037785575
64	0x3cba75be	0.022761222
65	0x3d52e6f9	0.051489804
66	0x3caab0fa	0.020836342
67	0x3cdfb45a	0.027307678
68	0x3babecfd	0.005246757
69	0x3c009d32	0.007849978
70	0x3a8b72ee	0.001063911
71	0x3a978013	0.0011558555
72	0x3ce10143	0.027466422
73	0x3caf52a7	0.021401716
74	0xbdbdbdd0	-0.092647195
75	0xbd958364	-0.073004514
76	0xbce88194	-0.0283821
77	0xbd1873bd	-0.03721975
78	0xbcb97d69	-0.022642808
79	0x3c93d554	0.018046059
80	0x3d8f91d2	0.07010235
81	0x3d643331	0.055712882
82	0x3d3bcec1	0.045851473
83	0xbc703fc0	-0.014663637
84	0x3d16e59d	0.03684007
85	0xbcd11a6c	-0.025525294
86	0xbca4cb05	-0.020116339
87	0x3cd1b52b	0.025599083
88	0xbd1a4fdd	-0.03767382
89	0x3c39d5a3	0.011342439
90	0x3c35946b	0.011082749
91	0xbcc82312	-0.024430785
92	0x3c73247e	0.014840243
93	0x3cba6588	0.022753492
94	0x3cdf5772	0.027263377
95	0xbc9783e1	-0.018495502
96	0xbce46a15	-0.027882615
97	0xbce25a75	-0.027631024
98	0xbd11daab	-0.03560893
99	0xbd010b07	-0.031504657
100	0x3b9ae6f1	0.0047272374
101	0x3ca03130	0.019554704
102	0x3be82705	0.0070847296
103	0x3db6d27a	0.08926864
104	0xbb7195f5	-0.0036863063
105	0x3cabe0fd	0.020981306
106	0x3d6f1082	0.058365352
107	0xbdaa183f	-0.08305406
108	0x3c3d1cdf	0.011542528
109	0xbd7b8f25	-0.06141581
110	0xbc060250	-0.008179262
111	0xbd1a1748	-0.03761986
112	0xbd529778	-0.051413983
113	0xbda033c8	-0.078223765
114	0x3d0037b6	0.03130313
115	0xbd29e266	-0.041475676
116	0xbd75534a	-0.059893884
117	0x3d6f7797	0.05846366
118	0x3d790413	0.0607949
119	0x3cab6db9	0.020926343
120	0xbd6f0cf9	-0.05836198
121	0xbd250d2f	-0.040295776
122	0xbce93721	-0.02846867
123	0xbd406599	-0.04697189
124	0xbb74a0df	-0.0037327332
125	0x3bec87dc	0.007218344
126	0x3da6f249	0.08151681
127	0x3d941a0c	0.072315305
128	0x3bd43af5	0.006476755
129	0xbc529133	-0.012852001
130	0xbd0c221a	-0.03421221
131	0xbd83bf96	-0.064330265
132	0x3cbc613f	0.02299559
133	0xbd33b995	-0.043878157
134	0x3d29ca32	0.041452594
135	0x3cc863d3	0.024461662
136	0x3d07d486	0.033161663
137	0x3dddb38d	0.10825262
138	0x3be625d1	0.007023551
139	0xbd3f15de	-0.046651714
140	0xbd1a4aa4	-0.03766884
141	0x3d7e75f7	0.06212422
142	0xbc5d1428	-0.013493575
143	0x3d2d733d	0.042346228
144	0xbb891fd9	-0.0041847047
145	0x3cb43d3f	0.02200186
146	0xbcb4c2de	-0.022065576
147	0xbbfcfc36	-0.0077204956
148	0x3ca16c7a	0.019705046
149	0x3d55f550	0.0522359
150	0xbd2cee4d	-0.04221945
151	0x3d210194	0.039308146
152	0xbcc47d85	-0.023985634
153	0xbcc5a8fa	-0.024128426
154	0xbc9540ed	-0.018219436
155	0xbd2be502	-0.041966446
156	0xbd51cf0e	-0.051222853
157	0xbd5f8070	-0.054565847
158	0xbc344b14	-0.011004228
159	0xbc8a0199	-0.016846465
160	0x3d68ea76	0.056864224
161	0x3d658f89	0.05604509
162	0xbcbc0ba6	-0.022954773
163	0xbd4a11f8	-0.049333543
164	0x3cb48349	0.022035258
165	0x3d610b25	0.05494227
166	0x3d3bd9df	0.045862075
167	0x3b07538d	0.0020649165
168	0xb9ffc388	-0.00048783072
169	0x3caa7e1b	0.020812085
170	0x3d73da91	0.059534613
171	0x3c7b5b22	0.015341552
172	0xbd5fcfae	-0.05464142
173	0xbc94c889	-0.018162029
174	0xbc93f549	-0.018061297
175	0xbd269935	-0.040673453
176	0xbc52a0ca	-0.012855718
177	0x3cf1253d	0.029436702
178	0x3d102be0	0.035198092
179	0xbd452769	-0.048133288
180	0x3cca90a0	0.024727166
181	0x3d4cdcd2	0.05001528
182	0x3d34564d	0.044027615
183	0x3d2afdde	0.041746013
184	0xbb62e28f	-0.0034619903
185	0xbc39e8a2	-0.011346968
186	0x3ba30ff7	0.0049762684
187	0xbd244a33	-0.040109824
188	0xbd681d6b	-0.05666868
189	0x3c02c974	0.0079826005
190	0xbd10a411	-0.035312716
191	0x3ceafc17	0.028684659
192	0xbca8c843	-0.020603305
193	0x3d78e379	0.06076381
194	0x3d276716	0.040869795
195	0x3db5a468	0.08869249
196	0x3b977ea5	0.0046232515
197	0x3d8810d6	0.06643836
198	0x3d6c3f04	0.057677284
199	0x3d25c607	0.040472057
200	0xbdaaed45	-0.08346037
201	0xbcbe4c85	-0.023229847
202	0xbc669ccb	-0.014075468
203	0x3ca4982a	0.020092089
204	0xbd354704	-0.04425718
205	0xbc08e823	-0.008356127
206	0x3d57c70f	0.05268007
207	0x3b90098d	0.00439567
208	0x3d0e8e7d	0.034803856
209	0x3d5f8e40	0.05457902
210	0xbc72ce6a	-0.014819721
211	0xbd786f39	-0.060652945
212	0x3a32ce48	0.00068208994
213	0xb76c65fa	-1.4090439e-05
214	0x3cb3e4cb	0.021959683
215	0x3d172b8b	0.03690676
216	0x3d0376f0	0.03209585
217	0xbcbfc7cb	-0.023410698
218	0x3d4325c6	0.047643445
219	0x3cdc3b14	0.02688364
220	0xbd8263d7	-0.06366699
221	0xbd4b7f76	-0.049682103
222	0xbd211f62	-0.03933657
223	0x3b291b9f	0.0025803817
224	0x3d1c0498	0.03809032
225	0x3c9436f4	0.01809261
226	0x3d14db69	0.03634206
227	0x3c0456d7	0.008077345
228	0xbd159535	-0.036519248
229	0xbcae9d6e	-0.021315303
230	0xbd306b7f	-0.043071266
231	0xbd016933	-0.031594466
232	0xbcab96e3	-0.020945972
233	0x3b9fc24e	0.004875458
234	0xbd0f0424	-0.03491606
235	0xbd0ef823	-0.03490461
236	0x3cc9c61b	0.024630597
237	0x3ca15260	0.0196926
238	0x3c6921fd	0.014229295
239	0x3d7c03d6	0.061527096
240	0x3d28ca80	0.041208744
241	0x3b740d8f	0.0037239527
242	0x3cc0aec6	0.023520838
243	0xbd4920ed	-0.049103666
244	0x3c8ae741	0.016955974
245	0x3d5a703f	0.053329702
246	0xbba448d0	-0.0050135627
247	0xbcc7330e	-0.024316337
248	0xbd245778	-0.04012248
249	0x3d2dc6ad	0.0424258
250	0x3d4a56fc	0.04939936
251	0xbb88b776	-0.004172261
252	0x3c6d1d4f	0.01447232
253	0x3d14249f	0.036167737
254	0xbd52cb04	-0.051463142
255	0x3bbed00e	0.005823142

fc1.bias f4 [50]
0	0x3cc69056	0.024238747
1	0xbd27fe10	-0.041013777
2	0xbd14a0a6	-0.03628602
3	0x3d18ce07	0.037305858
4	0x3cfcde63	0.030867761
5	0x3d74bf81	0.059752945
6	0xbc1c3811	-0.009534852
7	0xbc80837f	-0.015687702
8	0xbbcfecf4	-0.0063453857
9	0xbd22a8ca	-0.03971175
10	0x3d093c36	0.033504687
11	0x3cc81a00	0.02442646
12	0x3cc8068f	0.02441719
13	0xbd6a7b0c	-0.057246253
14	0xbb8f28c0	-0.0043688715
15	0x3d55c7fc	0.052192673
16	0x3d88c43e	0.06678055
17	0xbc9ad57a	-0.018900622
18	0x3d02e1e5	0.03195371
19	0x3cd683a8	0.026185825
20	0xbd10a242	-0.03531099
21	0x3b35b7dc	0.0027727997
22	0xbc21f985	-0.00988615
23	0xbc740f0f	-0.014896168
24	0x3c927ff7	0.017883284
25	0x3cc56cce	0.024099734
26	0x3d804553	0.062632225
27	0x3c90e8b9	0.017689096
28	0xbc8deca6	-0.017324757
29	0x3d1e5407	0.038654353
30	0xbd02b6b5	-0.031912524
31	0x3a23f967	0.00062551204
32	0xbc9ef909	-0.019405859
33	0xbc8967e7	-0.016773177
34	0xbb33b38e	-0.0027420255
35	0xbcf9c161	-0.030487718
36	0xbc941faa	-0.018081505
37	0x3d3ac766	0.045600317
38	0xbd62fc82	-0.05541659
39	0x3d0447cb	0.03229503
40	0x3d896da2	0.06710364
41	0xb97362fd	-0.00023211162
42	0x3c72c4d1	0.0148174325
43	0xbb838fe3	-0.0040149554
44	0x3d0c5e11	0.034269396
45	0xbcb373a5	-0.02190573
46	0x3c805518	0.015665576
47	0x3cffda6b	0.03123208
48	0x3d8c9d8e	0.06865989
49	0xbb6e208d	-0.003633532

fc2.weight f4 [10, 50]
0	0xbe49e575	-0.19716437
1	0xbe33e50f	-0.17567848
2	0xbe0b6ac6	-0.1361495
3	0xbe6658d8	-0.22494829
4	0x3e0d9dd3	0.13829736
5	0x3de2ab47	0.11067825
6	0xbd73fbf4	-0.059566453
7	0x3d9cd782	0.07658292
8	0x3e2840e5	0.16431005
9	0x3e11249a	0.14174119
10	0xbdc86175	-0.097842135
11	0xbe5addd0	-0.21373677
12	0x3e47edae	0.19524261
13	0x3da232bc	0.07919833
14	0x3dfd9c38	0.12383312
15	0x3da1eddd	0.07906697
16	0xbdf6e2e9	-0.120549984
17	0x3d33ef99	0.04392967
18	0xbe7c3705	-0.24630363
19	0xbe1e6408	-0.15467846
20	0x3c43eaa4	0.011957798
21	0xbd76212c	-0.06009023
22	0x3e6a1b60	0.22862005
23	0xbd2ce71d	-0.042212594
24	0xbddffab8	-0.10936493
25	0x3c591e7b	0.013251896
26	0x3b398cf2	0.002831277
27	0xbe8251c4	-0.25453007
28	0x3de836bf	0.11338567
29	0x3e25bf9f	0.16186379
30	0x3e56ee05	0.20989235
31	0xbde3aa2b	-0.11116441
32	0x3e87d2c2	0.26527983
33	0x3ccf9f4b	0.025344511
34	0x3ceb5411	0.02872661
35	0xbdec24f5	-0.115304865
36	0x3cf2eece	0.029654887
37	0xbc8163be	-0.015794631
38	0xbcb81485	-0.022470722
39	0xbd00d518	-0.031453222
40	0x3d8dadb1	0.06917895
41	0x3e1c9543	0.15291314
42	0x3da7c9b3	0.08192768
43	0x3e167916	0.14694628
44	0xbdfe881f	-0.12428307
45	0xbdf155a7	-0.11783915
46	0x3da545c5	0.08069948
47	0xbe34a1ac	-0.17639798
48	0xbdacf31f	-0.08444809
49	0xbd91ab4d	-0.07112751
50	0x3e787a44	0.2426539
51	0xbd5c1627	-0.053732064
52	0x3d6e906f	0.05824321
53	0x3df1b4a6	0.11802034
54	0xbdc69d8a	-0.09698017
55	0xbeb5633b	-0.3542727
56	0x3e119cfc	0.14220041
57	0x3d3e92c6	0.046526693
58	0x3cfa0093	0.030517852
59	0x3d7e7dba	0.06213162
60	0x3e90ae9d	0.2825822
61	0x3e29e9dd	0.16593118
62	0xbe84e76e	-0.25957817
63	0xbe012ec3	-0.12615494
64	0xbd0903ab	-0.033450764
65	0xbc895574	-0.01676438
66	0xbd1f121c	-0.03883563
67	0xbe314332	-0.17310789
68	0xbd95be31	-0.07311667
69	0xbdad45bc	-0.084605664
70	0x3e6c2b21	0.23063327
71	0x3e05b01d	0.13055463
72	0x3d44c462	0.048038848
73	0xbe3ffd81	-0.18749048
74	0x3e421ac1	0.18955518
75	0xbe720f7f	-0.23638724
76	0xbd9c0f36	-0.07620089
77	0x3e66dc73	0.22545032
78	0xbda7e52e	-0.081980094
79	0xbdbb1bea	-0.091361836
80	0xbcdf4ea9	-0.027259188
81	0xbda0c85a	-0.07850714
82	0x3dfbb595	0.122904934
83	0xbb35e52a	-0.0027755
84	0xbdf0bc4d	-0.117546655
85	0x3e070f66	0.13189468
86	0x3dbc130a	0.09183319
87	0xbd35f271	-0.044420663
88	0xbc4e5928	-0.012594499
89	0xbc21749c	-0.009854462
90	0xbe36783e	-0.17819306
91	0xbe1e44a2	-0.15455869
92	0xbdcfb305	-0.10141567
93	0xbe2a02d3	-0.1660264
94	0x3e793d47	0.24339782
95	0x3e15ab06	0.14616022
96	0xbddcc3a2	-0.107795015
97	0xbe4fbdf2	-0.20287302
98	0x3e552362	0.20814279
99	0x3defa0c4	0.117005855
100	0xbd869091	-0.065705426
101	0xbc8dad8a	-0.017294664
102	0xbc223907	-0.009901292
103	0x3e308f76	0.17242226
104	0x3d896e91	0.06710542
105	0xbc6a969a	-0.014318133
106	0x3dd1aac2	0.102376476
107	0x3d295831	0.04134387
108	0x3e07955b	0.13240568
109	0xbbc2d6d8	-0.0059460215
110	0xbdc3854e	-0.0954691
111	0x3e361dad	0.17784758
112	0xbddd7932	-0.10814132
113	0xbd85c015	-0.06530777
114	0xbe30c395	-0.17262109
115	0x3e5062cd	0.2035019
116	0xbe2e8210	-0.17041802
117	0x3e42f467	0.19038545
118	0xbe1ad256	-0.151193
119	0xbd95cb87	-0.073142104
120	0x3d39bc40	0.045345545
121	0x3da0e16b	0.07855495
122	0x3df82c82	0.12117864
123	0xbe34ce48	-0.17656815
124	0x3e020f9f	0.12701271
125	0xbe884ba4	-0.2662021
126	0x3df77cc7	0.12084346
127	0xbe169d83	-0.14708523
128	0xbe1583f1	-0.14601113
129	0xbc035682	-0.008016231
130	0xbdfacede	-0.12246488
131	0xbdd72f16	-0.10507028
132	0xbd847187	-0.06466966
133	0x3e8081d4	0.2509905
134	0x3deec04f	0.11657774
135	0x3e385a9f	0.18003319
136	0x3dcf3df8	0.101192415
137	0x3e5e5239	0.21711053
138	0xbdbf0267	-0.0932663
139	0x3d26e990	0.040750086
140	0xbde3160b	-0.11088189
141	0x3e1409e8	0.14456904
142	0x3e5899ef	0.21152471
143	0x3c247e89	0.010039934
144	0x3e051cbf	0.12999247
145	0xbe41d85d	-0.18930192
146	0xbc0b8c95	-0.008517404
147	0x3e834062	0.25635058
148	0xbe8e0f80	-0.277462
149	0xbcc10d10	-0.023565799
150	0x3e29f24b	0.16596334
151	0xbdb7fcb2	-0.08983745
152	0x3d1533ed	0.036426473
153	0x3dd41146	0.10354857
154	0x3e24dbb8	0.16099441
155	0xbd13cd13	-0.036084246
156	0xbe88871f	-0.2666559
157	0x3e2aab12	0.1666682
158	0xbdcfbc2b	-0.10143312
159	0x3dbec13e	0.09314202
160	0xbe89969e	-0.26872724
161	0xbc361755	-0.011113961
162	0x3e3900f6	0.18066773
163	0xbcb7b6b2	-0.022425983
164	0xbd4ee294	-0.05050905
165	0x3e635079	0.22198667
166	0x3e881b20	0.26583195
167	0xbda84bdc	-0.08217594
168	0x3e201183	0.1563168
169	0x3d8b2870	0.06794822
170	0xbc3bc661	-0.011460871
171	0x3dd36099	0.10321159
172	0xbdee2210	-0.11627591
173	0xbd2931ff	-0.041307446
174	0xbe4f0698	-0.20217359
175	0x3d107d8e	0.03527599
176	0xbd77f7d4	-0.06053908
177	0x3e1f4a99	0.155558
178	0xbdaf68d8	-0.08564919
179	0xbde6f4e3	-0.11277177
180	0xbdc10e6f	-0.09426581
181	0x3d493188	0.049119502
182	0x3d99391a	0.074815944
183	0x3e0d8e01	0.13823701
184	0x3df51cf7	0.11968415
185	0x3d53fa06	0.051752113
186	0xbd85662f	-0.065136306
187	0x3da864c8	0.082223475
188	0xbccfdf2e	-0.025374975
189	0xbe03f7b6	-0.12887463
190	0xbe96a749	-0.29424503
191	0xbdfb40c3	-0.12268212
192	0x3d0b862e	0.03406351
193	0xbdebaa58	-0.115071
194	0x3e4ecc3f	0.20195101
195	0xbc985d99	-0.018599318
196	0xbca73de8	-0.020415261
197	0x3d04b38e	0.0323978
198	0xbda43e3c	-0.08019683
199	0xbb9a5b14	-0.0047105644
200	0xbd744c97	-0.059643354
201	0xbd7faa2e	-0.062418155
202	0xbda28f6f	-0.07937514
203	0xbe80da78	-0.25166678
204	0xbe945fd9	-0.28979376
205	0xbda8d744	-0.08244184
206	0x3a86aa91	0.0010274221
207	0x3e155f3c	0.1458711
208	0xbe2056fc	-0.15658182
209	0xbe0325ce	-0.1280739
210	0x3e5f634c	0.21815223
211	0xbe5d310e	-0.21600744
212	0x3df2aaf8	0.11849016
213	0x3dbfac35	0.09359018
214	0x3d1b977c	0.037986264
215	0xbe71859b	-0.23586123
216	0xbe0935c6	-0.13399419
217	0x3ddeebe3	0.108848356
218	0x3e5293ba	0.20564166
219	0x3e4412fe	0.1914787
220	0xbd7f6c07	-0.062358882
221	0xbc988d77	-0.018622143
222	0x3e381532	0.17976835
223	0x3e59464a	0.2121822
224	0x3e3516a0	0.17684412
225	0xbddd7c2a	-0.10814698
226	0xbdefa9a0	-0.11702275
227	0xbd711f3e	-0.058867685
228	0xbac3095d	-0.001488011
229	0xbe2c003d	-0.16796966
230	0x3d06de62	0.032926925
231	0x3dfeb426	0.12436704
232	0xbe0209fd	-0.12699123
233	0x3e304db8	0.17217147
234	0xbe050b8f	-0.1299269
235	0xbe3c7a9d	-0.18406148
236	0x3d5f96df	0.05458724
237	0x3e5d2b7f	0.21598624
238	0xbe06f971	-0.13181092
239	0x3dc7f04f	0.09762632
240	0x3d13b484	0.036060825
241	0xbe6ce2bc	-0.23133367
242	0xbdb1dd42	-0.0868478
243	0x3e360787	0.17776309
244	0xbc9694f6	-0.018381577
245	0x3e7566e6	0.23965034
246	0x3e2a43dd	0.1662745
247	0x3e8b7295	0.27235857
248	0xbdff92ae	-0.12479149
249	0xbccdd177	-0.025124295
250	0xbe1c64e5	-0.15272863
251	0x3e243485	0.1603566
252	0xbcec4461	-0.0288412
253	0x3e72b0fd	0.23700328
254	0x3d2c445c	0.04205738
255	0x3ce69798	0.028148457

fc2.bias f4 [10]
0	0xbdb90d4e	-0.09035741
1	0xbc807027	-0.015678478
2	0xbd8075f1	-0.062724955
3	0x3d8ddc65	0.069268025
4	0xbd66e734	-0.056372836
5	0x3cf8d47a	0.030374754
6	0x3d2a95fb	0.04164694
7	0x3d924318	0.07141703
8	0xbd38d6fc	-0.0451269
9	0xbda529bd	-0.080646016

momentum_buffer f4 [10, 1, 5, 5]
0	0xbccfd0fa	-0.025368202
1	0xbce394e4	-0.027780958
2	0xbc17394b	-0.009229968
3	0x3b0df398	0.0021660086
4	0x39aa2cb8	0.00032458245
5	0xbce64135	-0.028107265
6	0xbd00652a	-0.031346478
7	0xbc86de30	-0.01646337
8	0xbb1ec869	-0.002422834
9	0xbc002747	-0.007821864
10	0xbcb70e58	-0.022345707
11	0xbd12a0bd	-0.035797823
12	0xbcc01c76	-0.023451071
13	0xbca25aeb	-0.019818744
14	0xbc8e4d00	-0.0173707
15	0xbc22da4b	-0.00993974
16	0xbcd4a0e9	-0.025955634
17	0xbcdadb10	-0.026715785
18	0xbcafffc8	-0.02148427
19	0xbc803d1c	-0.01565414
20	0x3b962e1c	0.0045831334
21	0xbc8da304	-0.017289646
22	0xbcd96229	-0.026536064
23	0xbcc9c83e	-0.024631616
24	0xbc4fad6c	-0.012675624
25	0x3a26e7aa	0.0006366918
26	0xb92f2344	-0.00016702438
27	0xba4ee916	-0.0007893009
28	0xb9c2f622	-0.00037185947
29	0x3a7eb830	0.0009716777
30	0x3a30ba5f	0.00067416386
31	0xba01b85a	-0.000494843
32	0xba78ae8b	-0.0009486458
33	0xba5a8823	-0.0008336326
34	0xb92d6bd2	-0.00016538732
35	0xb9857c22	-0.00025460223
36	0xba4498a4	-0.0007499552
37	0xbab00068	-0.0013427855
38	0xba7b2aec	-0.0009581286
39	0xbb020f86	-0.0019845678
40	0xb9dec53c	-0.0004249009
41	0xbad862c0	-0.0016508922
42	0xbb3a080a	-0.002838614
43	0xbb874353	-0.0041278987
44	0xbba7aefa	-0.0051172944
45	0xba589434	-0.000826183
46	0xbaea30fe	-0.0017867384
47	0xbb323269	-0.0027190691
48	0xbbb2261d	-0.0054366724
49	0xbc03da35	-0.00804763
50	0xbc276982	-0.010218026
51	0xbc3b9b3f	-0.011450588
52	0xbb6d4c4c	-0.0036208807
53	0xbc30b8bd	-0.010786233
54	0xbc2c4c9b	-0.010516311
55	0xbc6e2504	-0.014535192
56	0xbbe00e6e	-0.0068376577
57	0xbc0df2e1	-0.008663864
58	0xbc7c3738	-0.015394025
59	0xbc56445f	-0.013077824
60	0x3b2898dc	0.0025725877
61	0x3b368348	0.0027849246
62	0xbb10ec3a	-0.0022113458
63	0xbbcf70ab	-0.0063305697
64	0xbb94ada0	-0.0045372993
65	0x3cdaae0f	0.026694326
66	0x3d215d64	0.039395705
67	0x3d175c67	0.036953356
68	0x3cbb136d	0.022836411
69	0x3c2eedf7	0.010676852
70	0x3d593fc8	0.053039342
71	0x3d8fdc7d	0.07024477
72	0x3d8305dc	0.06397602
73	0x3cff8ae4	0.031194158
74	0x3cd83e12	0.026396785
75	0xbce628f1	-0.028095694
76	0xbcc5b0bf	-0.02413213
77	0xbc8c9b60	-0.017163932
78	0xbc72cb1e	-0.014818935
79	0xbc0fb9fe	-0.008772371
80	0xbcc6ae19	-0.024252938
81	0xbc9309ef	-0.017949073
82	0xbc9b6b95	-0.018972198
83	0xbc279471	-0.010228262
84	0xbb0577ed	-0.002036567
85	0xbc7707dd	-0.015077558
86	0xbca361ac	-0.019944035
87	0xbcd30a86	-0.025761854
88	0xbc938d23	-0.018011635
89	0xbc346d4e	-0.011012388
90	0x3a5f77f8	0.00085246516
91	0xbb256ad4	-0.0025240676
92	0xbc10a3d6	-0.008828124
93	0xbc77a75a	-0.015115583
94	0xbc935c57	-0.017988367
95	0x3c9616c2	0.018321399
96	0x3c7c78bf	0.0154096475
97	0x3be0e7e8	0.006863583
98	0xbc46b88b	-0.012128959
99	0xbc17a265	-0.0092550265
100	0xba265ad5	-0.00063459325
101	0xba577ef4	-0.00082205166
102	0xb967903b	-0.00022083607
103	0xb91c733b	-0.00014920246
104	0xb89867be	-7.267248e-05
105	0xbacf437a	-0.0015812956
106	0xbacfe65a	-0.0015861497
107	0xb9711757	-0.00022992246
108	0xb9904e49	-0.00027524147
109	0x39079605	0.0001293049
110	0xbacc15e4	-0.0015570489
111	0xbace3e88	-0.0015735188
112	0xba817ee4	-0.0009879735
113	0xba25027b	-0.000629462
114	0x385b3aca	5.226842e-05
115	0xba03aeca	-0.0005023299
116	0xba635080	-0.0008671358
117	0xba1f7719	-0.00060831156
118	0xba8eb5b1	-0.0010887888
119	0xb9916889	-0.0002773444
120	0xba43b30f	-0.00074653415
121	0x39b7ccdc	0.00035057112
122	0xba78bf7c	-0.00094889826
123	0xbab5fa09	-0.001388372
124	0xbaa42022	-0.0012521783
125	0xbd06f76c	-0.032950804
126	0xbd5eca8c	-0.054392383
127	0xbd38ace0	-0.04508674
128	0xbcc4d35e	-0.024026569
129	0xbc4b35ec	-0.012402993
130	0xbc9bbdfc	-0.01901149
131	0xbd08ee67	-0.033430483
132	0xbd18e0af	-0.03732365
133	0xbc863079	-0.016380535
134	0xbc23c113	-0.009994763
135	0xbaa60212	-0.0012665412
136	0xbc299300	-0.010349989
137	0xbca9268f	-0.020648269
138	0xbcab1f62	-0.020888988
139	0xbc642268	-0.013924219
140	0x3cd55862	0.02604312
141	0x3cac4858	0.02103059
142	0x3c492b1b	0.012278344
143	0x3b8ac6f6	0.004235144
144	0xb9f748b0	-0.00047165668
145	0x3d51a4eb	0.05118267
146	0x3d24d106	0.040238403
147	0x3d0a6e13	0.03379638
148	0x3c14565c	0.009053793
149	0x3ca61966	0.020275783
150	0xbc84099e	-0.016117867
151	0xbcb410ec	-0.021980725
152	0xbd374f9f	-0.044753667
153	0xbd524b95	-0.051341612
154	0xbd090e62	-0.033460982
155	0xbc007433	-0.007840204
156	0xbc318be8	-0.010836579
157	0xbd098382	-0.03357268
158	0xbd34423e	-0.044008486
159	0xbd0e441e	-0.03473293
160	0xba029cb8	-0.00049824594
161	0xbba4c2ea	-0.0050281184
162	0xbcf12d92	-0.029440675
163	0xbd4bdb23	-0.049769532
164	0xbd1410a2	-0.036148675
165	0x3b24fb10	0.002517406
166	0x3bc3fd5e	0.0059811315
167	0xbc61490a	-0.013750324
168	0xbcf3c664	-0.029757686
169	0xbcc1f690	-0.02367714
170	0x3c4bfb2e	0.012450023
171	0x3ca5762c	0.02019795
172	0x3a5e6be0	0.00084847026
173	0xbc64b670	-0.013959512
174	0xbc4f85e8	-0.012666203
175	0xbb2be4fa	-0.002622901
176	0x3a25f718	0.00063310703
177	0xbc0b3aca	-0.008497903
178	0xbc9fda17	-0.019513173
179	0xbc3ef7b9	-0.011655741
180	0xbaba5604	-0.0014216308
181	0xbb2b12e4	-0.002610379
182	0xbc5af6b7	-0.013364485
183	0xbc7750e4	-0.015094969
184	0xbc159a15	-0.009130974
185	0xba97feb6	-0.0011596296
186	0xbb81cd14	-0.003961215
187	0xbc20c959	-0.00981363
188	0xbc525892	-0.0128385
189	0xba84354a	-0.0010086682
190	0x3c1a9b64	0.009436462
191	0x3ca03c10	0.01955989
192	0x3c915a28	0.017743185
193	0x3c543b2b	0.01295356
194	0x3c092540	0.0083706975
195	0x3cc5d8b7	0.02415119
196	0x3d1766db	0.036963325
197	0x3d24ea70	0.04026264
198	0x3cb9057e	0.022585627
199	0x3c63713a	0.013881976
200	0xbb659f2c	-0.00350375
201	0xbbcaaf56	-0.0061854525
202	0xbc30feec	-0.010802966
203	0xbc91ec4b	-0.017812869
204	0xbc809f9f	-0.015701113
205	0xba46ebde	-0.00075882475
206	0xbb7f684c	-0.0038972078
207	0xbc1fa140	-0.009743035
208	0xbc86ab4f	-0.016439108
209	0xbc164953	-0.009172755
210	0xbab47449	-0.0013767566
211	0xbb5eb268	-0.003398085
212	0xbc1bd8f8	-0.009512179
213	0xbc73e01f	-0.014884978
214	0xbbc47b34	-0.0059961323
215	0xbb9b4ff9	-0.004739758
216	0xbbcccaef	-0.0062497775
217	0xbbef0e67	-0.007295418
218	0xbc2305ef	-0.009950145
219	0xbb8a2cae	-0.004216752
220	0xbbd72f76	-0.006566937
221	0xbba167c7	-0.0049257013
222	0xbb17342b	-0.0023071866
223	0xbb335ba3	-0.0027367852
224	0x379b7c90	1.8535444e-05
225	0xbb1b4430	-0.0023691766
226	0x39db946d	0.0004188152
227	0x3a182995	0.0005804536
228	0x38f12ec1	0.00011500484
229	0x39b056b0	0.00033633923
230	0xbb4a3442	-0.0030853902
231	0xbad3a4b9	-0.0016147114
232	0xb9022585	-0.00012411743
233	0x37a3eaac	1.9540392e-05
234	0x39de1546	0.0004235899
235	0xbb933cc4	-0.004493328
236	0xbabaff94	-0.0014266842
237	0xb91c6f0b	-0.00014918686
238	0x37cc1072	2.4326353e-05
239	0x39e5d5f6	0.00043837697
240	0xbb8797a3	-0.0041379496
241	0xba3a43b8	-0.0007105428
242	0xb74854a4	-1.1940636e-05
243	0x390b29fb	0.00013271712
244	0x39d7df31	0.00041174286
245	0xbb144c18	-0.0022628363
246	0x39f13b00	0.0004601106
247	0x3a86f26e	0.0010295638
248	0x3a4de0f1	0.0007853648
249	0x391d959e	0.00015028424

momentum_buffer f4 [10]
0	0x3bad0d34	0.005281115
1	0xbbbdb898	-0.0057898276
2	0x3d908f87	0.07058626
3	0x3c151aaa	0.0091005955
4	0xbae31254	-0.0017324188
5	0x3d219500	0.039448738
6	0xbd086340	-0.033297777
7	0x3d11b4a2	0.035572655
8	0xb98d8e80	-0.00026999786
9	0xbb2ae576	-0.002607671

momentum_buffer f4 [20, 10, 5, 5]
0	0xbc568f6c	-0.013095718
1	0xbd0df4a1	-0.034657124
2	0xbcff220a	-0.03114416
3	0xbc52effe	-0.012874601
4	0xbc3433b5	-0.010998656
5	0xbc098b40	-0.008395016
6	0xbced6928	-0.028980806
7	0xbd11385c	-0.03545414
8	0xbc5aa62b	-0.013345282
9	0xbb8bddf4	-0.0042684022
10	0x3ab934d0	0.0014130119
11	0xbcb8a2d8	-0.022538587
12	0xbd19dbd8	-0.037563175
13	0xbc99365d	-0.01870268
14	0xbc1411cb	-0.009037445
15	0x3c03c0d5	0.00804158
16	0xbc75c03f	-0.014999448
17	0xbd18294d	-0.037148762
18	0xbce95631	-0.028483482
19	0xbcab73c9	-0.020929234
20	0x3ad11440	0.001595147
21	0x3a167dd8	0.0005740798
22	0xbcc7c9f0	-0.024388283
23	0xbccd9712	-0.02509645
24	0xbca5487b	-0.020176163
25	0xbab4aed2	-0.0013785011
26	0xbadf1798	-0.0017020581
27	0x3ac2888e	0.0014841722
28	0xba03308a	-0.00050044863
29	0x39252a7a	0.0001575145
30	0xba0d186d	-0.0005382363
31	0x3a295377	0.00064592756
32	0x3afdf6b3	0.001937589
33	0x39fe4220	0.00048495922
34	0xb98538bb	-0.00025410004
35	0x3aa7a1a7	0.0012789265
36	0x3a6064d8	0.0008559949
37	0x3aaba257	0.0013094646
38	0xba874bba	-0.0010322251
39	0xbb388a02	-0.002815843
40	0x3a8eac9a	0.001088518
41	0xba297544	-0.00064643123
42	0xba00b7d0	-0.00049102027
43	0xba2c7af1	-0.0006579599
44	0xba54e1be	-0.00081207964
45	0x3a7f4610	0.0009737918
46	0x3a4af4d6	0.0007742172
47	0xba1ae947	-0.0005909395
48	0xb8787788	-5.923913e-05
49	0xb7058d40	-7.960305e-06
50	0xbd6e4616	-0.058172308
51	0xbd96204d	-0.0733038
52	0xbd715c90	-0.058926165
53	0xbd2773f1	-0.040882055
54	0xbd2744c2	-0.040837057
55	0xbd869fa7	-0.0657342
56	0xbd9c8f2f	-0.076444976
57	0xbd5bcc5d	-0.053661693
58	0xbcb454f8	-0.022013173
59	0xbcbdaa4d	-0.023152495
60	0xbd1b59ac	-0.037927315
61	0xbd55dcce	-0.05221253
62	0xbd124845	-0.035713453
63	0xbc889ad0	-0.016675383
64	0xbce40a69	-0.027836995
65	0xbc7ea7c8	-0.015542932
66	0xbd35348c	-0.044239566
67	0xbd3d19c8	-0.046167165
68	0xbd4307c4	-0.047614828
69	0xbd595dc7	-0.05306795
70	0xbc4996b2	-0.012303995
71	0xbd2750d8	-0.040848583
72	0xbd66eb34	-0.05637665
73	0xbd5b70c8	-0.053574353
74	0xbd8c8dc6	-0.06862979
75	0xbd0f961b	-0.03505526
76	0xbd4b68b7	-0.04966041
77	0xbd27e641	-0.04099107
78	0xbcc89a20	-0.024487555
79	0xbccc8109	-0.024963873
80	0xbd0e637e	-0.034762852
81	0xbd427db4	-0.04748316
82	0xbd24f53d	-0.04027294
83	0xbc8d6729	-0.017261105
84	0xbc830716	-0.01599459
85	0xbc81206c	-0.01576253
86	0xbcff5426	-0.031168055
87	0xbcf2768e	-0.029597547
88	0xbc5fa0aa	-0.013649145
89	0xbc77ce9b	-0.015124942
90	0xbb37b818	-0.0028033312
91	0xbce7e896	-0.028309148
92	0xbd1c1ee0	-0.038115382
93	0xbd158dd7	-0.036512222
94	0xbd1c7c99	-0.038204763
95	0x3a913978	0.0011079749
96	0xbc9dcd7f	-0.019263027
97	0xbd08956c	-0.033345625
98	0xbcf9a467	-0.030473901
99	0xbd1de8c7	-0.038552072
100	0xb7c0df5f	-2.2992199e-05
101	0xba152d73	-0.00056906714
102	0xb9d6688a	-0.00040895148
103	0x3995b381	0.00028553235
104	0xba1e528f	-0.0006039524
105	0xb908a49d	-0.00013031294
106	0xb9bb6702	-0.00035744166
107	0x3922b91a	0.0001551848
108	0x3989713c	0.00026215042
109	0x38c8c94d	9.574238e-05
110	0x36a1a110	4.816924e-06
111	0x3983d670	0.00025146035
112	0x3878dc48	5.933296e-05
113	0x39a47964	0.0003137096
114	0xb6cf828c	-6.1842784e-06
115	0x378bec96	1.668026e-05
116	0x38d5cfc0	0.00010195328
117	0x39605f92	0.00021397907
118	0xb826a60f	-3.973214e-05
119	0xb5cb13f0	-1.5130481e-06
120	0x367d5708	3.7750597e-06
121	0x388ef072	6.815874e-05
122	0x37989ed8	1.819378e-05
123	0x38b5b061	8.663606e-05
124	0xb9cbe99d	-0.00038893233
125	0xbd65b623	-0.056081902
126	0xbda3d7e7	-0.080001645
127	0xbd9d7668	-0.076886
128	0xbd5560b6	-0.052094184
129	0xbd52dc68	-0.051479727
130	0xbd9c60e2	-0.076356664
131	0xbdd045ee	-0.10169588
132	0xbda68e9c	-0.08132669
133	0xbd242f62	-0.04008425
134	0xbcffd5e4	-0.03122992
135	0xbd33462c	-0.043768093
136	0xbd89ddc2	-0.0673175
137	0xbd889324	-0.0666869
138	0xbccdb27c	-0.025109522
139	0xbcb3d646	-0.02195276
140	0xbc5b8d54	-0.0134003945
141	0xbd65c52e	-0.05609625
142	0xbd8676f5	-0.06565658
143	0xbd725d3c	-0.059170946
144	0xbd6a16fb	-0.057150822
145	0xbae06e60	-0.0017122738
146	0xbd57869a	-0.0526186
147	0xbda321a2	-0.07965399
148	0xbd806e29	-0.062710114
149	0xbd8bc417	-0.068245105
150	0xbd41f264	-0.047350302
151	0xbd4b09c0	-0.049569845
152	0xbce8eb79	-0.028432595
153	0xbcd4340b	-0.025903722
154	0xbcca5bf3	-0.024702048
155	0xbd703ee8	-0.058653742
156	0xbd7380fa	-0.059449174
157	0xbd00c648	-0.031439096
158	0xbc5063d2	-0.0127191115
159	0xbcc4c0fe	-0.024017807
160	0xbd23cc4a	-0.039989747
161	0xbd5d2064	-0.05398597
162	0xbcd836dd	-0.026393348
163	0xbbf64a6e	-0.007516197
164	0xbcfbabf0	-0.030721635
165	0xbcd67999	-0.02618103
166	0xbd4d3728	-0.05010143
167	0xbd19510e	-0.037430815
168	0xbcc96c6d	-0.024587834
169	0xbd3baebf	-0.045820948
170	0xbc69365f	-0.0142341545
171	0xbd30df9e	-0.043182008
172	0xbd30c47c	-0.043156132
173	0xbcdf6006	-0.027267467
174	0xbd493fe2	-0.04913319
175	0xbd31dae4	-0.04342164
176	0xbd54944d	-0.051899243
177	0xbd2458c0	-0.0401237
178	0xbceee2fc	-0.029160969
179	0xbced1a0c	-0.028943084
180	0xbd3f916e	-0.046769552
181	0xbd5607c0	-0.052253485
182	0xbd07efc9	-0.03318766
183	0xbc5cfa20	-0.013487369
184	0xbc8106bc	-0.015750282
185	0xbcd82ebe	-0.026389476
186	0xbd185868	-0.037193686
187	0xbc987e75	-0.018614987
188	0xbbd15bb3	-0.006389105
189	0xbcb585b4	-0.022158481
190	0xbbb73d3c	-0.0055920165
191	0xbcf3383d	-0.029689902
192	0xbcfffa31	-0.03124723
193	0xbd034510	-0.032048285
194	0xbd2a6ee0	-0.041609645
195	0xbbe9bbd2	-0.0071329856
196	0xbcf7f2a4	-0.030267067
197	0xbd1db4ab	-0.038502377
198	0xbd022654	-0.031774834
199	0xbd49cbe0	-0.049266696
200	0xbc60b0f6	-0.013714066
201	0xbc4a7de2	-0.012359114
202	0xbbeff2be	-0.0073226383
203	0xbbac9384	-0.0052666087
204	0xbc19236b	-0.009346823
205	0xbc5f28c2	-0.013620557
206	0xbc86fe2c	-0.01647862
207	0xbc094ce0	-0.008380145
208	0xba8e9b04	-0.0010879938
209	0xbc1cae0c	-0.00956298
210	0xbbfe171a	-0.0077542188
211	0xbc447602	-0.011991026
212	0xbb3004ab	-0.002685825
213	0xbb80627e	-0.003917991
214	0xbc3b6449	-0.011437484
215	0xbba3911c	-0.0049916636
216	0xbc6de225	-0.014519249
217	0xbc1d10ed	-0.009586555
218	0xbc18fdd7	-0.009337864
219	0xbc96f809	-0.01842882
220	0xbb972dfe	-0.004613637
221	0xbc66b865	-0.014082049
222	0xbbacd454	-0.005274335
223	0xbbadd60c	-0.0053050574
224	0xbc260089	-0.0101319635
225	0x39ceeaef	0.0003946642
226	0x39f09cb0	0.00045893108
227	0xbae8858e	-0.0017739998
228	0xba18f0dc	-0.00058342307
229	0x3a119c36	0.0005554588
230	0x3926a80e	0.00015893599
231	0xb82c57f4	-4.108991e-05
232	0xbb7602c9	-0.0037538281
233	0x37ccb918	2.4404886e-05
234	0x39bf69e4	0.00036509254
235	0x39973d4a	0.00028846628
236	0xb9c0ad3e	-0.0003675017
237	0xbb503777	-0.003177134
238	0xbadd4a48	-0.00168831
239	0x3743952e	1.1657639e-05
240	0x39a4f36c	0.0003146188
241	0xb932add7	-0.00017040163
242	0xbaa7cf28	-0.0012802826
243	0xb9a3eb1e	-0.0003126496
244	0xb94be548	-0.00019445003
245	0x3965edae	0.00021927684
246	0xb9600d60	-0.00021367287
247	0xba25b583	-0.0006321298
248	0xb90167cc	-0.00012341066
249	0x39130210	0.00014019781
250	0x3c502af3	0.012705552
251	0x3c185ac2	0.009298982
252	0x3b7c24f1	0.0038474167
253	0x3c27d5ac	0.010243814
254	0x3c34fbb2	0.011046337
255	0x3ca59523	0.020212715

momentum_buffer f4 [20]
0	0xbc223896	-0.009901186
1	0x3c1c986b	0.009557824
2	0xbc4619b6	-0.012091091
3	0x39886d70	0.0002602148
4	0xbbdb5fe4	-0.0066947807
5	0x3ccbaf55	0.024863878
6	0xba67279c	-0.0008817853
7	0x3cf15392	0.029458795
8	0x3c326ed3	0.01089068
9	0xbb2e55be	-0.00266014
10	0x3c5b4ad0	0.013384536
11	0x3ca19d80	0.019728422
12	0xbbb0ebf6	-0.0053992225
13	0xbb4472e3	-0.0029975704
14	0xbb2876c7	-0.0025705562
15	0x3b37afe4	0.0028028423
16	0x3ba687c4	0.0050821025
17	0xbc8b52c2	-0.017007235
18	0x3bdb216e	0.0066873347
19	0x3c38b5f2	0.011273848
