lecture8/mnist-3000.pth (torch_old, 177308 bytes, 16 tensors)

conv1.weight f4 [10, 1, 5, 5]
000000 a7 e5 11 be 43 3a 46 3e 5f 53 c3 3c 19 60 4b be
       -0.14247762 0.19358163 0.023843465 -0.19860877
000010 b7 d2 1d be 9e fd 29 3b 80 ca 39 3e 88 01 5c 3e
       -0.15412413 0.002593852 0.18143654 0.21484959
000020 6c 12 90 bd 5d 27 5b be 1f 6a 96 3e 88 97 a3 3e
       -0.07034764 -0.21401735 0.2937784 0.31951547
000030 e2 d7 f0 bc fb c6 13 bd 58 61 56 3d 58 7f 34 3e
       -0.029399816 -0.036078434 0.052338928 0.17626703
000040 68 35 97 3e 1e 22 b9 bd c8 9a 18 3d 72 0d eb bd
       0.29532933 -0.090397105 0.037256986 -0.11477174
000050 7d 64 36 bd f7 c7 4b 3e 21 ce 50 bd 9d 4e 84 3e
       -0.044529427 0.199005 -0.05097783 0.25841227
000060 45 1e 93 3e 67 44 2d be ea 3d 3f be 27 87 6e bd
       0.2873403 -0.16920625 -0.18675962 -0.05823436
000070 b4 a8 30 be 57 3b 15 be 2e 44 17 bd a4 55 33 3e
       -0.17251855 -0.14573418 -0.036930256 0.17513138
000080 35 ad 0d 3e 01 bd 9a 3d 95 81 35 be 3f f2 2a be
       0.13835604 0.07555581 -0.17725213 -0.16693972
000090 25 d4 a7 bd 2f 94 a9 3c 9c 8f 0a bd 5c 70 46 3e
       -0.0819476 0.020700542 -0.033828363 0.19378799
0000a0 7c 2e 49 be bc ab 9d 3d 24 7f 38 bd 96 9d f3 3c
       -0.19646639 0.07698771 -0.045043126 0.029738229
0000b0 ac 73 12 be dc c5 b9 3d 08 74 2c be a7 ba 25 3c
       -0.14301938 0.09070942 -0.16841137 0.010115302
0000c0 4e e0 c2 bd d0 f5 3a 3e 29 dc ae bd cb f8 e5 3c
       -0.09515439 0.18257833 -0.08538086 0.028072735
0000d0 ba f6 e4 3c 0f 17 9d 3e 0d 8a 55 3d 7f 56 62 3e
       0.02794968 0.30681655 0.05213361 0.22103308
0000e0 3e 14 4c 3e 2b a7 d4 3e b7 bf dc 3e 0e 3b c3 3e
       0.19929597 0.4153379 0.43115017 0.38130993
0000f0 ed 58 9c 3e 42 6a 08 3e 54 76 d0 3e fa 75 a6 3e
       0.30536595 0.13321784 0.40715277 0.32511884
000100 3d 8d 04 3e 0c cf e6 3c 11 4d 81 3e a7 47 00 3e
       0.12944503 0.0281749 0.2525411 0.12527333
000110 2e 47 89 3e 61 6e 11 3e 7f b2 80 3e bd bc 80 3e
       0.26812118 0.14202262 0.25136182 0.25143996
000120 f0 60 9b bd 35 83 86 3e 13 57 2b 3e e8 71 c3 3d
       -0.07586849 0.26271978 0.16732435 0.0954321
000130 d4 6e 05 be 6f ca 2b 3e 98 44 83 3e ca ba 3a 3e
       -0.13030559 0.16776441 0.2563827 0.18235317
000140 d0 f9 26 3e 91 84 dc bd 7e 00 79 3e 15 65 cf 3d
       0.16306233 -0.107674725 0.24316594 0.10126702
000150 b8 e7 8b bd 8b 2b b2 3d 71 07 90 3e 4c 3d 2b 3e
       -0.06831306 0.086997114 0.28130677 0.16722602
000160 15 ef 8d 3e ef 38 13 be f0 58 79 3e a8 7f f6 3d
       0.27721468 -0.14377187 0.24350333 0.12036067
000170 19 b2 bc 3e b5 f4 74 3e e8 77 34 3d 16 5c 9a 3e
       0.36854628 0.23921473 0.044059664 0.3014838
000180 ca 6d c3 3b e8 fc 3b 3e 62 6c 89 bd 7b ce 08 3e
       0.0059640156 0.18358195 -0.067101255 0.13360016
000190 92 cc 03 be ea 98 c8 bc f2 f4 32 be 5b bc 7f bc
       -0.12871006 -0.024486978 -0.17476252 -0.015608872
0001a0 8d b7 35 be 53 6c 33 3e 80 23 b8 3d 5a b5 8e 3b
       -0.177458 0.17521791 0.08991146 0.004355115
0001b0 9d 3f c5 3d b8 fb 96 3d 01 a3 b1 bd 96 dd b2 bd
       0.09631274 0.0737223 -0.08673669 -0.087336704
0001c0 78 43 c2 bb 46 7c e7 bd 90 c6 c0 bd 13 52 b7 3d
       -0.005928453 -0.11303 -0.09412873 0.08951201
0001d0 cc c1 24 3e d7 df 07 be b8 38 db 3d cc 98 31 be
       0.16089553 -0.13268982 0.107041776 -0.17343444
0001e0 dc 77 7f bd 79 15 12 be ee ff f9 3d b5 a2 08 3d
       -0.062370166 -0.14266004 0.12207018 0.033358295
0001f0 0f 83 20 3b 53 f6 0b 3e aa bc ad 3e 96 86 f3 3e
       0.002449218 0.13668184 0.33933002 0.47563618
000200 3d ed dd 3e c2 2f 83 3d c2 50 83 bc 63 fa c9 3e
       0.4334506 0.064055935 -0.01602972 0.39448842
000210 89 cd f4 3e 3b 13 e5 3e 5b 5c 56 3d cd 08 ca 3d
       0.4781306 0.44741234 0.05233417 0.0986496
000220 f6 3a cf 3e 97 a4 a0 3e 99 69 d5 3e 7c 6d c3 3d
       0.4047467 0.31375572 0.41682127 0.09542367
000230 55 6a 5c 3e 0e ee cd 3e c3 e3 27 3e 68 45 ae 3e
       0.21524937 0.40220684 0.16395478 0.34037328
000240 40 2e 03 3e d8 fc 87 3e ab 40 7d 3e 98 b4 38 3d
       0.12810612 0.26560092 0.247317 0.045094103
000250 10 35 b1 bd b3 bc 77 3d bc ac c7 bd c3 99 27 3d
       -0.08652699 0.060482692 -0.09749743 0.040918123
000260 96 c7 94 3e 40 5a ae 3e af bb b1 3e a0 cd 30 be
       0.29058522 0.3405323 0.34713504 -0.1726594
000270 bf f6 17 be 81 8e 38 3e db c8 9e 3e 5c 99 42 3e
       -0.1484022 0.18023111 0.31012616 0.19003814
000280 6b ae e1 bd 34 39 d1 3d 56 c1 1f 3e f7 47 95 3e
       -0.11019596 0.10215989 0.15601096 0.29156467
000290 c6 5e a4 3e 13 fb 09 be 6a 73 5e 3e c6 00 d1 3d
       0.32103556 -0.13474683 0.21723714 0.10205226
0002a0 b8 63 7d 3d 7c 01 f6 3c 65 93 1a be 60 6a 5e 3e
       0.061862677 0.030030005 -0.15095289 0.21720266
0002b0 a2 4b 79 3e 1e d3 88 3e ba ee 55 3e ad 34 2b be
       0.24345258 0.2672357 0.20891848 -0.16719313
0002c0 1a 4a f8 bd fd 63 ae bb 20 57 aa 3e 1d 49 74 3e
       -0.12123509 -0.005321978 0.33269596 0.23856016
0002d0 74 95 98 3d 0c 02 02 bd e1 c9 98 3e 75 aa 3a 3e
       0.07450381 -0.031740233 0.2984152 0.18229087
0002e0 54 40 6e 3e 3b 89 16 3e db 58 99 3c a9 53 df 3e
       0.23266727 0.14700787 0.018719127 0.43618515
0002f0 25 95 b7 3e f4 83 0c bd e9 4c 42 3d 43 b2 75 3e
       0.35855976 -0.034305528 0.04743663 0.23993783
000300 8b 9c a5 3e 0b 94 1a 3e ac ab 16 3e 20 fd ef 3d
       0.32345995 0.15095536 0.14713925 0.11718202
000310 d8 fc 61 3d 18 30 d3 3d 71 d4 97 3b 35 f7 16 bc
       0.05517277 0.103119075 0.0046334793 -0.009214212
000320 9c ec 7d 3d dd 45 3f 3d 78 dc 81 3d fd 65 08 be
       0.061993226 0.046697486 0.06340879 -0.13320155
000330 95 67 30 3e 35 5c 0c be d1 43 c0 bd 14 67 f7 bd
       0.17227013 -0.13707049 -0.09387935 -0.120802075
000340 4b 7c 84 3e 9d e5 61 ba 19 89 fc bd 84 9e 1c be
       0.25876078 -0.0008617284 -0.12330837 -0.15294844
000350 44 55 64 bd 0b d9 ff 3d fe be 04 be 67 56 fc 3c
       -0.055745378 0.124925695 -0.12963483 0.030802919
000360 b6 ee 9e bd c9 e8 69 3e 93 9d ea 3d 81 36 a4 3d
       -0.07760374 0.22842707 0.11455836 0.08018208
000370 3d 75 4a 3e 52 38 20 bd b9 8c 54 3c 7e c2 47 3e
       0.19771285 -0.03911621 0.012973004 0.19507787
000380 e6 e4 0c bd 5e 09 30 3e ac f7 a0 3d b6 e6 46 be
       -0.034397982 0.17191073 0.0785974 -0.19423947
000390 64 52 f0 bd 07 ee 71 bd a3 b1 37 3d 41 3c 7c 3c
       -0.11734465 -0.05906489 0.044847142 0.015395225
0003a0 d3 da c1 bd 86 93 65 bd 37 3a 47 3e 60 09 d5 bd
       -0.094655655 -0.056048892 0.19455801 -0.10402179
0003b0 1d 08 c5 bd 23 f1 ac bd 54 9e 24 be ad 61 c7 bd
       -0.09620688 -0.08444431 -0.16076022 -0.09735427
0003c0 0d 2d d8 3d 53 d1 8b 3c 3a b6 d8 bd 5a 0a 0c 3e
       0.10555468 0.017067587 -0.10581632 0.13675824
0003d0 49 11 87 39 5e b8 21 3e eb cb 3b be ec 0b c6 bd
       0.00025762085 0.15792987 -0.18339507 -0.09670243
0003e0 75 b8 86 bd b2 15 08 be
       -0.06578151 -0.13289526

conv1.bias f4 [10]
000000 8f dc 31 3e c1 89 da 3d 39 60 93 3b ae 64 0a b7
       0.17369293 0.10670806 0.0044975546 -8.248882e-06
000010 cd b9 e0 bd b3 53 2e 3e 56 8c 6c 3c 47 82 a1 3a
       -0.10972939 0.17024116 0.014437756 0.0012322151
000020 f6 b4 57 3e f0 46 06 be
       0.21065125 -0.13112998

conv2.weight f4 [20, 10, 5, 5]
000000 03 6e 7f 3d 06 b4 ed 3c 1f 96 48 bd 5e 6c c4 3c
       0.062360775 0.029016506 -0.04897129 0.023977455
000010 e6 61 39 bd 44 86 f2 bc d6 aa 6d 3c fc e0 4c 3d
       -0.04525938 -0.029605038 0.0145060625 0.05001925
000020 c3 c9 2b bc 0f 46 af bd 72 37 96 bc ba 79 3d 3d
       -0.010485115 -0.085582845 -0.018336985 0.046258666
000030 32 30 0a 3e fd a8 2c bd d1 d3 96 bd 5a 8e c3 bd
       0.13494948 -0.042153347 -0.073646195 -0.09548636
000040 2e 9e e7 3d be 4b 1f 3d 52 a1 aa bc f5 43 b1 3c
       0.11309467 0.038890593 -0.020828877 0.02163885
000050 82 80 0f 3b 3f 87 ac 3c 6b a1 41 3d c2 72 2a 3b
       0.0021896665 0.021060584 0.04727308 0.0026008342
000060 b1 ad 3c 3d 8a 22 3f 3d d8 f4 2f 3c bb 46 19 bd
       0.046064083 0.0466638 0.010739528 -0.03742097
000070 1b fc 5d 3d 46 07 32 ba c1 73 67 bd 0f 67 40 3b
       0.054195505 -0.0006791245 -0.056506876 0.0029358303
000080 77 51 56 3d 7b ef 3e bd 58 a1 f1 bc ab dd 27 bd
       0.052323785 -0.046615105 -0.02949588 -0.040982883
000090 5e ab 55 bd 2f d2 08 3d 39 a7 68 3d ac ee 82 3d
       -0.05216538 0.03340357 0.0568001 0.06393179
0000a0 51 21 7a bd 59 f8 27 3d c5 b1 7e bb c9 b3 91 bc
       -0.06106693 0.041008327 -0.0038863283 -0.017785924
0000b0 62 53 dd 3c d0 f7 49 bd 18 e6 48 3d de 91 3e bb
       0.0270173 -0.049308598 0.04904756 -0.0029078643
0000c0 84 5c fe 3c 97 fc 0e bd ce b6 36 3d 73 6a 88 3d
       0.031049974 -0.034908857 0.04460793 0.066609286
0000d0 e4 18 3b 3d 5e 64 83 bd b6 5e 95 bd d9 7e 12 3d
       0.045678034 -0.06415628 -0.07293455 0.035765503
0000e0 c5 c3 bb 3d 22 d2 59 bd 64 9e 27 be 65 8e 87 bd
       0.091681994 -0.053178914 -0.16369015 -0.066189565
0000f0 9d 31 92 3c 0a 1a 6d 3d 3d bb 34 bd 4c 09 2d be
       0.017845923 0.05788616 -0.044123877 -0.16898078
000100 fd f3 9f bd 1e c7 55 3d 93 b3 da 3d ed 23 cf bc
       -0.07810209 0.052191846 0.10678782 -0.025285685
000110 fd 88 9e bd db 8e b9 bc 27 18 55 3b e8 fe c1 3d
       -0.07740972 -0.022651127 0.0032515617 0.09472448
000120 32 1e ad 3d e3 2f b2 3c 8d c2 6e 3d 3a bf 2b bd
       0.08453025 0.02175135 0.058291007 -0.041930415
000130 8f ef 89 3d a0 38 8e 3d 34 df a6 3c 8b 91 b6 bc
       0.06735145 0.06944394 0.020370103 -0.022286197
000140 8a 3d df bb af e6 a0 3d 31 3f dc 3d ae af b1 bd
       -0.006812756 0.078564994 0.1075424 -0.08676086
000150 c5 64 2b bd 5a 6f 13 3d b9 12 16 3e 93 c7 2a bd
       -0.04184415 0.035994865 0.1465558 -0.041694235
000160 0f a5 af bd 20 42 a7 bd 0c 81 97 3d 3d 24 c1 bb
       -0.08576404 -0.08166909 0.073976606 -0.0058942125
000170 27 15 7f 3d 22 ef 86 3c 00 39 4d 3d 73 fe 25 bd
       0.06227603 0.01647145 0.050103188 -0.040525865
000180 1c eb 0f 3d 04 66 ac 3d 0d 3b 8c 3d b5 06 74 3d
       0.035136327 0.084178954 0.068472005 0.05957671
000190 f2 19 70 3d 81 3f d9 3c 07 ef 33 bd e5 71 f8 3c
       0.058618493 0.026519539 -0.043929126 0.030327747
0001a0 26 6b 51 3d d1 16 15 3c 41 d4 21 bd 2a 95 c0 bc
       0.051127575 0.009099678 -0.03950906 -0.023508627
0001b0 33 c1 2c 3c e2 91 26 bc 5e c0 8e 3c 13 cc 41 bd
       0.010544109 -0.010166617 0.017425712 -0.04731376
0001c0 a5 f3 3b bc 9c ae 78 3b 7f c7 7a bc f3 70 4f 3d
       -0.011471664 0.0037945872 -0.015306353 0.050644826
0001d0 f3 92 13 bc 9c 5b 2a 3d 12 5a 12 3d 92 1b b8 3b
       -0.009007203 0.04159127 0.03573043 0.005618521
0001e0 22 68 a9 3c 4b ef 85 ba 46 48 2e 3d ba a9 ae bc
       0.020679537 -0.001021841 0.042549394 -0.021321166
0001f0 8a 3c 1e 3d ed 88 7e bd 66 ff 80 3b 83 b6 db 3d
       0.038631953 -0.0621423 0.003936696 0.10728171
000200 13 b7 41 bd 2a 73 b9 bd 7b d9 28 bd 0a d4 c0 3d
       -0.047293734 -0.09055169 -0.04122303 0.09415443
000210 e1 8b fa 3d 36 20 06 be 05 36 78 bd 7a 6e 61 3d
       0.12233711 -0.13098225 -0.060598392 0.055037
000220 5e 7b 19 3e db 7e 88 3d 02 a3 4a be 0c f4 eb bd
       0.14988467 0.06664821 -0.19788745 -0.115211576
000230 a9 44 f2 3c 13 87 03 3e 36 04 59 3c 64 6a b7 bd
       0.029573755 0.12844495 0.013245633 -0.08955839
000240 f9 05 4c 3b ec bf 48 bd 4d 2a e5 3d 2a e0 5a 3d
       0.003113149 -0.049011156 0.11189709 0.053436436
000250 37 2a 1c 3c 9e 4c b6 3c 1f 9b 59 3d 53 19 bb 3d
       0.009531549 0.02225333 0.05312645 0.091356896
000260 9d 6f da 3b 34 f9 22 3c 7a b7 9b bd 70 29 a9 3d
       0.0066661374 0.00994711 -0.07603355 0.08259857
000270 2d d8 29 3e 99 d4 6f bd f9 c7 07 bd e4 98 37 bd
       0.16586371 -0.05855236 -0.033149693 -0.044823542
000280 19 35 2b 3e 75 3b 13 3e e8 d2 07 be 04 e3 ce bc
       0.16719474 0.1437815 -0.13264048 -0.025254734
000290 14 9b bd bc 13 27 cf 3d ad 89 96 3d 6c 41 94 bd
       -0.023145236 0.10114875 0.07350478 -0.07239041
0002a0 d2 d2 9a bd 80 66 39 bc 54 5c 6c 3d 81 e3 94 3d
       -0.07559742 -0.011315942 0.05770524 0.072699554
0002b0 3c c4 17 3d ac 65 b2 bc 35 e4 5d bd 09 9f b7 bb
       0.037052378 -0.021776997 -0.054172713 -0.0056036753
0002c0 8a 5b ce bc c3 d3 92 3d cd 8a 0c bd 12 d3 9f bc
       -0.025190134 0.071692966 -0.03431206 -0.019509826
0002d0 a9 b5 c3 3c b2 ad aa 3d c6 c2 af 3c a2 5c 06 be
       0.023890333 0.08333911 0.02145518 -0.13121274
0002e0 4d 4f 9f bd 64 cf a6 3d 70 0f e6 3d 5d e3 02 be
       -0.07778797 0.08145025 0.11233413 -0.12782045
0002f0 50 7e aa bd 7e 66 9c bd 50 13 d4 3d e1 34 87 3d
       -0.083248734 -0.07636736 0.10355246 0.06601883
000300 ec 67 22 3b e7 a5 3c bb 24 a5 25 bd 3d f6 56 bc
       0.002478118 -0.002878541 -0.040440693 -0.013120231
000310 c9 8d 8e bb f4 97 27 bd c2 7a ad bb 82 08 4b 3b
       -0.004350398 -0.0409164 -0.005294175 0.0030980413
000320 ca 80 80 bc 94 19 2b 3c 4d b8 56 3c f2 a7 5b bd
       -0.015686411 0.01044311 0.013105464 -0.053626962
000330 41 1d 97 bd 3e 81 f2 3c 52 1b b0 3d 01 de 2f bd
       -0.073786266 0.029602643 0.08598961 -0.04293633
000340 42 83 f6 3c 40 2e a0 bc 4e a2 12 3d f5 21 2c 3d
       0.030091885 -0.019553304 0.035799317 0.04202457
000350 87 66 82 3c ea 89 c0 bc 90 84 d5 3c 34 1e 94 3d
       0.01591803 -0.023503263 0.026064187 0.07232323
000360 af 23 be bc 4c 3e 4a 3b 76 c4 2c 3d 2a 18 2b 3d
       -0.023210375 0.0030859886 0.042179547 0.04177109
000370 a8 18 c0 b9 7a 24 4c 3d 65 f2 34 bd b0 29 c6 bb
       -0.00036639464 0.049839474 -0.044176478 -0.00604745
000380 35 30 0b 3d ec 63 52 3d e5 25 2c bd 18 76 83 3d
       0.03398152 0.051364824 -0.042028327 0.06419009
000390 bc 06 8a bc ce ee 3a bd 0d 65 46 bd 3d 27 37 3c
       -0.016848914 -0.0456379 -0.048436213 0.011178789
0003a0 8d 70 55 3d 63 25 29 bd ae c4 4c 3d e8 b4 07 bd
       0.05210929 -0.04129542 0.049992256 -0.03313151
0003b0 6c b6 79 bc 81 a8 bf 3c 7c 76 e5 bc 78 5b 64 bd
       -0.015241247 0.023395779 -0.0280106 -0.055751294
0003c0 b4 0c 15 3b b3 e5 e8 bc f7 1b 8f bc 48 1f 35 bd
       0.0022743167 -0.028429842 -0.01746939 -0.044219285
0003d0 61 42 1e bd 8c 85 df bc 5c a4 29 bc fe b4 a3 bb
       -0.038637523 -0.02728536 -0.010354128 -0.004995941
0003e0 74 91 8f 3c 3c 85 29 bd a0 2f 7f bb 32 cf a1 3b
       0.017525412 -0.041386828 -0.0038938299 0.0049380297
0003f0 72 6d 5b 3c 29 6c 3b 3d 26 41 24 bd d4 d8 05 3d
       0.013392793 0.045757446 -0.040101193 0.032677487

conv2.bias f4 [20]
000000 48 d4 f5 3c 7b 85 58 3a a2 a3 7d bd 75 37 81 bd
       0.03000845 0.0008259636 -0.06192363 -0.06309406
000010 4c 91 70 3d 8d 04 1c 3d bb 03 92 3d 4f 69 51 bd
       0.058732316 0.038090277 0.07129618 -0.05112582
000020 1d 60 12 3d cd a6 39 bc 5d 1c 07 bc 7c 18 4e 3c
       0.035736192 -0.011331272 -0.008246508 0.01257908
000030 ff 25 e4 3b b7 9e 73 bd fa 6a 46 bd 0a 41 84 3c
       0.0069625373 -0.059477534 -0.048441865 0.016144294
000040 22 88 f8 3a 8e ec a3 3d 13 30 ac 3d 4a ff a7 3b
       0.0018961469 0.080041036 0.08407607 0.0051268684

fc1.weight f4 [50, 320]
000000 01 c9 a3 bc 01 89 37 bc 8f 4b 98 3d bf eb af 3d
       -0.019993307 -0.011202098 0.07436287 0.08589887
000010 32 4e 77 bd 43 2c 92 bd 12 c9 d1 3c c0 3e f4 3b
       -0.060377307 -0.071373485 0.025608573 0.0074537694
000020 0f ec 54 bd a5 ab 7e bd fa 14 b8 3c 00 f7 74 bd
       -0.051982936 -0.06217541 0.02247094 -0.05980587
000030 82 4d 32 3d e5 cf 90 bd 97 51 17 bd f5 97 d4 3c
       0.04353095 -0.07070903 -0.036943045 0.025951365
000040 48 bf 28 bb 17 b6 29 3a a1 d5 b5 3d 04 35 49 3d
       -0.0025748778 0.0006473972 0.08878637 0.049122825
000050 13 73 40 bd cc 6a 89 3c f3 67 4b bd 34 db ff bc
       -0.046984743 0.016774558 -0.04965968 -0.031232454
000060 b6 04 2d bd 4d bc 4d 3c c6 bf 13 3d 9c 5c 74 3d
       -0.04224082 0.012557101 0.03607156 0.05965863
000070 5f cf 17 bd 7d f9 6a bc 87 a4 ab 3c 76 ae f7 bb
       -0.037063 -0.014341709 0.020952476 -0.007558639
000080 0f 1e 1c 3d 48 64 de bc 47 bf 9a 3d 5d 14 c1 3d
       0.038114604 -0.027147427 0.075560145 0.09427712
000090 2a e3 cc bb 0d f1 df bd cf fa c0 3c 30 09 c9 3c
       -0.006252666 -0.10934649 0.023557095 0.024540514
0000a0 b3 a4 eb 3c 49 98 cd 3c 29 18 44 3d 86 3b 84 bd
       0.028765058 0.02509703 0.047874603 -0.06456666
0000b0 74 8b 32 3d 5a 0f ca 3b 95 0d 86 bd 6e 51 a3 bc
       0.043590024 0.006166381 -0.06545559 -0.01993629
0000c0 46 06 03 3d 7b cc 1c bd 23 37 17 bd 0c 6c bb 3c
       0.031988405 -0.038280945 -0.036917817 0.02287867
0000d0 ca e4 33 bd 41 5c 57 bd b4 92 52 3d 35 68 18 bd
       -0.043919362 -0.052578215 0.05140944 -0.037208755
0000e0 69 ca 4b 3d b8 9c ac bb ac 80 43 3d 15 c1 8a 3b
       0.04975358 -0.005267706 0.047730133 0.004234443
0000f0 84 b7 27 bc c0 70 ff 3c 62 9a 13 3d 71 c6 1a bd
       -0.010236625 0.031181693 0.036035903 -0.037786905
000100 51 0b eb 3c 5d 77 34 3d 86 70 91 3c f6 d2 d0 3c
       0.02869192 0.044059146 0.01775385 0.025491219
000110 0d eb db bb 50 31 b2 3c 38 64 f3 bb 6a 22 56 bb
       -0.00671137 0.02175203 -0.0074277185 -0.003267432
000120 5b d0 a2 3c fe cc e0 3c d7 ed c6 bd 83 2d 86 bd
       0.019874742 0.027441498 -0.09713333 -0.065516494
000130 f4 f8 fd bc de ba 12 bd 0a 16 b1 bc 9a 5f 96 3c
       -0.0310025 -0.03582274 -0.021616954 0.018356133
000140 1d 1f 8f 3d 99 b9 5b 3d a0 d0 39 3d 5e 8b 37 bc
       0.06988356 0.053643797 0.045364976 -0.011202661
000150 93 ff 14 3d 03 54 de bc 4a cf 97 bc e7 cf 03 3d
       0.036376547 -0.02713967 -0.01853146 0.032180693
000160 7c 3c 19 bd 73 d3 96 3b 5c 5d ee 3b f7 ac 99 bc
       -0.037411198 0.0046028434 0.007274313 -0.018759234
000170 3f 8e af 3c 5b 8c e7 3c 9d 8e 03 3d 73 d4 8a bc
       0.021430133 0.028265169 0.03211843 -0.016947007
000180 ba 9d c8 bc f7 46 c4 bc 73 74 fc bc 3d 58 dd bc
       -0.024489272 -0.02395962 -0.030817246 -0.027019614
000190 bc 65 5f bb 79 a6 65 3c 04 e0 f0 3a 6a bd b3 3d
       -0.0034087738 0.014016741 0.0018377309 0.08776362
0001a0 26 c9 49 bb 27 3f bb 3c 48 0c 8b 3d e8 b0 90 bd
       -0.003079006 0.022857262 0.06789452 -0.07064992
0001b0 e8 be 1f 3c 5c 16 7c bd e5 05 38 bc ed c2 2d bd
       0.009750105 -0.06154476 -0.011231874 -0.042422224
0001c0 63 f3 4c bd 88 aa 99 bd 69 78 18 3d 55 15 09 bd
       -0.0500368 -0.075032294 0.037224207 -0.03346761
0001d0 30 cb 80 bd ed e7 6e 3d 43 5e 87 3d 35 25 fb 3c
       -0.06288755 0.05832665 0.06609776 0.03065739
0001e0 41 ff 56 bd de 98 01 bd a9 4c ab bc 9c b4 2d bd
       -0.052489523 -0.031639926 -0.020910578 -0.04240857
0001f0 a0 17 c9 bc 26 21 84 ba 37 91 92 3d 2d 02 76 3d
       -0.024547398 -0.001008068 0.07156604 0.06006067
000200 5c 9b 2b 3c bc 26 d6 bb fe 80 d3 bc 4b b6 6e bd
       0.010474052 -0.006535379 -0.025818344 -0.058279317
000210 50 a7 9b 3c b7 3c 6a bd 25 78 2b 3d a3 73 aa 3c
       0.01900068 -0.05718681 0.041862626 0.020807093
000220 a9 35 e0 3c 17 a1 cd 3d 20 60 51 3c f6 c4 23 bd
       0.027369337 0.10040491 0.012779266 -0.03998276
000230 0c ca 0a bd 69 55 7f 3d 50 f6 a4 bc 3b c2 37 3d
       -0.033884093 0.062337313 -0.020136982 0.044862967
000240 98 5a 8c bb 8e 50 ba 3c 29 8a b2 bc 52 36 e1 bb
       -0.0042832606 0.02274349 -0.021794396 -0.0068729306
000250 a3 a0 9c 3c e3 f4 55 3d 6d a4 29 bd a9 f4 1f 3d
       0.019119566 0.052235495 -0.041416574 0.039051685
000260 fc 56 bd bc 33 5c c7 bc f4 a3 92 bc 8a 6e 2f bd
       -0.023112766 -0.024335956 -0.017900445 -0.042830028
000270 31 42 49 bd a2 1d 5f bd 3e 1f 15 bc 5c 97 76 bc
       -0.04913539 -0.05447162 -0.009101687 -0.015050735
000280 e3 d7 65 3d 7e c5 79 3d 09 37 9e bc 9b b8 46 bd
       0.05611409 0.06097936 -0.019313352 -0.048515897
000290 9b a9 87 3c c5 ff 4f 3d 16 51 19 3d 3c 76 61 3a
       0.016560366 0.05078103 0.037430845 0.0008600687
0002a0 0e a2 53 3b ed 55 94 3c f7 46 6d 3d e4 92 b5 3c
       0.0032292637 0.018107379 0.057929005 0.02216477
0002b0 0b 10 6c bd c7 69 8e bc 63 64 a4 bc 25 65 44 bd
       -0.057632487 -0.017384423 -0.0200674 -0.04794802
0002c0 9e 74 5d bc 4b c0 bc 3c a1 1b 11 3d af 0f 26 bd
       -0.013516573 0.023040911 0.03542674 -0.0405423
0002d0 8b d8 71 3c ae dc 3a 3d 00 92 24 3d 4b 00 3b 3d
       0.0147611005 0.045620613 0.0401783 0.045654576
0002e0 79 dd a4 3b 70 78 ed bb a8 d6 dc 3b 4b bf f1 bc
       0.0050312844 -0.0072470233 0.006739456 -0.02951016
0002f0 e2 a5 7d bd 29 52 7d 3a 82 c0 10 bd 18 99 a2 3c
       -0.061925776 0.0009663427 -0.03533984 0.019848391
000300 f3 33 d0 bc bd 76 67 3d 97 bc 00 3d 7a 07 a6 3d
       -0.025415396 0.056509722 0.031429853 0.08106895
000310 23 ca 45 bb bf 02 8a 3d 9b 6f 67 3d c9 1b 39 3d
       -0.0030180297 0.06738805 0.05650292 0.045192514
000320 33 23 a7 bd 75 be 85 bc 40 f8 78 bc fe 4a c7 3c
       -0.081610106 -0.016326169 -0.015195906 0.024327751
000330 88 09 28 bd f8 88 8f 3b a6 73 53 3d 26 c3 81 ba
       -0.041024715 0.0043803416 0.051623963 -0.0009900078
000340 3e 7a 0e 3d 15 78 62 3d ac 0d 6c bc 12 60 72 bd
       0.034784548 0.0552903 -0.0144075565 -0.05917365
000350 84 9a 79 ba 1c 0d df b9 28 20 b4 3c ec 22 1d 3d
       -0.0009521621 -0.00042543642 0.02198799 0.038363382
000360 9b a1 00 3d 44 c8 bd bc ea 3c 4b 3d 23 00 e5 3c
       0.03140412 -0.023166783 0.04961864 0.027954167
000370 14 ae 76 bd 1a a6 41 bd e0 dc 18 bd cb 0d 4c 3b
       -0.060224608 -0.047277547 -0.037320018 0.003113615
000380 31 ff 20 3d 14 6d 87 3c 4c 0e 11 3d 8d 8f e6 3b
       0.03930587 0.016531505 0.035414025 0.0070361556
000390 c5 4c 14 bd 96 19 a3 bc 3f 68 30 bd ed b9 fe bc
       -0.036206026 -0.019909661 -0.043068167 -0.031094516
0003a0 67 ce ad bc c8 a6 ae 3b ed 65 0c bd 56 ca 19 bd
       -0.021216584 0.0053299405 -0.03427689 -0.03754648
0003b0 5b 2b d1 3c 8b 53 a1 3c e7 cf 86 3c 40 50 78 3d
       0.025533369 0.019693157 0.016456557 0.060623407
0003c0 b5 ca 28 3d c5 0d 74 3b c6 ae c0 3c f0 4c 49 bd
       0.04120894 0.0037239653 0.023520838 -0.04914564
0003d0 6e f3 8a 3c eb 70 5a 3d d0 48 a4 bb c9 f8 c6 bc
       0.01696178 0.053330343 -0.0050135627 -0.024288552
0003e0 c5 5a 24 bd 80 c7 2d 3d 0e 57 4a 3d 16 74 82 bb
       -0.040125627 0.042426586 0.049399428 -0.0039811237
0003f0 58 0d 6d 3c 60 26 14 3d e4 ce 52 bd 3b d3 bb 3b
       0.014468513 0.03616941 -0.051466838 0.0057319677

fc1.bias f4 [50]
000000 3c 50 cf 3c 4d fa 30 bd a6 8f 14 bd 29 f2 09 3d
       0.025306813 -0.043207455 -0.036269806 0.033678208
000010 17 5b e9 3c 36 d3 5f 3d ee 6b e9 bb 81 49 58 bc
       0.028485818 0.054644786 -0.007123462 -0.013201118
000020 02 60 f8 bb 08 a1 22 bd bd 04 1e 3d 84 bc d1 3c
       -0.0075798044 -0.039704353 0.038578738 0.025602587
000030 c3 ea d2 3c 4f 82 6a bd c4 4c 9b bb 74 68 55 3d
       0.025746709 -0.05725318 -0.004739376 0.052101567
000040 3e f8 83 3d e5 d2 9b bc 1f 82 00 3d 9d f4 d7 3c
       0.06443833 -0.01902146 0.031374093 0.026361758
000050 45 4c 11 bd a2 c8 94 3b 08 53 f1 bb b6 9f 7b bc
       -0.035473127 0.004540519 -0.0073646344 -0.015357902
000060 a8 12 8e 3c 29 69 91 3c a4 03 76 3d 7e 9c 8f 3c
       0.01734288 0.01775034 0.060062066 0.017530676
000070 78 c1 93 bc f8 25 18 3d fb bc 01 bd 67 f9 23 3a
       -0.018036589 0.037145585 -0.031674366 0.00062551204
000080 7c 71 91 bc 77 55 85 bc 8e b3 33 bb 6f 79 f2 bc
       -0.017754309 -0.016276104 -0.0027420255 -0.02959892
000090 aa 1f 94 bc 36 61 4a 3d 26 a4 63 bd 0c 11 03 3d
       -0.018081505 0.049409114 -0.055576466 0.03199868
0000a0 dc 16 87 3d 12 11 05 bb c7 2e 49 3c 98 5f 36 bb
       0.06596157 -0.0020304364 0.012279219 -0.0027827974
0000b0 27 7a 1e 3d 02 c0 b4 bc 32 5e 87 3c 2b d5 fa 3c
       0.038690712 -0.022064213 0.016524408 0.030619225
0000c0 97 12 8d 3d f0 9e 79 bb
       0.06888311 -0.003808912

fc2.weight f4 [10, 50]
000000 c4 35 45 be 37 91 2e be c1 6a 0b be 6d 3b 4a be
       -0.19258791 -0.17047583 -0.13614942 -0.19749232
000010 24 69 16 3e 18 d9 dc 3d f0 5e 8b bd 48 f6 8c 3d
       0.14688545 0.10783595 -0.06805217 0.06882912
000020 20 79 19 3e 5f 24 11 3e bf e3 df bd f6 b9 56 be
       0.14987612 0.1417403 -0.10932111 -0.20969376
000030 a9 60 48 3e bd 32 a2 3d ff 2d db 3d 8f 60 97 3d
       0.19568123 0.07919834 0.107021324 0.07391464
000040 cb 79 e8 bd 08 7c e8 3c 61 a3 7c be 18 9b 37 be
       -0.11351355 0.028379455 -0.24671699 -0.17930257
000050 e2 7c 3e 3c 7c 85 a4 bd a2 7c 6a 3e 85 a9 d6 bc
       0.011626454 -0.080332726 0.22899106 -0.02620388
000060 62 be d3 bd 2d 44 a3 3c 90 b8 0e 3c 64 1d 75 be
       -0.10339047 0.01992997 0.008710995 -0.23936993
000070 91 39 b8 3d 0c 02 2d 3e 01 59 46 3e 2b aa e3 bd
       0.08995355 0.16895312 0.1936989 -0.11116441
000080 c7 75 89 3e 5c f1 1b 3d 11 54 eb 3c 6c f2 00 be
       0.2684767 0.038071975 0.02872661 -0.12592477
000090 ce ee f2 3c eb 55 d0 bc e8 74 bf bc 1f ae 22 bd
       0.029654887 -0.025431594 -0.023371175 -0.039716836
0000a0 8a 6e 8c 3d 49 48 17 3e ec 78 9e 3d 3f 20 15 3e
       0.06857021 0.14773668 0.07737908 0.14563082
0000b0 7f 22 01 be 45 f0 e2 bd 4a 42 39 3d 1c 09 49 be
       -0.12610815 -0.11080984 0.045229234 -0.19632381
0000c0 50 82 b5 bd 9e 78 93 bd 8d 30 74 3e cb cd 29 bd
       -0.08862746 -0.0720074 0.23846646 -0.041456025
0000d0 5f 92 6e 3d 9d 85 0a 3e 2a 55 ac bd eb dd ac be
       0.05824506 0.13527532 -0.08414681 -0.3376306
0000e0 c7 0f 07 3e c8 86 20 3d 4d 12 2c 3c ba 7d 7e 3d
       0.13189612 0.039191037 0.01050241 0.06213162
0000f0 23 4f 84 3e 0c 0d 2d 3e dd 7f 81 be b2 27 01 be
       0.25841627 0.16899508 -0.25292864 -0.12612799
000100 cd bd 29 bd c1 b5 07 bd 15 90 ab bc a1 2f 2c be
       -0.041440774 -0.03313232 -0.020942727 -0.16815044
000110 7f aa 89 bd 2a 26 ca bd 34 30 54 3e 6e 97 09 3e
       -0.06721973 -0.098705605 0.20721513 0.13436672
000120 f1 03 de 3c a2 19 42 be 02 2c 3b 3e 9b d4 5d be
       0.027101489 -0.1895509 0.18278506 -0.21663134
000130 a8 13 98 bd 58 9d 6d 3e c3 67 c5 bd cc 92 b8 bd
       -0.07425624 0.23204553 -0.096389316 -0.09012374
000140 d6 8a da bc 5a c8 a0 bd 77 45 e6 3d 2d a9 b9 bc
       -0.02667753 -0.07850714 0.11243718 -0.022663677
000150 4d bc f0 bd ba ee 08 3e 0a 13 bc 3d 3c 75 43 bd
       -0.117546655 0.13372317 0.09183319 -0.047719225
000160 e4 4c 4e bc 95 c2 3d bc 60 02 39 be 9b e1 20 be
       -0.012591574 -0.0115820365 -0.18067312 -0.15711062
000170 6b 89 bf bd 7f dc 30 be 8d 5a 5c 3e b9 d5 14 3e
       -0.09352382 -0.17271613 0.21518917 0.14534654
000180 38 ba 07 be 6b d8 50 be 61 f8 5c 3e 31 41 f6 3d
       -0.1325463 -0.20395057 0.21579124 0.12024153
000190 c7 b7 5b bd 4c b9 27 bd 27 36 22 bc df 11 1a 3e
       -0.05364206 -0.040948197 -0.009900606 0.1504588
0001a0 4b 71 61 3d af 5a 96 bc 70 8b cf 3d 95 3b 41 3d
       0.055039685 -0.018353788 0.101340175 0.047175962
0001b0 9e fe fa 3d 85 b2 c5 bb 28 ec be bd 67 63 39 3e
       0.122555956 -0.006033244 -0.09322387 0.18104325
0001c0 48 ae c7 bd e7 d1 85 bd 23 81 1c be 20 76 3c 3e
       -0.097500384 -0.06534176 -0.15283637 0.18404436
0001d0 dd 71 17 be c3 55 1f 3e 71 36 02 be 75 cc ac bd
       -0.14789529 0.15560059 -0.1271608 -0.084374346
0001e0 4b b2 4e 3d 7d 39 aa 3d ba 9e 08 3e 16 e3 27 be
       0.050463002 0.08311746 0.133418 -0.1639522
0001f0 aa af e8 3d 49 12 79 be 17 11 cf 3d 87 01 00 be
       0.1136163 -0.24323381 0.101106815 -0.12500583
000200 f6 69 f2 bd f4 41 42 bc 99 dd d9 bd 16 2f d7 bd
       -0.11836617 -0.011856545 -0.106379695 -0.10507028
000210 f2 7c fd bc 34 ec 81 3e 4f c0 ee 3d e7 83 28 3e
       -0.030943368 0.2537552 0.11657774 0.16456567
000220 f8 3d cf 3d 19 87 57 3e 7d bf be bd 10 3a 46 3d
       0.101192415 0.2104763 -0.09313867 0.048395216
000230 01 85 c9 bd 1c 3c f7 3d 5d 22 3b 3e 13 c0 25 bb
       -0.098398216 0.12072012 0.18274827 -0.0025291487
000240 8c aa 0b 3e 93 73 39 be b3 79 fd 3b bd 69 84 3e
       0.13639277 -0.18110494 0.007735455 0.25861922
000250 fc 1b 85 be 35 ab a3 bc a8 44 35 3e 7d 00 d8 bd
       -0.25997913 -0.019979099 0.17701972 -0.10546968
000260 16 35 15 3d a2 49 cf 3d fb ee 1c 3e 4a d9 34 bd
       0.03642758 0.10121466 0.15325539 -0.044152535
000270 b5 16 74 be 49 5c 14 3e dc a0 b3 bd 57 c1 be 3d
       -0.23836787 0.14488329 -0.08770916 0.093142204
000280 ff 6a 7b be 54 41 08 bd 6b 66 18 3e 2e b3 b7 bc
       -0.24552535 -0.033265427 0.1488282 -0.022424307
000290 67 aa 6b bd f2 45 64 3e c1 17 70 3e e6 18 57 bd
       -0.057535555 0.22292307 0.23446561 -0.05251398
0002a0 1b 28 15 3e 6a 4b 8b 3d ca 28 fa bb 0d 8b d4 3d
       0.1456608 0.068014935 -0.007634257 0.10378084
0002b0 4b 85 b5 bd 13 76 69 bc 7d 76 3c be 4b 26 b9 3c
       -0.08863314 -0.0142493425 -0.18404575 0.022601267
0002c0 c4 02 72 bd 61 46 0a 3e 1e 45 bc bd 7d cf d1 bd
       -0.05908467 0.1350341 -0.091928706 -0.102446534
0002d0 f6 50 a5 bd 88 31 49 3d af 3c 5f 3d 29 5b 0e 3e
       -0.08072083 0.049119502 0.05450123 0.13901962
0002e0 f7 1c f5 3d ce 10 50 3d 2f 66 85 bd 59 6b af 3d
       0.11968415 0.050797276 -0.065136306 0.08565397
0002f0 61 f1 cd bc fe 11 fd bd 79 19 91 be a2 cc 0d be
       -0.025139512 -0.12356947 -0.28339747 -0.13847592
000300 f1 39 f9 3c 0e 26 d6 bd 7a f9 3c 3e 09 71 18 bc
       0.030423136 -0.10456477 0.18454543 -0.009304293
000310 43 76 ee bb 39 ae 38 3d 36 2f a3 bd 60 6b 82 bb
       -0.0072772815 0.045088027 -0.07967989 -0.0039800853
000320 a6 f2 7a bd 86 2c 55 bd 6f 8f a2 bd e0 ce 69 be
       -0.061266564 -0.052044414 -0.07937514 -0.22832823
000330 5a a2 8f be f4 4d 80 bd b8 15 07 bc 5b ca 04 3e
       -0.28053552 -0.062648684 -0.008244924 0.12967817
000340 4e 76 14 be cd 25 03 be 15 19 62 3e e9 0f 5a be
       -0.14498255 -0.12807389 0.2207988 -0.21295132
000350 42 fb fc 3d 35 ac bf 3d c2 ab 3c 3d 95 18 6b be
       0.12352611 0.09359018 0.04606224 -0.22958596
000360 46 08 0e be b8 44 00 3e 76 b8 55 3e 46 18 38 3e
       -0.13870344 0.12526214 0.20871148 0.1797801
000370 2f fd 4f bd 1d 56 27 bc dd 28 0e 3e d6 86 5d 3e
       -0.050778564 -0.010213402 0.13882776 0.21633467
000380 2b d8 27 3e 2e 0c b2 bd 59 06 ce bd d2 c2 89 bd
       0.16391055 -0.08693729 -0.100598045 -0.06726612
000390 46 f0 5c bb 9a 2f 1b be 52 b0 eb 3c 26 b4 fe 3d
       -0.003371255 -0.15154877 0.0287706 0.12436704
0003a0 1c 2f fe bd 17 a3 06 3e 8f 0b 05 be 18 61 30 be
       -0.12411329 0.13148151 -0.1299269 -0.17224538
0003b0 df 96 5f 3d e5 68 4d 3e d1 3e 07 be 00 52 cf 3d
       0.05458724 0.20059545 -0.13207556 0.10123062
0003c0 7d bf 26 3d af 13 55 be db 60 ae bd c2 f2 3c 3e
       0.04070996 -0.2080829 -0.085145675 0.1845198
0003d0 4f 9e 9d 3b 1f a3 61 3e ea cc 2b 3e 1a 5a 7c 3e
       0.0048101316 0.22034882 0.16777387 0.24643746
0003e0 09 50 bf bd 78 32 7e bc 6c a3 16 be 42 bf 12 3e
       -0.09341437 -0.015514962 -0.14710778 0.14330772
0003f0 58 2f ec bc 77 b4 6a 3e 5c 0d 3c 3d 9b 0b 26 3d
       -0.028831169 0.22920404 0.045911178 0.04053841

fc2.bias f4 [10]
000000 65 48 b5 bd 9e 71 1c bc 1c 8d 81 bd 2b 46 92 3d
       -0.08851699 -0.009548573 -0.063257426 0.0714229
000010 4c 53 50 bd fd b1 ba 3c 16 bd 35 3d e9 90 95 3d
       -0.050860688 0.02278995 0.04436978 0.0730303
000020 e8 d0 5e bd 03 75 aa bd
       -0.054398447 -0.083230995

momentum_buffer f4 [10, 1, 5, 5]
000000 69 db 0f 3b 61 00 3c 3a b1 7c fe 3b b7 1d 1b 3c
       0.0021950847 0.00071716873 0.007766329 0.009467534
000010 eb e4 a5 3b 8d 5a f3 3b 08 a9 83 3b af ca f3 3b
       0.0050626895 0.007426566 0.004017953 0.0074399333
000020 5e 8f b5 3b 94 60 2d 3b da 38 a6 3b 3d 5c 44 bb
       0.0055407723 0.002645527 0.005072695 -0.0029962205
000030 95 e7 ce bb ee 0a 19 bc 39 d1 89 bc 80 af 21 3b
       -0.006314228 -0.009340985 -0.016823398 0.0024671257
000040 86 c8 ad bb a2 d6 aa bc 10 3f e0 bc 62 1d 17 bd
       -0.0053034453 -0.020854298 -0.02737382 -0.036893256
000050 71 7b 4e bb e0 c1 74 bc 4b a6 e1 bc 78 cf 17 bd
       -0.0031506682 -0.0149388015 -0.027545115 -0.037063092
000060 83 e5 30 bd 5d 21 a5 3a 40 e0 95 3a 5e ce 5a 3b
       -0.04318763 0.0012598444 0.001143463 0.0033387165
000070 2d 18 95 3a 80 ba a7 39 d4 29 33 3b cb ad 6f 3b
       0.0011375003 0.00031991675 0.0027338164 0.0036572095
000080 74 52 a9 3b 60 24 5a 3b 48 73 91 3b 80 82 2e 3b
       0.0051673 0.0033285841 0.0044387914 0.0026628077
000090 eb 8e 4b 3b d8 99 c0 3b 57 ef 19 3c 68 f5 3e 3c
       0.0031060528 0.0058777146 0.009395442 0.011655189
0000a0 11 ea 5f 3b 4b 30 cd 3b 44 53 15 3c 8e 7a 19 3c
       0.0034166614 0.0062618605 0.00911409 0.009367598
0000b0 9b ef 2d 3c 33 f3 01 3c 6b f3 ea 3b 20 75 e1 3b
       0.010616208 0.007931518 0.007170131 0.0068804175
0000c0 d0 12 f1 3b b1 8e 16 3c f2 27 43 bc 09 d3 ce bb
       0.007356979 0.009189294 -0.011911379 -0.0063117784
0000d0 90 4d 13 3c cc f7 84 bc 2c 12 06 bd 6e aa af bc
       0.00899066 -0.01623144 -0.032732174 -0.021443572
0000e0 40 46 f8 bc 0a fa df bc 01 3b 39 bd e0 92 87 bd
       -0.030306935 -0.027340908 -0.045222286 -0.06619811
0000f0 14 86 70 bd ab cb 68 bd da 55 69 bd 30 a6 77 bd
       -0.058721617 -0.056834858 -0.05696664 -0.060461223
000100 52 23 85 bd 9b e2 30 bd 5b d5 2d bd 7b 63 d5 bc
       -0.065008774 -0.043184858 -0.0424398 -0.026048413
000110 e6 be f4 bc d9 a4 53 bd 58 99 c4 bc 8e 74 f5 bb
       -0.029876184 -0.051670883 -0.023998901 -0.007490701
000120 96 70 5b 3b 3c f9 f1 3a 6f c2 84 bc 6a 7f f5 3b
       0.0033483854 0.0018461118 -0.016205994 0.0074919956
000130 c8 9c a0 3c aa 40 03 3d 79 d9 d6 3c 80 ae 61 3c
       0.01960601 0.03204409 0.026226746 0.013774514
000140 ff 64 5b 3c 0b dd a3 3c cf f6 bc 3c ab 1a 64 3c
       0.013390779 0.020002862 0.023066906 0.013922374
000150 ae fe e8 3b fa fa 92 ba b0 a7 76 3b 3d 64 9f bb
       0.0071104383 -0.0011213713 0.003763657 -0.0048642443
000160 e4 b0 30 bc ca 1d 63 bc e2 8c f5 bb e7 37 28 bc
       -0.0107843615 -0.013862083 -0.007493601 -0.010267234
000170 62 71 44 bc 84 23 8c bc b2 26 e9 bc c6 19 94 bb
       -0.011989923 -0.017106779 -0.028460834 -0.004519674
000180 a0 69 5e 3a 49 7f 21 bb 54 d9 f6 ba 45 2f 63 bc
       0.0008484367 -0.0024642518 -0.0018833079 -0.01386625
000190 6d e0 90 ba fa e4 1a ba de 5b 60 b9 6d 87 19 b9
       -0.0011053212 -0.0005908754 -0.00021396528 -0.00014641667
0001a0 2a 42 99 b9 c2 94 18 bb c5 52 e8 ba ce 86 db b9
       -0.0002923173 -0.0023282026 -0.0017724863 -0.00041871372
0001b0 ce 28 b3 b9 64 49 59 b9 84 60 1b bb 80 6b 1f bb
       -0.00034171942 -0.00020722073 -0.002370865 -0.002432555
0001c0 1d 90 a2 ba 14 4e c7 b8 0c 06 ba b8 ab 82 b2 ba
       -0.0012402568 -9.5036026e-05 -8.8702975e-05 -0.0013619264
0001d0 1f 1b 05 bb 02 5e 4b ba 8f 62 9d b8 04 72 71 b9
       -0.0020310355 -0.00077578437 -7.504701e-05 -0.00023026025
0001e0 40 07 a9 b9 32 aa c8 ba 6f 1d 8a ba 1c 8e 86 ba
       -0.00032239594 -0.0015309511 -0.0010537336 -0.001026574
0001f0 7e 98 81 ba de ac 3d bc f8 e4 8f ba 50 66 5c 3c
       -0.0009887365 -0.011576859 -0.0010978272 0.013452128
000200 3e 92 df 3a 54 ba 70 bc 95 bb 0e bb d4 d4 9d 3b
       0.0017057133 -0.014692862 -0.0021779288 0.004816631
000210 ce 6d 8a ba 2b 2f 69 bc c5 db 11 bd 79 9a bd bc
       -0.0010561289 -0.014232437 -0.03560998 -0.023144947
000220 dc aa 81 bc 82 81 01 bd 10 14 14 bd 48 37 67 bd
       -0.015828542 -0.03161765 -0.036151946 -0.056449205
000230 16 f1 bb bb c1 71 a0 bb 42 aa a7 bb 0b d1 a1 bc
       -0.005735527 -0.004896373 -0.005116732 -0.019753
000240 2b 26 49 bd 16 39 62 3c 72 d0 bf 3c 86 e3 60 3c
       -0.049108665 0.013807556 0.023414824 0.013726121
000250 1a ed 6d 3c 48 1a f9 bb 06 be ed bb 14 e5 bc bb
       0.014521861 -0.00760201 -0.0072553186 -0.005764613
000260 98 73 a6 3c 95 7a 06 3d ea f7 e6 3c d8 7d c7 ba
       0.020318791 0.032831747 0.028194387 -0.001522
000270 84 9f 64 bb 08 5d de 3c 59 68 00 3d b9 5d 06 3d
       -0.0034885118 0.02714397 0.031349514 0.032804225
000280 06 72 8e 3b b8 b5 9b b9 ea 8e 8b 3c c7 02 c6 3c
       0.0043470887 -0.00029699295 0.01703592 0.024171246
000290 31 d4 c2 3c 0e bf 61 bb b6 47 7f 3b 72 6c 6d 3c
       0.023782821 -0.0034446153 0.0038952655 0.014491187
0002a0 e9 ef b4 3c 57 b8 bc 3c 82 69 08 bc f8 c5 3a 3c
       0.022087054 0.023037119 -0.008325936 0.0113997385
0002b0 7a 2c d6 3c 0e ae fe 3c 1c 54 b9 3c 00 8a 4c 39
       0.026144255 0.031088855 0.022623114 0.00019506365
0002c0 eb 9c b0 3a b0 c0 40 3c bc 17 e6 3b b4 01 f8 ba
       0.00134745 0.01176469 0.0070218723 -0.0018921406
0002d0 50 9a b4 bb 1e e4 43 bc c3 ab c4 bb 48 d6 53 bc
       -0.0055115595 -0.011956243 -0.006001921 -0.012929507
0002e0 fb f1 9e bc 5d 22 ee bc 33 c3 16 bd 44 8f eb bc
       -0.019402495 -0.02906912 -0.03680725 -0.028754838
0002f0 94 41 b7 bc 74 b0 8c bc 89 df 15 bd d0 04 12 bd
       -0.022370137 -0.017173983 -0.036590133 -0.03564912
000300 ee fe 9f bc 8e 0e 2b bc 5c 32 4a bc d2 84 5a bc
       -0.01953074 -0.010440482 -0.012341108 -0.013337331
000310 16 ca ae bb 30 ca 69 3a 59 76 38 3c 6e c5 7f 3b
       -0.005334149 0.0008918373 0.011258685 0.003902759
000320 e5 73 4f bc 40 a3 1f bc 34 f1 3e bb 4a eb 80 bb
       -0.012661909 -0.009743512 -0.0029135467 -0.0039342986
000330 f5 b9 a6 ba 3e b1 3a bc 44 92 c6 bb 20 3c 27 39
       -0.0012720214 -0.011394797 -0.0060599167 0.0001594876
000340 e1 72 56 ba 67 f0 91 ba 57 84 e7 ba c7 7e 33 3a
       -0.00081805704 -0.0011134268 -0.0017663342 0.00068471994
000350 8e b2 cc 3b 40 4d eb 3a 6c d9 18 b9 e9 9f df ba
       0.0062468713 0.00179521 -0.00014576846 -0.0017061207
000360 4b ce 39 3b 54 7b ba 3b f4 4d 57 3a d4 e4 83 ba
       0.002835172 0.0056909714 0.0008213215 -0.0010062703
000370 dd 03 71 bb 0c a3 3d 3b b4 c9 8f 3b dc e7 cf 3a
       -0.0036775984 0.0028936295 0.0043880586 0.0015861946
000380 85 31 8a 3b ab fc f7 ba 90 0d 14 b9 60 d9 4b 39
       0.004217329 -0.0018919905 -0.00014119432 0.00019440567
000390 b1 95 65 3a 7a d4 a7 3a b6 0d 5e bb f1 05 01 bb
       0.00087579625 0.0012804412 -0.0033882684 -0.001968738
0003a0 32 33 6f b9 4b 26 b3 38 72 96 65 3a ea a4 71 bb
       -0.00022811888 8.542518e-05 0.0008758075 -0.0036871978
0003b0 d2 3b 07 bb a0 d1 65 39 c8 45 03 39 04 f3 af 38
       -0.002063502 0.00021917233 0.00012519129 8.3899155e-05
0003c0 12 dc 8a bb 17 01 20 ba 8b 94 93 38 07 00 6f b9
       -0.00423766 -0.0006103678 7.0371745e-05 -0.00022792826
0003d0 91 cf a7 b9 35 6e cd ba 7a ed 7e 3a 23 9f b9 39
       -0.0003200737 -0.0015673103 0.0009724718 0.00035404516
0003e0 49 77 89 38 6c 63 1a b7
       6.554888e-05 -9.202264e-06

momentum_buffer f4 [10]
000000 98 84 02 bc fe 0f 67 3c 62 5e 6d bd 7f e1 cf 3c
       -0.007966183 0.014102934 -0.05795134 0.02537608
000010 fb 5f 99 ba 5d 2a c8 bc f8 6a 13 3d f0 0e cc bb
       -0.0011701578 -0.024434263 0.035990685 -0.0062273666
000020 82 6f 43 bb ea 9b 96 bb
       -0.0029821103 -0.004596223

momentum_buffer f4 [20, 10, 5, 5]
000000 c4 4e 88 3b 5c c1 85 3c 03 2c f9 3c a3 70 ec 3c
       0.00415978 0.016327552 0.030416494 0.028862303
000010 16 be d9 3c a6 87 03 3c 59 07 62 3c 3b 15 ad 3c
       0.026579898 0.008027947 0.013795697 0.021128288
000020 67 8e b4 3c 33 d7 dc 3c 50 49 ed 3b 1e 92 7f 3c
       0.022040559 0.026958084 0.0072414055 0.015598802
000030 98 d7 9a 3c fe 15 f4 3c b8 46 d1 3c 20 24 b2 3c
       0.018901631 0.029795643 0.025546417 0.021745741
000040 69 bb f8 3c 9a e1 ae 3c 0a d8 ca 3c 38 53 ca 3c
       0.030362802 0.02134781 0.024761219 0.024697885
000050 26 31 1a 3d ef e3 24 3d 9b 82 fb 3c b6 f5 da 3c
       0.037644528 0.040256437 0.030701926 0.026728492
000060 8b 4e e7 3c 10 8f 87 3b 88 82 71 3a f6 1b ac 3a
       0.028235694 0.0041369274 0.0009212871 0.0013130892
000070 4a 18 fa 3a 9f 30 03 3b 72 19 47 3b e3 13 78 3a
       0.0019080725 0.0020017994 0.0030380157 0.00094634126
000080 00 25 fb 3a 8c a6 28 3b 3c 89 76 3b 6c 2c c7 3a
       0.0019160807 0.0025734035 0.003761842 0.0015195734
000090 76 3b 2a 3b d2 7b ce 3a b4 20 29 3b a4 b7 1f 3b
       0.0025975383 0.0015753454 0.0025806846 0.0024370933
0000a0 8b ce 66 3b c8 df 18 3b 0a 18 f0 3a b2 fd 14 3b
       0.0035218324 0.0023326743 0.0018317711 0.0022734222
0000b0 b4 58 ad 3a 4c 06 a2 3b 5e 13 36 3b 32 bf b9 39
       0.0013225288 0.0049445983 0.002778254 0.000354284
0000c0 f4 da 99 3a 8e 93 06 3b a6 ae 23 3d ce 1f 9b 3d
       0.0011738227 0.0020534727 0.03996148 0.07574426
0000d0 58 b8 a5 3d ba e5 96 3d d4 6e 5d 3d 8c 2f eb 3c
       0.080918014 0.073680356 0.054060772 0.028709196
0000e0 84 39 66 3d a2 ef 7d 3d ec a3 6a 3d 82 92 54 3d
       0.056207195 0.06199611 0.057285234 0.051897533
0000f0 51 82 10 3d f1 f2 4b 3d 77 3d 85 3d 7b d3 8e 3d
       0.03528053 0.049792234 0.06505864 0.069739304
000100 a7 09 91 3d 31 33 63 3d 51 6b 74 3d 34 3c 96 3d
       0.07081919 0.05546874 0.059672657 0.073357016
000110 c9 8e 9d 3d f0 ba a4 3d d6 ed af 3d 07 2f b5 3d
       0.0769325 0.08043468 0.085902855 0.088468604
000120 44 eb af 3d 88 7f af 3d 58 f6 a0 3d 3a 81 62 3c
       0.08589795 0.085692465 0.07859486 0.013824755
000130 72 af 2d 3d f2 b6 48 3d ea 24 27 3d e2 8f 0a 3d
       0.042403646 0.049002595 0.04080669 0.033828624
000140 13 8b 48 3c 65 24 00 3d 88 8f 26 3d bd fd 16 3d
       0.012240189 0.03128471 0.040664226 0.036863077
000150 03 07 09 3d a5 68 8b 3c 24 24 dd 3c b8 9f 22 3d
       0.033453953 0.017017672 0.026994772 0.0397031
000160 39 bd 2a 3d 46 07 3c 3d 93 ad 1c 3d 4a 78 18 3d
       0.041684363 0.045905374 0.03825147 0.03722409
000170 04 3f 3c 3d 59 c0 37 3d e8 1a 5b 3d 3e 61 66 3d
       0.045958534 0.04486117 0.053492457 0.05624508
000180 41 95 7a 3d 9d 43 72 3d 4a 58 61 3d c3 6c 64 3d
       0.061177496 0.059146512 0.05501584 0.055767786
000190 49 13 f1 38 8f c5 33 38 a6 02 97 39 1e 48 8f 39
       0.00011495368 4.2860916e-05 0.00028802938 0.00027328817
0001a0 86 3a 51 3a ac 3a f7 b8 3e 86 08 38 38 b1 b0 38
       0.0007981438 -0.00011788806 3.254995e-05 8.4253435e-05
0001b0 57 9b cf 39 0e 1f fe 39 25 d5 4a 38 30 2f 91 39
       0.00039597854 0.00048469793 4.835906e-05 0.00027691713
0001c0 46 6f 10 3a 4a 9e 89 39 48 7c 2e 39 6d 29 84 39
       0.0005509745 0.0002624861 0.00016640231 0.00025207867
0001d0 fb 97 ed 39 27 08 09 39 08 3e ad 39 9f 1a 9f 38
       0.00045317397 0.00013068375 0.00033043348 7.5866694e-05
0001e0 a6 28 6d b6 9c cd 54 38 e2 70 4f 38 93 7a 2e 39
       -3.5339413e-06 5.0736227e-05 4.9457776e-05 0.00016639596
0001f0 7c 48 8d 39 04 9b 0d 3d 39 fc b2 3d 1e 22 c6 3d
       0.0002694762 0.034571663 0.08739514 0.09674476
000200 60 7e bd 3d b2 dd 97 3d 50 dd f5 3c 91 12 94 3d
       0.0925262 0.07415332 0.030012757 0.07230104
000210 c8 47 aa 3d 0f aa 90 3d 3c d9 89 3d 24 f3 17 3d
       0.083144724 0.07063686 0.06730887 0.03709711
000220 da 76 77 3d e9 b6 9b 3d 62 6b 9e 3d 38 10 ad 3d
       0.06041608 0.07603247 0.077353254 0.08450359
000230 21 69 7a 3d b6 a3 87 3d 1e 49 bf 3d 3f 24 c9 3d
       0.061135415 0.06623022 0.09340118 0.098213665
000240 d3 ac c9 3d 5e 8e d5 3d 48 be ce 3d e8 cf d1 3d
       0.09847417 0.10427545 0.10094887 0.10244733
000250 2a 43 da 3d 92 4f d5 3d cf 62 06 3d 28 47 53 3d
       0.10657342 0.104155675 0.032809075 0.05158153
000260 25 91 41 3d ad a3 23 3d de 5a cf 3c b6 c2 ec 3c
       0.04725756 0.039951015 0.025311884 0.02890144
000270 6d fb 30 3d dd 93 fa 3c fb 20 12 3d ef 6e f4 3c
       0.04320853 0.030588085 0.035675984 0.029838054
000280 00 76 d0 3c 55 d6 dd 3c 36 6c ed 3c 6c a5 44 3d
       0.025446892 0.02707974 0.028982263 0.04800932
000290 07 af 34 3d b6 fa 30 3d 61 b9 31 3d 6d 4f 2b 3d
       0.04411223 0.043207847 0.04338968 0.041823793
0002a0 04 7a 59 3d 4b 93 48 3d e4 31 6b 3d f1 64 40 3d
       0.05309488 0.048968595 0.057420626 0.046971265
0002b0 a1 36 46 3d 44 37 5c 3d 4d 40 46 3d 64 9c fb 3c
       0.048391942 0.053763643 0.048401166 0.030714221
0002c0 90 15 65 3d 79 be 64 3d ce 83 2d 3d 04 b2 ef 3c
       0.055928767 0.05584571 0.042362027 0.02925969
0002d0 c4 13 ae 3c 57 e7 1f 3d d2 6d 19 3d 2b a2 12 3d
       0.02124966 0.039038982 0.03745825 0.035799187
0002e0 1e 42 e6 3c dc 19 c8 3c c7 00 fe 3c 26 a8 21 3d
       0.028107699 0.024426393 0.03100623 0.039467
0002f0 36 06 2e 3d 7b 36 38 3d c4 82 38 3d 10 c6 2b 3d
       0.042486392 0.04497383 0.045046583 0.041936934
000300 f6 52 40 3d c4 e9 4f 3d 3b 30 66 3d 81 88 80 3d
       0.046954118 0.050760046 0.05619834 0.06276036
000310 ce 76 80 3d 4c b6 85 3d dc a4 7e 3d 68 fa 6f 3d
       0.0627266 0.06528911 0.06216894 0.058588415
000320 80 c6 53 3c 5c a0 92 3c d3 16 24 3c e8 11 67 3c
       0.012925744 0.017898731 0.010015207 0.01410339
000330 0f 75 21 3c a3 4b 6e 3c 1c dd 4c 3c 74 33 3f 3c
       0.009854569 0.0145444 0.012503888 0.011669982
000340 74 e1 77 3c 4c fd 7b 3c 57 d4 8b 3c c7 a8 70 3c
       0.015129436 0.015380215 0.017069025 0.014688677
000350 63 53 93 3c 77 e3 83 3c 9e ae a8 3c be 11 c3 3c
       0.017984098 0.016099675 0.020591076 0.023812171
000360 0e 36 99 3c 89 21 af 3c de d5 a5 3c 5c e6 b3 3c
       0.018702533 0.021378295 0.020243581 0.02196043
000370 ad 55 a2 3c 91 49 b0 3c 24 3a bb 3c eb 2e ac 3c
       0.019816244 0.021519454 0.022854872 0.021018466
000380 c7 49 82 3c 66 d7 74 37 f1 1c c3 ba 46 b1 00 ba
       0.01590432 1.4593685e-05 -0.0014885945 -0.00049092283
000390 8a 3d 78 3a 74 90 c6 39 f4 03 05 ba 09 4d b2 ba
       0.0009469619 0.0003787313 -0.00050741364 -0.001360328
0003a0 64 ef 08 ba 8a 4c 18 3a cc 28 55 3a 3a 99 a1 b9
       -0.000522366 0.0005809745 0.00081313844 -0.00030822476
0003b0 1e c9 ed ba 35 3b 0a bb d4 5d 55 3a 17 df 4d 3a
       -0.0018141603 -0.002109242 0.00081392867 0.00078533724
0003c0 13 df 8b b9 96 76 23 bb e9 de 61 ba 4b d2 fc 3a
       -0.0002667835 -0.002494251 -0.0008616285 0.0019288746
0003d0 d2 76 89 39 5c eb d6 b9 60 66 1d ba e3 28 9c 39
       0.00026219204 -0.00040992617 -0.000600433 0.00029785102
0003e0 45 71 99 3a a8 f9 1e 37 4a 2a d6 bc 81 0b e7 bc
       0.0011706731 9.4756615e-06 -0.026143212 -0.028203728
0003f0 8d eb dd bc 13 9b a8 bc 2c ce 90 bc 4d 1d c0 bc
       -0.027089858 -0.020581758 -0.017676435 -0.023451472

momentum_buffer f4 [20]
000000 02 84 f1 3c 9a b0 4e bc eb d2 65 3c 28 15 f4 34
       0.029481892 -0.012615347 0.014027338 4.5463935e-07
000010 c4 09 4c 3d 5e 6d b8 bc 10 38 a6 bc 98 a2 e6 bc
       0.049814 -0.022513088 -0.020290405 -0.028153703
000020 e2 12 5c bc 20 d0 d2 39 d0 c1 09 3b 8c 60 5a bb
       -0.013432236 0.00040209386 0.0021020062 -0.0033321707
000030 82 bd 16 3d e0 3a a7 38 85 6d f6 3b 5c f4 7a b8
       0.036801822 7.974147e-05 0.00752038 -5.9832222e-05
000040 e2 ac 0c bb ff 5a 36 3c 1e 2a ff 3a d0 b9 04 bd
       -0.002146535 0.011130094 0.0019467508 -0.032403767
