lecture8/mnist-500.pth (torch_old, 177308 bytes, 16 tensors)

conv1.weight f4 [10, 1, 5, 5]
000000 7e c7 30 be 8f 5c 00 3e 5b 1b 98 bc 9f aa 34 be
       -0.172636 0.12535308 -0.018567732 -0.17643212
000010 83 cc c9 bd 48 28 68 bd 61 27 b8 3d 2b 77 2d 3e
       -0.09853461 -0.05667904 0.08991886 0.1693999
000020 db d9 4d bd b3 2b 2e be 27 4e 4b 3e 18 55 53 3e
       -0.05025659 -0.17008857 0.19854032 0.2063793
000030 0e ca b7 bd db 33 46 bd fd 55 72 3d 80 9e 96 3d
       -0.08974086 -0.048389297 0.059164036 0.0735445
000040 8a d3 3a 3e e6 c3 28 be 20 63 63 bc 7e 5c 1f be
       0.18244758 -0.1648098 -0.013878614 -0.15562627
000050 e2 db 00 be e4 94 de 3d 97 e2 07 be 25 a5 34 3e
       -0.12583879 0.108682424 -0.13270031 0.17641123
000060 7d cf 52 3e 7b ff 27 be 33 eb 35 be 6a ff 44 bd
       0.20586963 -0.16406052 -0.17765503 -0.048095144
000070 77 21 2a be a0 f1 0f be 75 72 05 bd ab ad 3b 3e
       -0.16614328 -0.14057016 -0.032579858 0.18327968
000080 21 91 19 3e cf 84 b0 3d 08 e1 30 be 63 da 29 be
       0.14996769 0.08619081 -0.17273343 -0.16587214
000090 17 ab a3 bd 3e 35 ec 3c 33 12 bb bc dc 13 47 3e
       -0.07991617 0.028833982 -0.022835827 0.1944117
0000a0 34 9f 49 be a0 1f a0 3d f5 0a 29 bd 75 6b fb 3c
       -0.19689637 0.07818532 -0.041270215 0.030690888
0000b0 54 6f 1b be d0 51 c9 3d 12 e9 26 be 99 eb 23 3c
       -0.15179187 0.098300576 -0.16299847 0.010004901
0000c0 01 b4 cd bd 24 3e 2c 3e a6 dd ac bd ec 09 27 3c
       -0.10044099 0.1682058 -0.084407136 0.010195237
0000d0 b1 93 02 bd 23 89 56 3e df 38 c6 bc 4b d7 20 3e
       -0.03187913 0.20950751 -0.02419704 0.15707128
0000e0 d5 c4 96 3d c9 df 58 3e 71 50 56 3e d9 bb 68 3e
       0.073617615 0.21179117 0.20929123 0.22727908
0000f0 8a dc 39 3e 43 b4 83 bd ea c3 19 3e 6f 1e d0 3d
       0.18150535 -0.064308666 0.15016142 0.10162055
000100 21 40 34 bc 09 85 aa bd 94 37 bd 3d e3 77 17 bd
       -0.011001618 -0.08326156 0.09239116 -0.036979567
000110 f9 36 07 3e 9a 01 0e 3d 67 98 47 3e c2 37 40 3e
       0.13204564 0.034669496 0.1949173 0.1877127
000120 f7 86 fe bd ee 81 54 3e af 43 d4 3d bc 33 c9 3d
       -0.12428086 0.20752689 0.10364472 0.09824321
000130 e1 d3 0c be 4c 50 e5 3d bc a4 3c 3e 81 ae 13 3e
       -0.137527 0.11196956 0.18422216 0.14422037
000140 40 e7 11 3e d1 38 20 be 1b bc 0c 3e 81 e2 29 3b
       0.14248371 -0.15646674 0.13743632 0.002592236
000150 ed e2 c9 bd 2b c5 81 3c ea 10 26 3e c9 6e 83 3c
       -0.09857736 0.015841087 0.1621739 0.016044037
000160 fc 98 27 3e 3f 48 42 be 6c 89 0a 3e a5 eb 81 bc
       0.16366953 -0.18972872 0.13528985 -0.015859434
000170 56 a6 67 3e 98 19 04 3e c0 68 fd bc 06 1f 65 3e
       0.22622046 0.12900388 -0.030933738 0.22375116
000180 43 08 90 bd 83 53 e2 3d 61 b7 04 be bd 25 ad 3d
       -0.07032826 0.11051085 -0.12960579 0.08454464
000190 e2 8f 04 be 5d bc cb bc c8 12 33 be 1a 95 7f bc
       -0.12945512 -0.024870092 -0.17487633 -0.015599513
0001a0 06 ba 35 be d0 a8 2e 3e 7f fa b0 3d fe 85 37 3b
       -0.17746744 0.17056584 0.08641528 0.002800345
0001b0 91 ac c4 3d 28 5f 97 3d d9 04 bc bd 2e 44 bd bd
       0.09603227 0.073911965 -0.09180612 -0.0924152
0001c0 d9 9c 1e bc 96 f8 e9 bd a4 77 c0 bd 96 e7 af 3d
       -0.00968095 -0.11424367 -0.0939782 0.085890934
0001d0 e9 9a 1f 3e 21 c9 0c be 1d 33 d5 3d 8e e8 31 be
       0.15586437 -0.137486 0.1041014 -0.17373869
0001e0 b9 cf 82 bd 27 68 15 be fe 98 ef 3d 34 73 ee 3c
       -0.06387276 -0.14590512 0.11699103 0.029107668
0001f0 0a 34 59 3a ca cd c3 3d ba b4 3f 3e 03 81 83 3e
       0.00082856475 0.095607355 0.18721285 0.25684366
000200 97 be 84 3e cf bb 86 bc 9d 43 b5 bd 9c 6e 27 3e
       0.2592666 -0.016446976 -0.08850787 0.16350788
000210 58 08 31 3e 4a da 5d 3e 74 66 6a bd a8 78 8d bc
       0.17288339 0.21665302 -0.057226613 -0.017269447
000220 04 36 16 3e fe 5f bd 3c 97 07 5a 3e ca 4a 05 bd
       0.14669043 0.023117062 0.21291958 -0.032542028
000230 02 09 af 3d d8 7b 45 3e dd 07 b8 bc a0 22 50 3e
       0.0854664 0.19285524 -0.022464687 0.20325708
000240 35 28 96 3c 37 3a 4e 3e 08 a6 17 3e 24 23 e6 bc
       0.01832972 0.20139395 0.1480943 -0.028092928
000250 16 e9 f1 bd 6a 11 23 3d 47 3d b1 bd 33 42 08 3d
       -0.11812036 0.03981153 -0.08654266 0.033266257
000260 81 98 58 3e a4 55 44 3e 05 6e 6c 3e 56 55 13 be
       0.21151926 0.19173294 0.23088844 -0.14388022
000270 b8 00 14 be a4 70 97 3d 17 8a ee 3d 8e f1 56 3d
       -0.14453399 0.07394531 0.11647432 0.05247646
000280 b9 fd b1 bd 2a 58 a4 3d be 31 9f 3c b3 c1 c0 3d
       -0.08690972 0.080246285 0.019432899 0.09411945
000290 6e 7e 4a 3e 3b 39 05 be b7 12 32 3e 0d 38 e5 bc
       0.19774792 -0.13010113 0.17389952 -0.027980829
0002a0 d5 7f c0 bd a1 43 55 bd 51 16 21 be a3 f0 36 3e
       -0.09399382 -0.05206645 -0.1573117 0.17865233
0002b0 33 72 20 3e 43 63 32 3e fc bb 22 3e 87 6c 10 be
       0.15668564 0.17420678 0.15892023 -0.141039
0002c0 1d 81 d5 bd ef b5 23 bd d0 6a 6b 3e a8 90 05 3e
       -0.10425017 -0.039968427 0.22989964 0.13043463
0002d0 63 30 90 3d ab 2b 81 bd b7 37 32 3e e9 87 3f 3b
       0.07040479 -0.06307157 0.17404066 0.0029225296
0002e0 e1 fe cb 3d 7f 7b b4 3d a8 e0 bf bd f9 60 78 3e
       0.09960724 0.088126175 -0.09369022 0.24255742
0002f0 86 c1 2f 3e b6 5c 08 be d6 82 09 bd ee bd ed 3d
       0.17163667 -0.13316616 -0.03357204 0.11608492
000300 68 d8 32 3e f7 c7 2b 3d aa 2a bc 3d 42 66 93 3d
       0.17465365 0.04193875 0.09187825 0.071972385
000310 1c 2b 87 ba fc 19 43 3d 00 73 d0 bc 09 3d af bc
       -0.001031253 0.047632203 -0.025445461 -0.021391409
000320 70 6a b3 3d 94 c8 88 3d b1 1a 8b 3d 51 84 24 be
       0.08760536 0.06678882 0.067922 -0.160661
000330 7a 8d 0b 3e cf dd f2 bd ba 17 a7 bd 72 68 05 be
       0.13628188 -0.11858713 -0.08158822 -0.13028124
000340 4f 48 5e 3e 99 5f 18 bd 25 9d da bd 86 50 0e be
       0.21707271 -0.037200544 -0.10674504 -0.13897905
000350 a2 7e 9c bd 23 7a 95 3d 24 24 28 be 92 27 27 3d
       -0.07641341 0.07298686 -0.16420037 0.04080922
000360 12 a5 86 bd 15 b3 4f 3e ad cf 87 3d 0d 5a 59 3d
       -0.065744534 0.20283158 0.06631408 0.053064395
000370 83 bb 41 3e fa 0e 4e bd 10 a1 d1 bc 4f 57 15 3e
       0.18919186 -0.05030725 -0.025589496 0.14584087
000380 ba ed 71 bd 9c 33 29 3e f5 51 a1 3d 2a 09 45 be
       -0.059064604 0.16523594 0.0787696 -0.19241777
000390 e7 80 f0 bd 21 59 73 bd 00 69 03 3d 40 83 07 3c
       -0.11743336 -0.05941117 0.032082558 0.0082710385
0003a0 d3 8b c1 bd c7 31 65 bd c5 7a 47 3e ab 34 00 be
       -0.094504975 -0.055955674 0.19480427 -0.12520091
0003b0 da 2e d5 bd 3d 45 ad bd 93 99 24 be f4 85 c6 bd
       -0.10409327 -0.08460472 -0.16074209 -0.09693518
0003c0 14 7d a6 3d d6 8c 2b 3c d5 20 d9 bd 3f 1b 0c 3e
       0.081293255 0.01047059 -0.10601965 0.13682269
0003d0 52 3a 50 3a f6 45 0a 3e e6 a5 40 be c2 c7 c5 bd
       0.0007943261 0.1350325 -0.18813285 -0.096572414
0003e0 d7 e4 85 bd 54 f7 06 be
       -0.06537788 -0.13180286

conv1.bias f4 [10]
000000 3b ec 2e 3e 5b 66 96 3d 86 d2 18 be 1f 4b 5e 3c
       0.17082302 0.073437415 -0.14924058 0.013567715
000010 b8 93 eb bd 4f 03 3a 3e e5 09 36 3d d1 4a b1 bd
       -0.115027845 0.18165325 0.04444303 -0.08656848
000020 84 b0 50 3e 7d 36 14 be
       0.20379835 -0.1447391

conv2.weight f4 [20, 10, 5, 5]
000000 f8 a0 64 3d 56 cb dd 3c da c1 5c bd cb b3 12 3d
       0.055817574 0.027074497 -0.05389581 0.035815995
000010 fe 44 f5 bc 13 b5 c9 bc b0 13 ce bb 9a 57 a0 bb
       -0.029940125 -0.024622476 -0.006288968 -0.0048932554
000020 0f 5f 67 3c 5b a8 13 bd 8a 66 53 3c e4 bb de bb
       0.014121785 -0.03604923 0.012902865 -0.0067973007
000030 c3 4e 74 3d fd d9 1c bc 61 ec 31 bd bf a7 80 bd
       0.059645426 -0.009573457 -0.04343832 -0.06281995
000040 14 ef 99 3d da 53 54 bc 7e 4d ad bc 1c d3 4e 3c
       0.07516304 -0.012959445 -0.021155115 0.012623575
000050 93 98 fb 3c 16 ee a7 3c f5 18 b6 3c 3e 9f 9f bc
       0.030712401 0.02049927 0.022228697 -0.019485112
000060 d9 96 bd 3c ca df 31 3d 7d bc 19 3c 22 6e 0b bd
       0.023143219 0.043426313 0.009383318 -0.034040578
000070 41 4e 56 3d 79 93 39 bb 0d 8a 6d bd 04 67 ea 3b
       0.052320722 -0.002831666 -0.057992984 0.0071533937
000080 83 c0 6e 3d 9a d8 3f bd d5 7d 02 bd 2f 9a 14 bd
       0.058289062 -0.046837427 -0.031858284 -0.036279853
000090 a2 6c 45 bd a8 38 14 3d b2 83 61 3d 99 f6 79 3d
       -0.048199303 0.036186844 0.055057235 0.06102619
0000a0 20 3c 5c bd 97 c6 26 3d 6c a8 b0 bb 4b fb a2 bc
       -0.053768277 0.040716734 -0.005391171 -0.019895216
0000b0 9f 43 d7 3c f4 61 2e bd 1b 1f 47 3d a6 d1 72 bb
       0.026277361 -0.042573884 0.04861365 -0.003705123
0000c0 77 0a 09 3d 5e 8c 00 bd d4 ba 4d 3d 60 cc 74 3d
       0.033457246 -0.031383865 0.050227 0.05976522
0000d0 98 2f 4d 3d 01 0c ef bc 72 3a 3b bd af a6 a3 38
       0.050094217 -0.029180529 -0.045710035 7.803493e-05
0000e0 12 5e 25 3d 67 8a 1a bd 06 7b 78 bd da 28 a0 3b
       0.040372916 -0.037729647 -0.0606642 0.0048876824
0000f0 14 37 2b bd b2 00 ed ba 1c 50 b0 3b 3f f5 4b bd
       -0.041800573 -0.0018081872 0.0053806435 -0.04979443
000100 3f c1 9a bc f6 15 c5 3c c1 ea 9d 3d fe 35 4f ba
       -0.018890975 0.024058323 0.077107914 -0.0007904469
000110 08 70 6d bd 02 22 00 bd f3 c7 82 3c 55 1d 99 3d
       -0.05796817 -0.031282432 0.015964484 0.07476298
000120 96 9a 2c 3d 8b 7e df bc 3e e6 87 3c b4 dc ed bc
       0.042139612 -0.02728202 0.01658928 -0.029035904
000130 26 90 81 3d 57 05 4d 3d 4d bc 22 3d a1 5e 04 3c
       0.06326322 0.05005392 0.03973036 0.008079202
000140 00 70 03 bc 97 d0 79 3c 35 d3 a1 3d ea 01 b4 bc
       -0.008022308 0.015247486 0.07901613 -0.021973569
000150 ad 21 84 3c ec 5a 90 3c da d9 a4 3d 38 e9 13 bd
       0.01612934 0.01762148 0.080493644 -0.036111087
000160 f0 3c a7 bc e2 70 3e bd 39 7d 8b 3d 3e 44 0a bd
       -0.0204148 -0.046494372 0.06810994 -0.033756487
000170 3c 5e 89 3d 1b 49 92 3c 39 a5 1e 3d 21 8f 8c bc
       0.06707427 0.017857125 0.038731787 -0.017158093
000180 1a a0 07 3d 61 01 64 3d 6d 91 f8 3c c4 ba e6 3c
       0.03311167 0.055665378 0.030342782 0.028165229
000190 1c f5 6e 3d 66 83 d6 3c f0 3d 33 bd 39 99 fc 3c
       0.058339223 0.026185703 -0.04376024 0.030834781
0001a0 90 cb 52 3d 55 a6 14 3c 56 ed 20 bd 43 85 bb bc
       0.051463664 0.00907286 -0.03928884 -0.022890693
0001b0 b2 b1 3a 3c ef ad 1a bc 4e 2c 8f 3c 6f 6b 3f bd
       0.011394905 -0.009440883 0.01747718 -0.046733316
0001c0 2b 93 36 bc ec 87 87 3b c4 9f 74 bc 93 16 50 3d
       -0.011143486 0.004136076 -0.014930669 0.05080278
0001d0 02 e6 09 bc 76 f6 2c 3d 45 78 13 3d 5f 6e bc 3b
       -0.008416655 0.04222723 0.03600337 0.005750462
0001e0 6e 99 aa 3c b5 b4 28 ba d1 89 2f 3d 80 42 ad bc
       0.020825114 -0.0006435619 0.04285604 -0.021149874
0001f0 18 91 1e 3d 8d da f0 bc 8a b1 1b 3c d9 40 8f 3d
       0.03871259 -0.029401088 0.009502778 0.069947906
000200 39 eb b0 bc 25 df 56 bd ad 66 17 bd 33 48 1e 3c
       -0.021596538 -0.0524589 -0.036963154 0.009660768
000210 c9 64 a0 3d 79 25 b1 bc 10 ca c5 3c c3 da c9 3c
       0.07831723 -0.021624314 0.024144202 0.024640447
000220 c3 7d 16 3d 2d 1e 81 3d dc 0b 05 bd ab ec f1 bc
       0.03674103 0.06304584 -0.032482013 -0.029531797
000230 01 99 b9 3c 4b 88 52 3d d8 38 f3 3c 5d e6 d3 bc
       0.022655966 0.05139951 0.029690191 -0.025866682
000240 d9 37 ca 3b e6 66 2a bc 4f e2 9d 3d cf 1d e0 3b
       0.0061712083 -0.010400509 0.077091806 0.006839491
000250 54 2d e1 bc c7 58 c3 bc 96 e6 6d 3d 7c 53 49 3d
       -0.027487434 -0.023846043 0.058081232 0.049151883
000260 5e 87 9b 3b 93 48 09 3d 43 b2 8c bd 30 e4 0e 3d
       0.0047463616 0.033516478 -0.06869938 0.034885585
000270 ab af ab 3d 56 36 1a bd b5 3c dd 3c 78 d1 33 bd
       0.083831154 -0.037649475 0.027006486 -0.043900937
000280 fa 59 af 3d ca 87 5e 3d 6c 44 89 bd 87 0c 20 3d
       0.085620835 0.054328717 -0.067025036 0.039074447
000290 9a 05 be bc f2 37 1b 3d ed a9 5b 3c b3 5d 3e bd
       -0.02319603 0.03789515 0.013407213 -0.046476077
0002a0 ae df 7f bd b1 eb bf bc 14 8c 22 3d dd 96 b7 3c
       -0.062469177 -0.023427816 0.03968437 0.022410804
0002b0 22 45 73 3c 41 34 1c bd 1c 5c 8a bd b0 f1 95 3c
       0.0148480255 -0.03813577 -0.0675585 0.018303722
0002c0 26 7a 3c bd b1 43 72 3d 39 07 82 bc 84 1d 9e bb
       -0.046014927 0.059146587 -0.015872585 -0.004825296
0002d0 58 b1 f5 3b c4 1d 9d 3b 94 3b ca 3c 2c e7 4b bd
       0.0074979477 0.004794808 0.024686612 -0.04978101
0002e0 30 d3 31 bd 2e 85 ea 3c bd 48 13 3d c9 b7 86 bd
       -0.043414295 0.028627958 0.03595804 -0.06578023
0002f0 ff f0 c3 bb 76 06 7b bd cb c0 98 3d 78 95 37 3d
       -0.0059796567 -0.06128546 0.07458647 0.04482028
000300 5e 99 39 3d ba ab 35 3b 29 5f 6b bd 8d 2c 2b bb
       0.045312278 0.0027720765 -0.0574638 -0.0026119084
000310 9f 13 71 bc 97 b4 77 bd c7 30 2d bd 2e 10 da bc
       -0.014714151 -0.06047496 -0.042282846 -0.026619043
000320 a4 2d 7d bc da 18 c7 bb 04 e9 3c 3c f2 44 0a bd
       -0.015452776 -0.0060759606 0.011530165 -0.033757158
000330 c5 f7 7b bd 9b 53 3d 3c f9 61 68 3d 9f 5d a8 bc
       -0.06151559 0.011555578 0.05673406 -0.020552455
000340 4f 4c 5d 3d fb da 8b bc 72 b2 8a 3c 2a ec 04 3d
       0.05402785 -0.017072191 0.016930792 0.032451786
000350 cd 4f 4c 3d 0d a0 9c bc b3 2a a8 3c 49 0a 8e 3d
       0.04988079 -0.019119287 0.020528173 0.069355555
000360 db 56 be bc b5 fc 25 3c 43 f6 00 3d a5 33 03 3d
       -0.023234775 0.010131051 0.031484853 0.032031674
000370 09 5d 88 3b 99 41 3d 3d 8a c9 26 bd 4e d2 0a bc
       0.0041614813 0.046205137 -0.040719546 -0.008472992
000380 4e 6f 07 3d 27 ad 52 3d 04 79 2a bd 0b 02 73 3d
       0.033065133 0.051434662 -0.041619316 0.05932812
000390 87 3c 98 bc e4 8b 3d bd 9f 19 47 bd d8 f8 1a 3c
       -0.01858355 -0.04627599 -0.04860842 0.009458743
0003a0 92 01 34 3d b9 4a 36 bd b7 66 4d 3d 87 1f 07 bd
       0.04394681 -0.044504855 0.050146785 -0.03298905
0003b0 30 9b 96 bc 12 d8 51 3c 0f 3a fd bc fe a2 5c bd
       -0.018384546 0.012807863 -0.030911474 -0.05386638
0003c0 c4 de 28 3b 0d f0 00 bd 48 0d b5 bc e1 06 2f bd
       0.0025767544 -0.03147893 -0.02210106 -0.04273117
0003d0 28 cd 18 bd 64 6e e4 bc 27 80 46 bc 37 10 80 bb
       -0.037305027 -0.02788467 -0.012115515 -0.003908183
0003e0 71 ec 9d 3c a1 a0 29 bd b5 0c 6d bc 89 60 98 bc
       0.019277783 -0.041412953 -0.014468362 -0.018600719
0003f0 17 49 bc bc de 01 18 3d 5b f1 00 bd 3e e8 4b 3d
       -0.02298407 0.037111156 -0.031480175 0.04978203

conv2.bias f4 [20]
000000 d1 6e 24 3d 80 4a 31 3b e3 4c 3e bd 9e 1e 81 bd
       0.040144745 0.0027052462 -0.046460044 -0.06304668
000010 a7 f3 76 3d fd 3a 21 3d 34 ba 3d 3d 21 8f 12 bd
       0.06029096 0.039362896 0.046320155 -0.03578103
000020 41 79 9f 3c 00 82 95 bc 00 d0 93 bb fa d5 1b 3d
       0.019466998 -0.018250465 -0.0045108795 0.03804586
000030 a8 f4 e7 3c 7e e1 50 bd 86 c8 2a bd 1d cb 99 3c
       0.028314903 -0.050996296 -0.04169514 0.01877361
000040 75 e8 24 bc cc 05 97 3d 7c 82 7f 3d e6 e3 62 3a
       -0.010065188 0.073741525 0.0623803 0.00086551753

fc1.weight f4 [50, 320]
000000 84 84 30 3c d2 08 32 3c 76 26 85 3d 0c 18 74 3d
       0.010773782 0.010866361 0.065014765 0.059593245
000010 6b e9 16 bd 1d c8 47 bd 24 83 cf 3c e8 8d 46 b8
       -0.0368437 -0.048774827 0.025331087 -4.733904e-05
000020 ac f7 4e bd a7 ea 9e bc 21 e8 b9 3c e7 3b 50 bd
       -0.050529167 -0.019399 0.022693696 -0.050838377
000030 93 7f 7e 3c 1c ab a0 bc 4a 79 b2 3b 31 bc 2b 3c
       0.015533346 -0.019612841 0.0054465877 0.01048188
000040 1c 76 dd 3b 6c 19 7d bc 4d 4e 47 3d 6d 24 03 3d
       0.0067584645 -0.015447956 0.048658658 0.03201716
000050 a6 4e 3a bd f5 c0 a1 ba 89 23 44 bd f2 be f0 bc
       -0.04548516 -0.0012340831 -0.04788545 -0.029387925
000060 c6 e4 1b bd 27 40 ea b8 34 01 f4 bb 7c dd 33 3d
       -0.038059972 -0.00011169939 -0.0074464325 0.043912396
000070 d8 df 1f bd 90 81 91 bc 93 14 9a bc c0 f3 29 bb
       -0.039031833 -0.017761976 -0.018808639 -0.002593264
000080 d9 c9 4c 3d f9 5c 20 bd 63 11 6d 3d 45 ee 4b 3d
       0.049997184 -0.039151166 0.05787791 0.04978778
000090 8f 2c 83 3c 42 9a b7 bd 7f e5 e3 3b e1 84 5e bc
       0.016012458 -0.08964969 0.0069548483 -0.0135814855
0000a0 9a 91 af 3c 02 e1 2a 3d d3 e1 80 3d 39 39 1c bd
       0.021431733 0.04171849 0.062930726 -0.03814051
0000b0 e2 22 dd 3c a6 4a 85 3d f3 76 4a bc ec 36 83 bd
       0.026994172 0.06508379 -0.012357461 -0.0640696
0000c0 46 06 03 3d 7b cc 1c bd 23 37 17 bd 0c 6c bb 3c
       0.031988405 -0.038280945 -0.036917817 0.02287867
0000d0 ca e4 33 bd 41 5c 57 bd b4 92 52 3d 35 68 18 bd
       -0.043919362 -0.052578215 0.05140944 -0.037208755
0000e0 ba cb 4b 3d b8 9c ac bb ac 80 43 3d 98 b4 8a 3b
       0.049754836 -0.005267706 0.047730133 0.0042329542
0000f0 8c a1 27 bc c0 70 ff 3c 62 9a 13 3d 77 ca 1a bd
       -0.010231387 0.031181693 0.036035903 -0.03779074
000100 2d dd 98 3c c5 9c 58 3d 2d 7f 47 3d aa 12 cf 3c
       0.018660152 0.052883882 0.04870527 0.025277454
000110 17 31 9f 3c 57 70 62 3d b7 4e 1b bd 86 93 b0 bc
       0.019432588 0.055282917 -0.037916865 -0.02155472
000120 e6 c7 e3 3c 63 3b 82 3d 24 2c 5d bd 16 5c 4b bd
       0.02780528 0.06358983 -0.053997174 -0.049648367
000130 01 26 4b bc 97 21 d6 bc 63 ab 06 bd 87 11 2d 3c
       -0.012399198 -0.026139064 -0.03287829 0.010563261
000140 58 db 4d 3d b5 38 ec 3b 8b 3c 0f 3d d3 f1 d4 bb
       0.05025801 0.0072089084 0.034969848 -0.0064985543
000150 b5 a3 06 3d 62 80 d2 bc 54 84 6a bc c6 40 1f 3d
       0.032870967 -0.025695983 -0.014313776 0.038880132
000160 da 19 0b bd ce 27 32 bd 14 79 ab bc c1 66 17 bb
       -0.0339602 -0.043494992 -0.020931758 -0.0023102018
000170 77 66 28 3d 50 aa 0c 3d 62 0f 46 3d b1 12 34 3a
       0.041113343 0.03434211 0.048354514 0.00068692403
000180 11 10 d4 bc 59 ef 8b bc d9 c3 47 bd 44 f3 1b bd
       -0.025886567 -0.017081903 -0.04877076 -0.038073793
000190 1f be 9c bb 13 11 da 3c f6 c8 89 bc 3e d0 91 3d
       -0.0047834064 0.02661947 -0.016819458 0.07119797
0001a0 16 28 c5 bc 33 cc b5 3c dd e7 65 3d 42 12 25 bd
       -0.024066966 0.022192096 0.056129325 -0.040300615
0001b0 03 d3 f1 3c 71 78 1b bd f2 9b 67 3c e9 31 fd bc
       0.029519564 -0.03795666 0.014136301 -0.030907588
0001c0 e6 0e 3f bd 5a 4d 5d bd 78 5b cb 3c d5 ec 08 bd
       -0.046645068 -0.054028846 0.02482389 -0.033428986
0001d0 36 08 95 bd 15 12 cd 3c 67 d2 6b 3d 75 ea 12 3d
       -0.07276957 0.025033036 0.057573702 0.035868127
0001e0 53 fc 80 bd 24 59 6f bc ef 81 bf 3c b8 b9 0f bd
       -0.06298127 -0.014608655 0.023377387 -0.035089225
0001f0 ed 40 51 bd ca a9 d7 3c c1 e7 7e 3d 0d 17 c1 bc
       -0.05108731 0.026326079 0.062232736 -0.023570562
000200 77 f1 e8 3b e4 06 cc 3a d5 f9 f3 ba 22 86 20 bd
       0.007108863 0.0015566018 -0.0018613884 -0.03919042
000210 22 1f 91 3c 42 c9 80 bd 9a ec 10 3d 14 39 d7 3b
       0.01771504 -0.06288387 0.03538189 0.0065680835
000220 b9 c2 2e bc d3 d9 2e 3d c8 a7 af 3c b9 ec cd bc
       -0.010666543 0.042688202 0.021442309 -0.025137292
000230 e8 87 52 bc 4f 58 6f 3d eb aa 11 bc 99 c2 3a 3d
       -0.012849785 0.058433827 -0.008890848 0.04559574
000240 3d 8a 8f bb d3 9b c6 3c 43 91 ab bc b3 a5 ab bb
       -0.004380493 0.024244225 -0.02094329 -0.0052382587
000250 5e 61 98 3c a5 f9 5d 3d 4b 3c 24 bd c2 47 23 3d
       0.018601116 0.054193158 -0.040096562 0.039863355
000260 28 89 ba bc 04 e8 c2 bc e1 36 87 bc 5e 49 32 bd
       -0.02277048 -0.023792274 -0.01650566 -0.043527
000270 08 9f 3f bd af f3 5a bd d8 b8 ec bb 0f eb 2f bc
       -0.046782523 -0.05345505 -0.0072241835 -0.010737195
000280 22 3b 3b 3d d2 e8 37 3d 49 2a 28 bd 31 ac 5b bd
       0.04571069 0.04489977 -0.04105595 -0.05363101
000290 41 38 61 3b df 03 36 3d 51 ae ea 3c 21 4d 53 bc
       0.0034365805 0.044437286 0.028647574 -0.012896807
0002a0 1b 5c b7 3b 2b 94 5b 3b e6 19 98 3c e2 98 92 3c
       0.0055956966 0.0033505063 0.018567037 0.017895166
0002b0 9c 31 61 bd 39 ee 19 ba 90 78 c6 bc 62 55 5d bd
       -0.05497895 -0.0005871985 -0.02422741 -0.054036506
0002c0 f4 80 06 bd 7a a8 d3 3b 9b 16 98 3c 3d 6a 30 bd
       -0.032837823 0.006459293 0.018565467 -0.043070067
0002d0 68 ed a9 3c 1b 62 95 3c 56 49 50 3c 05 04 37 3d
       0.020743087 0.018235257 0.012712797 0.044681568
0002e0 c4 7e e7 3c ba d3 c4 bc 59 fe f9 3b 61 99 e5 bc
       0.028258689 -0.02402674 0.0076291976 -0.028027238
0002f0 0d fa 52 bd 7a 3a 91 3c 98 ad 85 bc 86 07 18 bd
       -0.051508 0.01772808 -0.016318128 -0.03711655
000300 5c c6 14 bd 36 23 15 3d 1b fd 31 3c 28 23 25 3d
       -0.036321983 0.036410533 0.010863568 0.04031673
000310 1e f7 80 3c 10 7e 88 3d ba 78 46 3d 01 4e 3a 3d
       0.015742835 0.066646695 0.048454978 0.045484547
000320 fb 9c 72 bd 9e cd cf bb b0 15 0f 3c 94 13 ae 3c
       -0.05923174 -0.00634165 0.008733198 0.02124957
000330 51 82 a1 3a 55 7b 53 3d 81 aa 4a 3c 79 d5 bc bc
       0.0012322163 0.05163129 0.012369753 -0.02305101
000340 fc d2 b4 3c 53 a8 3e 3d 02 48 9e bc 22 0a 51 bd
       0.022073261 0.046547245 -0.019321445 -0.051035054
000350 f8 8d 37 bc 28 80 56 bb 44 86 05 3d 31 d4 1b 3d
       -0.011203282 -0.0032730196 0.03259875 0.03804416
000360 0c be d7 3c 9c 6d ba bc c0 f8 13 3d 38 00 c7 3c
       0.026335739 -0.022757344 0.0361259 0.024292096
000370 c2 1e 50 bd 9f 75 4f bd 68 64 e2 bc b5 d1 a6 3c
       -0.050810583 -0.05064928 -0.027635768 0.020363668
000380 67 b7 2a 3d 44 1c 77 3c 52 9f fc 3c 90 96 c2 3a
       0.041678812 0.015082423 0.030837689 0.0014845897
000390 e2 31 11 bd e3 92 90 bc fb 30 34 bd 20 44 f4 bc
       -0.035447963 -0.017648166 -0.043992024 -0.02981764
0003a0 bb bb ae bc fa 4b 0d 3c af 6a 0c bd 2d a2 48 bd
       -0.021329751 0.008624071 -0.03428143 -0.048982788
0003b0 2e 57 d6 3c 38 20 b0 3c 36 38 78 3c 1e 40 5e 3d
       0.026164617 0.021499738 0.0151501205 0.054260366
0003c0 53 f4 28 3d 45 45 74 3b ce ae c0 3c 2a 6b 49 bd
       0.04124863 0.0037272733 0.023520853 -0.049174465
0003d0 52 5c 8b 3c cc 5a 5a 3d 08 28 a4 bb 78 0a c7 bc
       0.017011795 0.053309247 -0.005009655 -0.024296984
0003e0 ef bc 24 bd 2e b8 2d 3d 7d 5c 4a 3d 90 d7 74 bb
       -0.040219244 0.042411976 0.04940461 -0.003735993
0003f0 18 19 6c 3c 8b 25 14 3d b1 08 53 bd 20 25 b8 3b
       0.01441028 0.036168616 -0.05152196 0.00561966

fc1.bias f4 [50]
000000 f6 ce b7 3c 35 79 69 bd c3 07 18 bd 48 ad a0 3c
       0.022437554 -0.057000358 -0.037116777 0.019613877
000010 c2 5a a5 3c 5b 04 54 3d 79 a1 8e bb f4 26 12 bc
       0.020184878 0.051761966 -0.004352745 -0.00892042
000020 ea b8 75 bc 36 a3 1f bd fd a1 da 3c ad 21 b1 3c
       -0.0149977 -0.03897401 0.02668857 0.021622503
000030 e9 b4 cc 3c cc df 65 bd c6 49 cf bb d0 bf 50 3d
       0.024988608 -0.056121632 -0.006325933 0.050964177
000040 16 2f 44 3d 38 1f 9d bc db 0f 06 3d 3e ab fb 3c
       0.047896467 -0.019179925 0.032729965 0.030721303
000050 58 b1 31 bd 63 ab 29 3c 60 3a 09 bb 1b dd b2 bc
       -0.04338202 0.010355803 -0.0020939335 -0.021833947
000060 1d 61 25 3c 95 b9 ee 3b 3e 20 50 3d 56 5a 06 3b
       0.010093954 0.0072853067 0.050812 0.0020500622
000070 ee 66 67 bc 65 3f f2 3c 75 9a 01 bd 46 3c 71 3a
       -0.014123661 0.029571244 -0.031641442 0.0009202402
000080 27 f0 f3 bc 9a 0f 90 bc 7a e7 ec 37 2a e2 c6 bc
       -0.0297776 -0.017585564 2.8241182e-05 -0.024277765
000090 a8 ec 99 bc a5 4e 57 3d 68 88 63 bd ee c6 03 3d
       -0.018789604 0.052565236 -0.05555001 0.032172136
0000a0 70 29 75 3d fd ab 36 bc 49 7d 22 3c f2 a0 02 bc
       0.05985397 -0.011149404 0.009917566 -0.007972943
0000b0 b9 2f 08 3d 1c bd 0a bd 64 47 c7 3c 80 36 ed 3c
       0.033248637 -0.033871755 0.024326034 0.028956652
0000c0 0d f1 63 3d ba db af bb
       0.055649806 -0.0053667696

fc2.weight f4 [10, 50]
000000 f1 f0 16 be 03 fb 00 be 42 40 0d be 0c 16 14 be
       -0.1474035 -0.12595753 -0.13794044 -0.14461535
000010 30 0b a6 3d 3e 34 b2 3d 37 77 6c bd e2 91 80 3d
       0.081076026 0.08701371 -0.05773088 0.06277825
000020 99 08 07 3e 78 ef 0c 3e 05 f5 a0 bd 69 29 30 be
       0.13186873 0.13763225 -0.07859234 -0.17203297
000030 d4 ec 42 3e 9c a1 a2 3d d8 4f 87 3d 09 9f 00 3d
       0.19035655 0.07940981 0.06607026 0.031401668
000040 e4 5e a3 bd a7 40 a4 3d 8f 16 32 be c8 cf 0b be
       -0.07977083 0.08020144 -0.17391418 -0.13653481
000050 a0 df cf 3c b5 a8 aa bd a0 a3 26 3e 9b e8 52 3d
       0.025375187 -0.083329596 0.16273355 0.05149136
000060 6e 6a 47 bd a5 bc 8a bd 2c 1b 1b 3d da ef 22 be
       -0.048685484 -0.06774262 0.03786771 -0.15911809
000070 37 d2 88 3d b7 a1 07 3e d9 9b c5 3d bc 3c e9 bd
       0.0668072 0.13245283 0.09648866 -0.11388537
000080 98 d6 4e 3e 47 32 76 3d 88 4d e9 3c ae 3d da bd
       0.20199049 0.060106542 0.028479353 -0.10656296
000090 2d b5 f4 3c c0 c7 76 3b 87 9f 32 bd 01 8a c0 bc
       0.029871548 0.0037655681 -0.04360917 -0.023503305
0000a0 e5 f8 00 3d 41 d0 a5 3d fd bb 51 3d 32 32 22 3e
       0.031487364 0.08096362 0.05120467 0.1583946
0000b0 04 fd ae bd ba 77 df bc 49 2e 7d 3c 29 60 07 be
       -0.08544353 -0.02727877 0.01545293 -0.13220276
0000c0 39 15 bc bd 0f e3 8b bd eb e9 33 3e 9c a9 c4 bc
       -0.091837354 -0.06830417 0.17569701 -0.024006657
0000d0 e6 d6 55 3d bb db 19 3e ad 73 cd 3b a8 2a 3d be
       0.052206896 0.15025227 0.006269893 -0.18473303
0000e0 b3 b7 bc 3d a2 95 0e 3b af 4e 60 bb ab 95 82 3d
       0.09214725 0.0021756669 -0.0034226587 0.06376203
0000f0 d4 d2 08 3e 9a 94 16 3e 99 b6 47 be c5 d8 ff bd
       0.13361675 0.14705124 -0.19503249 -0.124925174
000100 93 94 01 bd 81 2a 07 3a 89 a5 c8 bc 33 44 c7 bd
       -0.031635832 0.0005156175 -0.024492996 -0.09729805
000110 a7 27 88 bd 26 8b 94 bd c1 0b d4 3d 6c 9a 00 3e
       -0.06648188 -0.07253103 0.103538044 0.12558907
000120 37 c1 3a 3d 82 18 00 be a8 a4 09 3e 95 56 13 be
       0.04559442 -0.12509349 0.13441718 -0.14388497
000130 35 b1 99 bd f1 47 47 3e a1 57 44 bd 0f 06 a1 bd
       -0.07504503 0.19461037 -0.047935132 -0.07862484
000140 52 a0 6c bc 87 4d a1 bd 82 c2 cc 3d 40 fa 84 bc
       -0.01444252 -0.07876115 0.09998037 -0.01623261
000150 5d 48 f3 bd e7 20 01 3e 58 b4 bb 3d f8 ca 7b bd
       -0.118790366 0.12610207 0.09165257 -0.061472863
000160 8d 40 6e bc 03 b5 5a bc a6 7d 04 be 69 3e b9 bd
       -0.014541757 -0.013348821 -0.12938556 -0.09045107
000170 2b 3d 3c bd cc 84 fa bd 90 74 2a 3e de 08 eb 3d
       -0.04595677 -0.1223236 0.16646028 0.11476301
000180 bb af b7 bd c7 58 13 be 0b 19 cc 3d 77 4d f7 3d
       -0.08969065 -0.14389335 0.09965714 0.12075322
000190 07 fd 2e bd 95 23 b6 bd 6b c8 ec bb fc fb ca 3d
       -0.042721774 -0.088935055 -0.00722604 0.099113435
0001a0 99 01 0a bc b2 4f c5 bd f7 40 a5 3d f9 dd 47 3d
       -0.0084232325 -0.09634341 0.08069032 0.048795674
0001b0 1c 11 7e 3d c7 79 c2 bb 7a 42 b2 bd b1 e4 e3 3d
       0.062028036 -0.005934927 -0.08704086 0.11127604
0001c0 23 37 f5 bd 84 43 8b bd 87 0d ff bd 45 ad 80 3d
       -0.11973407 -0.06799987 -0.12453752 0.062830485
0001d0 c5 87 d2 bd 04 a6 0e 3e 3d 02 09 bd 68 98 b6 bd
       -0.10279802 0.13930517 -0.0334494 -0.08915788
0001e0 d3 44 8a 3d 26 e6 9e 3d e5 06 f9 3d 6d 00 c3 bd
       0.067514084 0.07758741 0.12159518 -0.095215656
0001f0 3b 83 dc 3d 1e ad 1f be 73 ab cb 3d c7 a8 f8 bd
       0.10767218 -0.15593383 0.09944811 -0.12141567
000200 99 49 44 bd 0c 34 1a bd f6 cb c5 bd 6a d7 d4 bd
       -0.04792175 -0.037647292 -0.09658043 -0.103926495
000210 29 92 1e bd 0b 91 27 3e 79 78 f6 3d 04 32 63 3d
       -0.038713608 0.16363923 0.12034697 0.05546762
000220 1f 9c d0 3d c6 52 2c 3e 34 3b be bd c8 09 5f 3d
       0.10186028 0.1682845 -0.09288636 0.054452688
000230 a8 34 f2 bd a5 2e 59 3d e3 d5 d3 3d ef ef b1 bc
       -0.1182645 0.053023 0.1034353 -0.021720855
000240 00 6c 13 3e f7 64 79 bd bd b2 05 3d 35 62 28 3e
       0.14396667 -0.060887303 0.03264116 0.16443713
000250 a5 80 b8 bd ea 88 a5 3b 78 4a db 3d 2e 9f b4 bd
       -0.09008912 0.005051722 0.10707563 -0.088194236
000260 8b 3a 1a 3d 97 7a 50 3c 67 cf 04 3d 06 bf 92 bd
       0.037653487 0.01272454 0.032424357 -0.07165341
000270 43 a1 13 be d2 fd fe 3d c9 09 6d bd 57 b9 c2 3d
       -0.14416985 0.12450756 -0.05787066 0.09508007
000280 77 a7 1b be 0a b3 88 bd 15 2b a4 3d 4b 2e b3 bc
       -0.15200602 -0.06674774 0.0801603 -0.02187266
000290 76 e7 83 bd 76 f3 11 3e 24 99 04 3e 73 c5 a4 3c
       -0.06440632 0.14253029 0.12949044 0.020113682
0002a0 48 85 22 3d be c7 43 3d 55 46 c5 3c ae 63 08 3d
       0.03967789 0.04779791 0.024081388 0.033298187
0002b0 b4 8e fb bc 86 4e 54 3d ed 21 0e be b6 30 63 3d
       -0.030707695 0.0518327 -0.13880129 0.055466376
0002c0 f0 87 cc bd 43 3e 9a 3d 5b 39 c7 bc 58 d9 af bd
       -0.099868655 0.07531407 -0.024319341 -0.08586377
0002d0 d3 53 83 bd 69 fe 4b 3d 31 27 63 3d 4f 1e 8e 3d
       -0.064124726 0.04980317 0.055457298 0.06939375
0002e0 14 72 fb 3d 4e 24 0c 3d 2f 8e 85 bd c4 dd 70 3d
       0.12277618 0.03421431 -0.0652126 0.058805242
0002f0 b1 2a ec bc 0e ec d9 bd d9 26 2e be 32 47 f1 bd
       -0.02882895 -0.10640727 -0.17007007 -0.117811576
000300 03 ea 69 3c f4 8b a1 bd 57 8c 96 3d 41 d1 a3 bc
       0.014276984 -0.07888022 0.073509865 -0.019997241
000310 ef c7 73 bc 6c 45 ee 3c 3a 16 2d bd 24 f1 8a bb
       -0.014879211 0.029085837 -0.042257525 -0.004240172
000320 4d 94 d9 bd c3 ae 88 bd 9b f2 a3 bd b5 d6 d4 bd
       -0.10623989 -0.06673958 -0.08005258 -0.103925146
000330 a3 bf f7 bd 4c dc cf 3c 80 47 91 bc 55 9c 88 3d
       -0.12097099 0.0253736 -0.01773429 0.06670443
000340 36 57 af bd 46 5a 02 be 31 3d a2 3d 47 de fd bd
       -0.08561556 -0.12729749 0.079218276 -0.12395912
000350 58 fb c4 3d 8f 58 c1 3d c9 49 c7 3d d9 36 15 be
       0.096182525 0.09440719 0.0973087 -0.14571704
000360 9b c7 c1 bd c8 c7 f0 3d f7 bd b9 3d cd 8d 7e 3d
       -0.094619 0.11756855 0.09069436 0.06214695
000370 f4 0a 0b bd da 4b ea 3c 38 00 33 3d 41 b9 13 3e
       -0.033945993 0.028600622 0.04370138 0.14426138
000380 7f d0 df 3d 03 9f 93 bd 58 92 0b bd cb b2 12 be
       0.10928439 -0.072080635 -0.03407511 -0.14326017
000390 b9 31 a2 ba 15 ce 9a bd 04 67 25 3d c6 a6 fd 3d
       -0.0012374438 -0.07558838 0.040381446 0.12385325
0003a0 61 fd 08 be f7 d4 59 3d a3 c1 0a be 63 1a d3 bd
       -0.13377906 0.053181615 -0.13550429 -0.10307767
0003b0 f2 26 6b 3d 81 ea 0c 3e 61 63 02 be 9e 8c 45 3d
       0.057410188 0.13761331 -0.12733223 0.048229806
0003c0 78 a3 10 3c 40 cf ce bd e5 47 95 bd 3c fa b3 3d
       0.0088280365 -0.100981236 -0.072891034 0.08787963
0003d0 d5 6c 15 3d 2d 21 c7 3d 61 5e ee 3d b4 6c e5 3d
       0.036480743 0.09723125 0.11639095 0.11202374
0003e0 73 fa c8 bd 07 77 83 3c bb b9 05 be 5b 6d de 3d
       -0.098133944 0.016047968 -0.13059132 0.10860702
0003f0 ca b4 e1 bc 81 0b d5 3d 25 35 21 3d 9e 62 09 3c
       -0.027552027 0.10402585 0.039357323 0.008385329

fc2.bias f4 [10]
000000 da ad 7a bd 4d 26 3e bc 3a d0 22 bd d8 52 4c 3d
       -0.061200954 -0.011605811 -0.03974936 0.049883693
000010 0c 9f 03 bd 5a 00 7e bd 8b e0 4d 3d 90 33 bd 3d
       -0.0321341 -0.062012054 0.05026297 0.092383504
000020 2f 08 4b bd 98 7e 98 bd
       -0.04956835 -0.07446021

momentum_buffer f4 [10, 1, 5, 5]
000000 e1 91 d0 bc 13 c6 a2 bd ec da a0 bd 14 c7 f8 bc
       -0.025460185 -0.07947936 -0.07854256 -0.030368365
000010 51 e5 c8 3c 26 a8 9d bd 7d 65 f2 bd 84 34 aa bd
       0.02452341 -0.076980874 -0.118357636 -0.08310798
000020 7b 36 95 bc b0 8c ab 3c e0 c1 01 be 81 51 13 be
       -0.018214455 0.020941108 -0.12671614 -0.1438656
000030 2e 9c a2 bd 06 ca a2 bc c2 cd b6 3b 54 01 1a be
       -0.07939945 -0.019871723 0.0055787275 -0.15039569
000040 b1 9d 14 be 18 48 9c bd a1 75 04 bd 26 ac 60 bc
       -0.1451328 -0.07630938 -0.032338742 -0.013712918
000050 07 2e 15 be 95 51 01 be 14 02 8f bd 6d 71 46 bd
       -0.1456834 -0.12628777 -0.06982818 -0.048448015
000060 d1 9b 08 bd 91 d5 9f 3b b0 95 3b 3c 28 12 57 3c
       -0.033351723 0.004877754 0.0114492625 0.013126887
000070 ae 99 d6 3b 8a 63 43 3b 0b 08 8d bb a2 a6 a6 b9
       0.0065490818 0.0029813969 -0.0043039373 -0.00031786138
000080 0c 1f 7b 3b 51 a0 1a 3b ae b7 70 bb 14 03 2c bc
       0.0038318066 0.0023594091 -0.0036730575 -0.010498781
000090 2a 59 bb bb a8 5d 25 3a 69 58 39 3b fa 54 84 bc
       -0.0057174163 0.00063082064 0.0028281456 -0.016153801
0000a0 31 fb 13 bc 45 17 16 bc c6 b1 bc ba 8e c8 3e bb
       -0.009032057 -0.009160821 -0.0014396242 -0.002911124
0000b0 82 85 bc bc 53 b2 22 bc 69 ca 04 bc a0 4b 6c bb
       -0.02301288 -0.009930211 -0.008104899 -0.0036055818
0000c0 4a 5c b9 bb b0 68 04 bd 06 1a b8 3c e7 03 2e bd
       -0.0056567537 -0.0323264 0.022473346 -0.04248419
0000d0 6e 31 18 be 2c 0c 61 be ff 0d 33 be 57 1c 3a bd
       -0.14862606 -0.219773 -0.17485808 -0.045437183
0000e0 2e 1c 13 be df 09 83 be 22 6e 88 be 6a c8 38 be
       -0.14366218 -0.2559347 -0.26646525 -0.18045202
0000f0 f8 11 f2 bd cb b9 6f be 64 53 9a be 41 7e 86 be
       -0.118198335 -0.23410718 -0.30141747 -0.262682
000100 62 10 13 be 7e 5c 20 be 35 c7 83 be 38 e2 88 be
       -0.14361718 -0.15660283 -0.2573792 -0.2673509
000110 c8 82 50 be 94 7d ea bd 8e e6 19 be ce 67 56 be
       -0.20362389 -0.114497334 -0.15029356 -0.20938036
000120 ab 6e 38 be 63 f8 ee bd d2 70 77 bd 47 cb f3 bc
       -0.18010966 -0.1166847 -0.06041033 -0.029760016
000130 d7 4b 82 bd b8 41 21 be 9b 7f 3e be 29 f0 eb bd
       -0.063621216 -0.15747726 -0.18603365 -0.11520416
000140 fd 17 9b bd 97 dd 09 be 2e f4 64 be d9 fd 56 be
       -0.07572935 -0.13463436 -0.22358772 -0.20995273
000150 64 b3 d7 bd 29 f1 f7 bd ab de 54 be 41 2b 79 be
       -0.10532263 -0.121065445 -0.20788066 -0.24332906
000160 66 86 3b be 22 04 8a bd ce b6 32 be 0e 01 69 be
       -0.18312988 -0.067390695 -0.17452547 -0.22754309
000170 ae 92 6d be 0c 93 13 be 29 0f 32 bd 11 1b 3f be
       -0.23200485 -0.14411563 -0.04347149 -0.18662669
000180 f2 a1 60 be b0 76 39 be 24 dc c5 bd d6 41 e4 bc
       -0.21936777 -0.18111682 -0.09661129 -0.027863424
000190 ed ce c0 b9 aa 29 b7 ba c9 5d 35 ba e1 f8 88 ba
       -0.00036775265 -0.0013974209 -0.0006918577 -0.0010450148
0001a0 46 bf 45 ba 22 35 59 bb be 0d 88 bb 63 46 45 bb
       -0.00075434556 -0.0033143242 -0.004152029 -0.0030101768
0001b0 d7 57 14 bb 92 b2 d1 ba ee cd 93 bb 71 5b 71 bb
       -0.0022635364 -0.0015998653 -0.0045106327 -0.0036828185
0001c0 43 c0 17 bb 9c 2d 5f ba a8 3d d9 b8 ba 65 4c bb
       -0.0023155368 -0.0008513571 -0.00010358851 -0.0031188563
0001d0 f2 87 39 bb 5d 8e 39 bb 54 db b1 ba cf b8 af 39
       -0.002830979 -0.0028313615 -0.0013569393 0.00033516294
0001e0 9c 7f c2 39 18 27 82 b9 b0 3c 2a bb f0 dd ee ba
       0.0003709764 -0.0002482466 -0.0025976114 -0.0018224102
0001f0 42 53 80 3a 15 f7 0c bd 8b 1e 75 be 36 4d b6 be
       0.0009790438 -0.034415323 -0.23937432 -0.35605782
000200 5a 77 a1 be cb ce 1a be 14 f7 dc bd b9 60 b2 be
       -0.3153637 -0.15117948 -0.10789314 -0.3483942
000210 ec aa dc be fc 26 a6 be 90 55 0d be d9 dd 49 be
       -0.43099153 -0.32451618 -0.13802171 -0.19713534
000220 c3 05 d4 be 5d de db be 15 f5 93 be 02 93 de bd
       -0.41410646 -0.42943087 -0.2889792 -0.10867883
000230 e3 df 80 be ba c1 cd be fb f1 bb be 51 8d 5d be
       -0.25170812 -0.40186864 -0.36708054 -0.21635939
000240 5f 9c 95 bd 95 59 73 be e6 b6 a6 be 76 ec 7c be
       -0.07305216 -0.23764642 -0.32561415 -0.24699578
000250 fc a9 e0 bd 60 f6 15 3b cc 4d 33 3d 95 e5 87 bc
       -0.10969922 0.0022882447 0.043775365 -0.016588965
000260 03 2c 12 be df bc 7e be b6 83 6d be 7c 50 45 3d
       -0.14274602 -0.24876736 -0.23194775 0.04817246
000270 28 33 c9 bc b1 57 44 be e0 18 91 be 9c f0 73 be
       -0.024560526 -0.19174077 -0.2833929 -0.23822254
000280 ae 8a 3f 3d 89 1f 72 bd 61 43 6f be ff 77 93 be
       0.046763115 -0.059112106 -0.23365547 -0.28802487
000290 ed 6d 4c be 66 d6 c1 3c 37 b0 e1 bd 88 5a 78 be
       -0.19963808 0.023661803 -0.110199384 -0.24253285
0002a0 90 84 84 be f5 01 15 be a8 6a c0 ba 6e 5d 01 be
       -0.25882387 -0.14551528 -0.0014680224 -0.12633297
0002b0 3f b5 4d be 20 38 3e be 39 30 b7 bd f7 60 69 3c
       -0.20088671 -0.18576097 -0.089447446 0.01424431
0002c0 e6 9d 8f bc 2e 68 e4 bd 4b a7 57 be 86 73 4a be
       -0.017531347 -0.11152683 -0.21059911 -0.19770631
0002d0 92 28 9c bc 7d ec 92 bd 2a 08 58 be 3d e3 81 be
       -0.019062314 -0.07174013 -0.21096864 -0.25368682
0002e0 4c 2d 3a be e5 a2 51 bd 16 99 08 be 16 4b 7b be
       -0.18181342 -0.05118074 -0.13339648 -0.24540362
0002f0 7d c1 7a be e3 57 05 be f9 95 a3 bd ad 8f 32 be
       -0.24487872 -0.13021807 -0.079875894 -0.1743762
000300 d6 04 74 be 20 72 49 be f9 9b c8 bd 4f 2e c9 bd
       -0.2382997 -0.19672441 -0.097953744 -0.09823286
000310 a3 04 39 be 60 6e 55 be b3 a4 16 be 61 3c 92 bd
       -0.18068175 -0.20842886 -0.14711265 -0.071404226
000320 9e 57 9a 3c 36 08 94 3b 70 1e 94 bc 71 6d 72 bd
       0.018840607 0.0045175804 -0.01808092 -0.059186403
000330 70 88 90 bd f7 6e 37 3c 8f b4 1c 3b 18 5b 02 bd
       -0.070572734 0.01119589 0.0023911332 -0.031825155
000340 d8 06 b7 bd 57 8e a5 bd 47 b2 16 3c a2 ec 70 bb
       -0.08936852 -0.0808379 0.009197778 -0.0036762138
000350 b9 a1 83 bd 8c d6 ec bd a5 2d b8 bd 84 a1 1f 3c
       -0.064273305 -0.11564359 -0.08993081 0.009743098
000360 34 20 9e ba d4 a2 9b bd ed 1f e8 bd b8 6d 9b bd
       -0.0012064041 -0.075994164 -0.11334214 -0.075892866
000370 d0 65 5e 3b 65 db de bc 6c 2a cb bd 31 f3 dc bd
       0.0033935197 -0.027204225 -0.09920201 -0.107885726
000380 ce 71 59 bd be 7f 67 bc 15 3a 86 bb 32 3b e8 39
       -0.05308705 -0.014129577 -0.0040962794 0.00044294592
000390 10 fa 31 ba ce 76 8b ba 8a b8 b0 bc a0 f4 3f bc
       -0.00067892764 -0.0010640265 -0.02157237 -0.011716038
0003a0 0a 06 0a 3a 76 2f 9f 38 05 ee 49 ba ea 38 f3 bc
       0.0005265182 7.590551e-05 -0.0007703009 -0.029690225
0003b0 c8 aa 23 bc 1d 68 d6 b8 34 e3 00 38 42 cb e5 b9
       -0.009989448 -0.00010223708 3.0729178e-05 -0.00043829723
0003c0 de a0 fb bc a5 9a 0c bc 91 7e 79 39 ae 1f 09 3a
       -0.030716356 -0.008581792 0.0002379364 0.0005230856
0003d0 ec d5 8c 37 46 d3 ef bc ab ef 9c bb 6c 48 6b 39
       1.6788916e-05 -0.029275548 -0.004789313 0.00022438326
0003e0 bc 0d 2e 39 20 22 98 38
       0.0001659905 7.254281e-05

momentum_buffer f4 [10]
000000 b0 68 9a bb 2e f5 8a bd 60 36 1a be 50 58 59 bc
       -0.0047121868 -0.067850456 -0.15059805 -0.013265684
000010 3c ca a1 bb fc cd af 3d 0a 0e 5f 3c c4 cf 5a be
       -0.0049374383 0.0858421 0.013614187 -0.21368319
000020 65 cb 50 3b 00 52 63 bc
       0.0031859514 -0.013874531

momentum_buffer f4 [20, 10, 5, 5]
000000 0f fb e1 3b 10 ea 3f 3c 62 e5 16 bd 49 ef 08 bd
       0.0068963836 0.01171352 -0.03683985 -0.033431325
000010 3a 5e 0a 3a 13 b3 a7 3c 69 a1 f1 3b 9f 5b a0 bd
       0.0005278323 0.020471131 0.007373978 -0.07829975
000020 5e ff c5 bc 5c 9b e2 3c a4 73 42 3d d2 02 3f bd
       -0.02416962 0.027661972 0.047473565 -0.04663355
000030 56 79 c3 bd a6 ae 94 3b 8e 20 e8 3b 52 96 36 3d
       -0.09544627 0.0045374213 0.007083959 0.04457695
000040 4d 71 a8 bd a0 0e 9a bd 79 16 34 bb 2f cd 93 bc
       -0.082247354 -0.07522321 -0.0027479215 -0.018042175
000050 fd 2e ae 3c b0 e4 8d bd 22 3e 2c bd 14 38 70 bc
       0.02126264 -0.06928384 -0.042051442 -0.014661808
000060 e5 0a bc bc ac c2 47 bc 41 18 b4 bb 46 6f 44 3b
       -0.022954414 -0.0121924095 -0.0054960554 0.002997355
000070 96 be 86 3a de f7 87 bb 2a 5e 2f bc 04 29 28 3b
       0.0010280188 -0.004149421 -0.010703603 0.0025659213
000080 96 d7 19 3b 1c 90 06 3b 6a 88 b2 b9 a6 c2 b7 bb
       0.0023474446 0.0020532673 -0.00034052442 -0.0056079207
000090 8b ed d5 3b 71 e3 eb 3b 93 15 44 bb 94 0a bb bb
       0.0065285615 0.007198744 -0.0029920086 -0.005708048
0000a0 b0 5d 8c 39 17 a7 68 3b 58 84 31 3b 2a 76 9d bb
       0.00026772683 0.0035499984 0.002708694 -0.004805346
0000b0 5b dc 86 bb c7 14 47 3b a0 b7 b1 39 ee 72 cc 3a
       -0.004115624 0.0030377374 0.00033896882 0.0015598217
0000c0 c4 4e 0b 3a bc db 16 bb 99 1d be 3c b8 0a 5c bd
       0.0005314166 -0.0023019155 0.023207473 -0.05372116
0000d0 62 30 68 bd 99 75 12 bc 5e 4a 68 3d b0 b3 b8 bb
       -0.056686766 -0.00893917 0.056711547 -0.005636655
0000e0 33 69 95 bd 67 ac 63 bd 7a 61 3e 3d 8c cf 9a 3d
       -0.07295456 -0.055584338 0.04647968 0.07559118
0000f0 dd e9 5f bd b0 3f d4 bd 5a 9d eb bc 8e 6a 7f 3d
       -0.05466639 -0.1036371 -0.028761555 0.062357478
000100 6d 17 71 3d 18 1f c0 bd b6 3d e3 bd 5b ec 09 bd
       0.05886023 -0.09380931 -0.11095755 -0.03367267
000110 fc 5d 8d bb 86 16 b7 3b 93 e5 ce bd 6f b1 ec bd
       -0.0043141823 0.005587402 -0.101023816 -0.1155728
000120 ac 9d 9b bd ff 52 64 bd 2b 15 e1 bc 50 ef 60 3d
       -0.07598433 -0.055743214 -0.027475914 0.054915726
000130 b0 52 d8 bc 51 ed a1 bd d6 2f 28 bd 4f 81 05 3d
       -0.026406616 -0.07906593 -0.041061245 0.03259402
000140 46 b8 39 3d 18 a9 97 bd 98 19 ab bd 18 af 27 3a
       0.045341752 -0.07405299 -0.08354491 0.00063966354
000150 2d 8c 48 3d 74 f0 d3 3b 20 7c d6 bd e1 92 4f bd
       0.048961807 0.006467873 -0.10472894 -0.050677184
000160 8e d3 e6 3c 9c ab 0f 3d ea 95 1e bd 67 79 ca bd
       0.028177049 0.03507577 -0.038717188 -0.09886437
000170 a4 6f 3d bd b8 fb a3 bc 0e 29 34 bb 50 db 6b bd
       -0.046249047 -0.02001749 -0.002749029 -0.0575822
000180 22 9e a7 bd c8 45 90 bd 3c d3 49 bd 2d 98 ee bc
       -0.08184458 -0.0704456 -0.049273714 -0.029125297
000190 6c 0b 9d b9 e6 42 58 b9 48 0f 97 b9 6c a9 f3 b9
       -0.00029953883 -0.00020624287 -0.0002881235 -0.000464748
0001a0 62 e8 d4 39 f2 22 e2 38 0a 20 0b 39 c4 0d 30 39
       0.0004060893 0.00010783029 0.00013268008 0.00016789796
0001b0 41 11 7c 39 e5 4b 87 b8 9a 5f 0e 37 ca a4 66 b5
       0.0002403902 -6.451438e-05 8.4861185e-06 -8.5921477e-07
0001c0 33 03 87 39 ee 7f 5e b8 30 7d 1c 39 39 92 f4 38
       0.0002575159 -5.304807e-05 0.00014923955 0.00011662063
0001d0 9f 4c c2 b8 e2 5b 3a 38 60 c2 d8 38 40 c9 ac b8
       -9.264913e-05 4.443143e-05 0.00010335888 -8.239085e-05
0001e0 d8 d5 ea 37 b2 85 87 37 2e d7 60 39 90 ef c5 b9
       2.7994553e-05 1.615551e-05 0.00021442465 -0.00037753256
0001f0 08 83 44 b9 de 03 cb 3d ee b2 1c bd 98 d0 09 be
       -0.0001874083 0.09912847 -0.03825658 -0.13458478
000200 95 5b 85 bd 20 e1 21 3d 50 37 a9 3d ca 18 d7 bd
       -0.065116085 0.039521337 0.08262503 -0.10502775
000210 bf 3a 22 be d4 2d 07 3c e0 84 af 3d 4f 16 8c 3c
       -0.15842722 0.008250672 0.08570266 0.017100481
000220 f8 0f 26 be cc 4f f0 bd 2a 31 8a 3d 9c 86 95 3d
       -0.16217029 -0.1173397 0.067476586 0.07301065
000230 f4 78 79 bd 23 a4 42 be 9e 04 98 bd be 34 c9 3c
       -0.060906366 -0.19007926 -0.07422756 0.024561282
000240 3d 6b 36 3c 0c 0c d3 bd 0a 1e 46 be 0f 54 d8 bd
       0.011133966 -0.10305032 -0.19347396 -0.10562908
000250 67 1f 4b bd bd e2 2b bd 6c 38 cb 3b d8 61 ce bd
       -0.049590494 -0.04196428 0.0062017944 -0.10077256
000260 08 60 92 bd e5 8d 4f 3c 3d 00 3e 3d dc 73 32 bd
       -0.07147223 0.012668108 0.046386946 -0.043567523
000270 36 2c 0a be a0 92 df bc 90 ae 6a 3d ae 6e 34 3d
       -0.13493428 -0.027291596 0.057295382 0.044050865
000280 96 9f d7 bd fd ba 15 be d8 b4 bc 3c 57 fa 5c 3d
       -0.105284855 -0.14622112 0.023035452 0.05394968
000290 6a d9 12 3d 8a 69 1a be 10 08 02 be 82 f6 9d 3c
       0.035851873 -0.15079322 -0.12698388 0.019282583
0002a0 e4 43 f9 3b 34 5d a0 3c 53 5d 1c be 16 15 e1 bd
       0.00760697 0.019575693 -0.15269975 -0.1099035
0002b0 b6 c8 93 bc 2a 53 3d bc 1d df a6 3c 14 15 1a 3d
       -0.018040042 -0.011555472 0.02037006 0.037617758
0002c0 e6 09 81 bd e1 b0 8a bd b5 1d 4b bb 9d 21 2c 3d
       -0.06300716 -0.06772018 -0.0030993049 0.042024244
0002d0 c8 90 15 3c 48 e3 da bd e7 9c 57 bd e6 37 26 3d
       0.009128757 -0.10687882 -0.052639868 0.040580653
0002e0 e9 8c 13 3d 7a 6a 5d bd 85 6c 00 be 9c b4 e1 3b
       0.036023054 -0.054056622 -0.12541397 0.0068879854
0002f0 3a cd 51 3d e0 48 c9 3c f2 39 b8 bd 80 59 bf bd
       0.05122111 0.024570882 -0.08995427 -0.09343243
000300 76 3c 73 3c 44 5a 36 bb 60 0a 54 39 93 a7 c6 bd
       0.014845958 -0.0027824799 0.0002022176 -0.09699931
000310 c8 1a 95 bd 3e 7b cf bc cc f4 1a bd 89 90 a8 bc
       -0.07280499 -0.025327321 -0.037831113 -0.020576732
000320 1c 6a ce ba 39 f8 24 bd 55 87 8a bc 1b cb 58 3c
       -0.0015748176 -0.040275786 -0.016910234 0.013232018
000330 e1 a8 4e 3c 23 ef bf bc d2 c5 3e bd 80 b7 07 3c
       0.012613506 -0.023429459 -0.046575375 0.008283496
000340 81 c5 7e 3c 80 97 48 b8 66 d1 2b bd c4 1b e1 bc
       0.015550018 -4.782481e-05 -0.041947745 -0.02747906
000350 98 f9 86 3c 38 5d 18 bc b8 52 db ba da f5 3c bd
       0.016476437 -0.009299569 -0.0016733026 -0.0461329
000360 0f 99 12 bc 32 73 9d bb a2 8b f1 bc 7a 72 87 bc
       -0.008947625 -0.004804992 -0.029485527 -0.016534079
000370 67 a2 0a bd c6 25 87 bb 94 d8 7e bb 34 d1 4b bc
       -0.033846285 -0.004124376 -0.0038886415 -0.012440015
000380 fe 8e 35 3b f0 4a 9b 3a 2d 31 49 3b ee ad 27 bb
       0.0027703638 0.0011847895 0.0030699477 -0.0025585848
000390 0b a2 c7 bb a0 cd 36 bb cd 01 9a 3a 9f 74 23 3b
       -0.006092315 -0.0027893558 0.0011749804 0.0024941338
0003a0 8f 84 a3 bb 6a 94 df bb 9a b5 79 b9 3e 5d b7 3a
       -0.0049901675 -0.0068231123 -0.00023814142 0.001398958
0003b0 d7 6a 1a 3b 3e 80 01 bc 52 e0 a6 bb e4 71 3a 3b
       0.0023562217 -0.0079041105 -0.005092659 0.0028449232
0003c0 64 c1 ea 3a e8 1e c6 3a fc bc 09 bc 90 1b 01 39
       0.0017910418 0.0015115412 -0.008406874 0.00012312667
0003d0 d8 f6 18 3b a6 4e bd 3a c0 e2 a3 ba 50 0e 86 bb
       0.002334049 0.0014442995 -0.001250349 -0.0040910617
0003e0 f9 ff c7 3a f2 bf a8 3a 0c d3 a4 3c 0d 45 5a bc
       0.0015258781 0.0012874587 0.020120166 -0.013322127
0003f0 40 e9 cb bc 8e 5d 96 bb 68 26 8b 3b 06 e3 17 3d
       -0.024891496 -0.0045887893 0.0042465217 0.03708174

momentum_buffer f4 [20]
000000 20 69 a3 bc f0 99 c1 bb 76 55 2e 3d 00 00 00 00
       -0.019947588 -0.0059082434 0.04256197 0.0
000010 b4 94 95 bc 88 82 22 bb f9 f7 d7 bd 2e 53 d4 3d
       -0.018259384 -0.002479704 -0.10545344 0.10367428
000020 49 d5 26 3c b4 eb c3 3b ac 61 43 bd 66 a2 f4 3d
       0.010182687 0.0059790257 -0.04770057 0.119450375
000030 f6 cb b0 bb 7f 28 82 3c 41 5b bb bc 94 f1 c7 3b
       -0.005395408 0.01588845 -0.022870662 0.0061017964
000040 57 a6 d7 3c a8 6e cd bd 56 d0 42 bd 42 05 4c 3d
       0.026324434 -0.10030872 -0.047561966 0.0498097
