lecture8/mnist-4000.pth (torch_old, 177308 bytes, 16 tensors)

conv1.weight f4 [10, 1, 5, 5]
0	0xbe09d56e	-0.13460323
1	0x3e508aa3	0.20365386
2	0x3cd69817	0.026195569
3	0xbe5324e3	-0.2061954
4	0xbe28ab22	-0.16471532
5	0x3c23b027	0.009990728
6	0x3e44920e	0.1919634
7	0x3e5e730e	0.21723577
8	0xbd9d114d	-0.076693155
9	0xbe647d27	-0.22313367
10	0x3e9ab1bb	0.30213723
11	0x3eaa43f5	0.33254972
12	0xbcb6d21b	-0.022316983
13	0xbd113e4c	-0.0354598
14	0x3d46996d	0.048486162
15	0x3e3d331f	0.18476532
16	0x3e9e8cc2	0.30966765
17	0xbd9f2a09	-0.077716894
18	0x3d3b99cc	0.04580097
19	0xbde00f1d	-0.10940383
20	0xbd1b59e7	-0.037927534
21	0x3e58c2fe	0.21168134
22	0xbd18b1d9	-0.037278984
23	0x3e8b3a1c	0.2719277
24	0x3e991533	0.29898986
25	0xbe2eaf46	-0.17059049
26	0xbe412b02	-0.18864062
27	0xbd74cb2f	-0.059764083
28	0xbe31800e	-0.17334005
29	0xbe15e7fd	-0.14639278
30	0xbd1c7407	-0.03819659
31	0x3e3182a4	0.17334992
32	0x3e0ba352	0.1363652
33	0x3d975b79	0.07390494
34	0xbe3656cb	-0.17806546
35	0xbe2b4e33	-0.1672905
36	0xbda8b3e7	-0.08237439
37	0x3c9de992	0.019276414
38	0xbd13b01a	-0.036056615
39	0x3e45bf1e	0.19311187
40	0xbe497f45	-0.19677456
41	0x3d9d073f	0.07667398
42	0xbd3a0a8b	-0.04542021
43	0x3cf257b6	0.02958284
44	0xbe11b6c7	-0.1422988
45	0x3db6c158	0.08923596
46	0xbe2d0829	-0.16897644
47	0x3c2ea8fe	0.010660408
48	0xbdbfed92	-0.09371485
49	0x3e3ce06e	0.18444988
50	0xbdbf09c3	-0.09328034
51	0x3cb1a592	0.021685395
52	0x3ccc32c7	0.024926556
53	0x3e9d2984	0.30695736
54	0x3d57d2a2	0.05269111
55	0x3e66f03b	0.22552578
56	0x3e59375c	0.21212524
57	0x3ee07309	0.43837765
58	0x3ee9ef27	0.4569027
59	0x3ecbf24b	0.39833292
60	0x3ea46092	0.32104927
61	0x3e216348	0.15760529
62	0x3ee06a47	0.43831083
63	0x3eb2f777	0.34954426
64	0x3e123fc5	0.14282139
65	0x3d1f670b	0.03891663
66	0x3e883851	0.26605466
67	0x3e08f90c	0.13376254
68	0x3e8b5bac	0.27218378
69	0x3e1715e4	0.14754444
70	0x3e81c08f	0.25342223
71	0x3e7d27a1	0.24722148
72	0xbdad5978	-0.084643304
73	0x3e842fd3	0.25817737
74	0x3e2b116a	0.16705862
75	0x3dbf6c87	0.09346872
76	0xbe0679e8	-0.13132441
77	0x3e2e9626	0.17049465
78	0x3e838f42	0.25695235
79	0x3e3703b8	0.17872512
80	0x3e275570	0.16341186
81	0xbdd6105a	-0.104523376
82	0x3e80e40e	0.25173992
83	0x3ddbefd9	0.10739107
84	0xbd8f45be	-0.06995724
85	0x3dbe3060	0.092865705
86	0x3e97078f	0.29497954
87	0x3e3e886e	0.18606731
88	0x3e948cf9	0.29013804
89	0xbe0f0cef	-0.13969778
90	0x3e81bb2d	0.25338116
91	0x3e0bd7bc	0.13656515
92	0x3ec5c8e2	0.38629824
93	0x3e80df78	0.25170493
94	0x3d526639	0.05136702
95	0x3e9d0365	0.30666652
96	0x3c3bd39e	0.011464028
97	0x3e42375a	0.18966427
98	0xbd8130d5	-0.06308142
99	0x3e0b6361	0.13612129
100	0xbe032f5f	-0.1281104
101	0xbcc5f50d	-0.0241647
102	0xbe32dee0	-0.17467833
103	0xbc7f2072	-0.0155717
104	0xbe35a7f8	-0.17739856
105	0x3e351a4f	0.17685817
106	0x3dba9bdb	0.09111758
107	0x3ba1befd	0.0049360977
108	0x3dc5a57d	0.09650705
109	0x3d97047a	0.07373901
110	0xbdae277d	-0.085036255
111	0xbdaf9655	-0.085735954
112	0xbb9f2320	-0.004856482
113	0xbde6c0a1	-0.1126721
114	0xbdc0e428	-0.09418517
115	0x3db970c3	0.09054711
116	0x3e2666fc	0.16250223
117	0xbe0681f4	-0.1313551
118	0x3ddceb9b	0.10787126
119	0xbe317767	-0.17330705
120	0xbd7d7313	-0.06187732
121	0xbe10f46e	-0.14155743
122	0x3dfd21a3	0.12359931
123	0x3d0d8b59	0.03455672
124	0x3b4a1b5c	0.0030839061
125	0x3e0cdf94	0.13757163
126	0x3eb4c1b5	0.35304037
127	0x3efd4a95	0.49470964
128	0x3ee1fd75	0.44138685
129	0x3d7f5077	0.062332597
130	0xbc682b00	-0.014170408
131	0x3ed519c7	0.4162123
132	0x3f02de95	0.51120883
133	0x3eef8a50	0.46785212
134	0x3d761917	0.06008252
135	0x3dda79a9	0.10667736
136	0x3edc8744	0.4307195
137	0x3eb109f4	0.34577906
138	0x3edeb570	0.434978
139	0x3dd63f4e	0.10461293
140	0x3e66f4c4	0.22554308
141	0x3ed80ed1	0.42198804
142	0x3e376645	0.17910106
143	0x3eb1cb5a	0.34725457
144	0x3e08500c	0.13311785
145	0x3e890417	0.26760933
146	0x3e81100e	0.2520756
147	0x3d46e269	0.048555765
148	0xbdb8a34e	-0.09015523
149	0x3d5b9015	0.053604204
150	0xbdd32e36	-0.103115484
151	0x3d18c4a6	0.037296914
152	0x3e9854e0	0.29752254
153	0x3eb73c27	0.3578808
154	0x3eb79753	0.3585764
155	0xbe37b018	-0.17938268
156	0xbe1bd3d1	-0.1521752
157	0x3e430aff	0.19047163
158	0x3eaa90cf	0.33313605
159	0x3e4feec3	0.20305924
160	0xbdecca48	-0.115620196
161	0x3dd00685	0.101574935
162	0x3e2de8b9	0.16983308
163	0x3ea1bf4d	0.31591263
164	0x3eaa56ed	0.33269444
165	0xbe0be861	-0.13662864
166	0x3e60eac8	0.21964562
167	0x3dea441f	0.11438774
168	0x3da5657f	0.080759995
169	0x3d1bf964	0.038079634
170	0xbe1928ec	-0.14957017
171	0x3e60a925	0.21939524
172	0x3e7f9b53	0.24961595
173	0x3e8d8eb6	0.27647942
174	0x3e595915	0.21225388
175	0xbe31cc2d	-0.17363043
176	0xbe026cbc	-0.12736791
177	0xbbebe267	-0.00719862
178	0x3ead4b79	0.33846644
179	0x3e7c3a70	0.24631667
180	0x3d949dc2	0.072566524
181	0xbcf2b7dd	-0.029628688
182	0x3e9f7c33	0.31149444
183	0x3e502046	0.20324811
184	0x3e7d5272	0.24738482
185	0x3e20fd9e	0.15721747
186	0x3d133dd4	0.035947636
187	0x3eece25a	0.46266443
188	0x3ec2c182	0.3803826
189	0xbce0b94b	-0.027432105
190	0x3d7a2016	0.061065756
191	0x3e83733a	0.25673848
192	0x3eac9323	0.33706006
193	0x3e1e14a1	0.15437557
194	0x3e130e75	0.14360984
195	0x3dface8b	0.12246426
196	0x3d6e4e6b	0.058180254
197	0x3dcfca47	0.10146003
198	0xbae3f107	-0.0017390557
199	0xbc8fee5f	-0.017569719
200	0x3d725474	0.059162572
201	0x3d35a5db	0.044347625
202	0x3d7f7fab	0.062377613
203	0xbe057bec	-0.13035554
204	0x3e33d051	0.17559935
205	0xbe109ffe	-0.14123532
206	0xbdc675ea	-0.09690459
207	0xbdf7706c	-0.1208199
208	0x3e869322	0.26284128
209	0x3b2f7dbd	0.0026777827
210	0xbe02ddb1	-0.12779881
211	0xbe1fb374	-0.155958
212	0xbd5bd0ea	-0.053666033
213	0x3e070e6b	0.13189094
214	0xbdfe41db	-0.12414905
215	0x3cf19cd8	0.029493734
216	0xbd9f27fc	-0.07771298
217	0x3e6e3663	0.23262934
218	0x3dfb33f2	0.12265767
219	0x3db0bf69	0.086302586
220	0x3e4ec5b1	0.20192601
221	0xbd10ab01	-0.035319332
222	0x3c992476	0.018694144
223	0x3e4f8cff	0.2026863
224	0xbceedc3f	-0.029157756
225	0x3e311086	0.1729146
226	0x3da0d679	0.078534074
227	0xbe474361	-0.19459297
228	0xbdf046bd	-0.11732242
229	0xbd72015f	-0.05908334
230	0x3d3e8717	0.04651555
231	0x3c8517be	0.016246673
232	0xbdc1d57c	-0.09464547
233	0xbd6590e9	-0.0560464
234	0x3e472661	0.19448234
235	0xbdd03831	-0.10166968
236	0xbdc272d4	-0.09494558
237	0xbdacd028	-0.0843814
238	0xbe249e7b	-0.1607608
239	0xbdc785f7	-0.09742349
240	0x3dde6923	0.10859897
241	0x3c9409b9	0.018071042
242	0xbdd8a925	-0.10579137
243	0x3e0c068c	0.13674372
244	0x393cab1e	0.00017992823
245	0x3e24f44b	0.16108815
246	0xbe3b13bb	-0.18269245
247	0xbdc61ddc	-0.09673664
248	0xbd86e22d	-0.06586108
249	0xbe084753	-0.13308458

conv1.bias f4 [10]
0	0x3e3121c6	0.1729804
1	0x3ddf707b	0.10910126
2	0x3c4fe570	0.0126889795
3	0xb91add6d	-0.00014769072
4	0xbddd4bbb	-0.1080546
5	0x3e305c42	0.17222694
6	0x3b0d055c	0.0021518087
7	0x3b3e24de	0.0029013674
8	0x3e5ab74d	0.21358986
9	0xbe0330c6	-0.12811574

conv2.weight f4 [20, 10, 5, 5]
0	0x3d839fe5	0.06426982
1	0x3cf582c6	0.029969584
2	0xbd4f8c43	-0.050670873
3	0x3cb7c136	0.022430997
4	0xbd3b7296	-0.045763575
5	0xbcf0d1af	-0.02939686
6	0x3c8db9ab	0.017300447
7	0x3d6a6335	0.057223517
8	0xbc6f962a	-0.014623204
9	0xbdbb5f64	-0.09149054
10	0xbcb774ff	-0.022394655
11	0x3d4a0414	0.049320295
12	0x3e15352f	0.14571069
13	0xbd452f7f	-0.048141
14	0xbd9ea7b0	-0.077468276
15	0xbdcb99f2	-0.09941472
16	0x3de78302	0.11304285
17	0x3d46018a	0.04834131
18	0xbcac721f	-0.02105051
19	0x3ca918b7	0.020641668
20	0xba9199cc	-0.0011108457
21	0x3c924e4e	0.017859604
22	0x3d5f7f4f	0.05456477
23	0x3bca229e	0.0061686775
24	0x3d38b756	0.045096718
25	0x3d3dd658	0.046346992
26	0x3c2b01d0	0.010437444
27	0xbd1ce408	-0.038303405
28	0x3d5e6d5b	0.05430351
29	0xba7d6bce	-0.0009667248
30	0xbd69cbae	-0.05707901
31	0x3b2861cf	0.0025693064
32	0x3d532bbe	0.051555388
33	0xbd4022f1	-0.046908323
34	0xbcf43a1f	-0.02981287
35	0xbd2e16b5	-0.042502124
36	0xbd59b504	-0.053151146
37	0x3d06d8f4	0.032921746
38	0x3d65c0f1	0.056092206
39	0x3d822e89	0.06356532
40	0xbd812638	-0.06306118
41	0x3d24fe1d	0.040281404
42	0xbb78cda8	-0.0037964378
43	0xbc970f15	-0.018439809
44	0x3cd900c3	0.026489621
45	0xbd530425	-0.051517624
46	0x3d44aa30	0.048013866
47	0xbb64f552	-0.0034936261
48	0x3cf62cef	0.030050723
49	0xbd12048b	-0.035648864
50	0x3d3a7321	0.04551995
51	0x3d87a56f	0.06623351
52	0x3d37fb77	0.04491755
53	0xbd86f307	-0.065893225
54	0xbd8cf329	-0.068823166
55	0x3d2a86c3	0.041632425
56	0x3dc9dace	0.09856187
57	0xbd6834af	-0.056690868
58	0xbe329592	-0.17439869
59	0xbd86e792	-0.06587137
60	0x3ca33d8b	0.019926807
61	0x3d7cb3f8	0.06169507
62	0xbd62d123	-0.05537523
63	0xbe3ae69c	-0.18252033
64	0xbd9f8928	-0.07789832
65	0x3d4d57c7	0.05013254
66	0x3de06722	0.10957171
67	0xbce3eca5	-0.027822802
68	0xbda78303	-0.081792854
69	0xbcbbe3a7	-0.022935702
70	0xbacfbef3	-0.0015849754
71	0x3dca37a7	0.09873896
72	0x3db6baa1	0.089223154
73	0x3ca1c266	0.019746017
74	0x3d6ee3df	0.058322784
75	0xbd256531	-0.040379707
76	0x3d8c0274	0.068364054
77	0x3d924de2	0.07143761
78	0x3c9597e3	0.018260902
79	0xbcb57606	-0.022151005
80	0xbba30fa2	-0.004976229
81	0x3daea67c	0.08527848
82	0x3de164fb	0.110055886
83	0xbdc431d5	-0.09579817
84	0xbd2ed11b	-0.042679887
85	0x3d113e75	0.035459954
86	0x3e1cce5d	0.15313096
87	0xbd340317	-0.04394826
88	0xbdbc9244	-0.092075855
89	0xbda6b051	-0.081390984
90	0x3d9071de	0.070529684
91	0xbb5757aa	-0.0032858648
92	0x3d800658	0.0625121
93	0x3c854a1c	0.01627069
94	0x3d495e3c	0.049162135
95	0xbd3baf0b	-0.04582123
96	0x3d174fb1	0.036941234
97	0x3db672bf	0.08908605
98	0x3d8ff4b3	0.070290945
99	0x3d72c00b	0.059265178
100	0x3d704d17	0.05866727
101	0x3cd90a34	0.026494123
102	0xbd3446d2	-0.044012852
103	0x3cf63de5	0.03005881
104	0x3d50c317	0.050967302
105	0x3c15032d	0.009094995
106	0xbd228226	-0.0396749
107	0xbcc29ec5	-0.023757348
108	0x3c273590	0.010205641
109	0xbc292778	-0.0103243515
110	0x3c8e7af6	0.017392617
111	0xbd42e7b6	-0.047584258
112	0xbc406521	-0.011742861
113	0x3b67bf52	0.0035361839
114	0xbc7e2a91	-0.015513078
115	0x3d4f413d	0.050599325
116	0xbc17a795	-0.009256263
117	0x3d290050	0.041260064
118	0x3d11b697	0.035574522
119	0x3bb41856	0.005496065
120	0x3ca8fca9	0.02062829
121	0xba956eef	-0.0011400859
122	0x3d2df672	0.042471357
123	0xbcaf799b	-0.02142029
124	0x3d1dee4c	0.038557336
125	0xbd797e59	-0.06091151
126	0x3b34376b	0.0027498852
127	0x3de3bd34	0.11120072
128	0xbd418087	-0.047241714
129	0xbdb5aa55	-0.08870379
130	0xbd1696fd	-0.036765087
131	0x3dd77f09	0.10522277
132	0x3e01e1f5	0.12683852
133	0xbe1171e0	-0.14203596
134	0xbd71d99c	-0.05904542
135	0x3d627a82	0.055292614
136	0x3e252bf7	0.16130053
137	0x3d868e63	0.06570127
138	0xbe5d4023	-0.21606497
139	0xbded3bc6	-0.115836665
140	0x3cb2c8f9	0.021824347
141	0x3e0a44f0	0.1350286
142	0x3c65549f	0.013997226
143	0xbdc78c75	-0.09743587
144	0x3b00bc9c	0.001964367
145	0xbd7719d0	-0.06032735
146	0x3debf39f	0.115210764
147	0x3d82373d	0.06358192
148	0x3be75147	0.0070592496
149	0x3c9ed4e2	0.01938862
150	0x3d64731d	0.055773843
151	0x3dc4e21f	0.09613442
152	0x3c136199	0.008995437
153	0x3c2feb7c	0.010737296
154	0xbd8e446d	-0.06946645
155	0x3dbc0577	0.0918073
156	0x3e37927d	0.17926975
157	0xbd6a4631	-0.057195846
158	0xbd0db591	-0.034596983
159	0xbd060e2c	-0.03272836
160	0x3e34e901	0.17667009
161	0x3e22a2db	0.15882437
162	0xbe0bc7bb	-0.1365041
163	0xbcf40fa2	-0.02979261
164	0xbc61d9b2	-0.013784813
165	0x3dd82bd4	0.105552346
166	0x3dacceb6	0.084378645
167	0xbd92df17	-0.07171457
168	0xbda24357	-0.07923
169	0xbbc5cece	-0.006036616
170	0x3d64f263	0.05589522
171	0x3dab36fc	0.08360097
172	0x3d201800	0.03908539
173	0xbcda4cc5	-0.026647935
174	0xbd53263e	-0.051550142
175	0xbbc1d581	-0.005915344
176	0xbcbff137	-0.02343045
177	0x3d99fc1d	0.0751879
178	0xbd0efc76	-0.034908734
179	0xbc8708b7	-0.016483648
180	0x3cdf15d6	0.027232092
181	0x3dbe7633	0.092998885
182	0x3caec96e	0.021336284
183	0xbe104309	-0.14088072
184	0xbd9807bb	-0.074233495
185	0x3daa2772	0.08308305
186	0x3df49a98	0.11943549
187	0xbe0c16d9	-0.1368059
188	0xbdb9503b	-0.09048506
189	0xbd925e7d	-0.071469285
190	0x3dcf84d5	0.101327576
191	0x3d8bd959	0.06828565
192	0xba1777fb	-0.00057780714
193	0xbbb7499a	-0.005593491
194	0xbd257f9f	-0.040404912
195	0xbc96aac2	-0.01839197
196	0xba8227be	-0.0009930057
197	0xbd2220ac	-0.03958194
198	0xbbf7c155	-0.007560889
199	0x3b396f1a	0.0028294981
200	0xbc72d42a	-0.014821092
201	0x3c41ff89	0.0118407095
202	0x3c59def2	0.013297783
203	0xbd6a8247	-0.05725315
204	0xbd97fc3e	-0.07421158
205	0x3cf746df	0.030185161
206	0x3db604c0	0.08887625
207	0xbd40ee21	-0.047102097
208	0x3cd993d6	0.026559751
209	0xbc8aec7b	-0.016958466
210	0x3d1473fe	0.03624343
211	0x3d389fe2	0.04507435
212	0x3c2fbc27	0.010726011
213	0xbcc97896	-0.024593633
214	0x3cdb704c	0.026786946
215	0x3d90b941	0.070665844
216	0xbcadaf95	-0.021201888
217	0xb9d6248c	-0.0004084449
218	0x3d23c65c	0.039984092
219	0x3d27f474	0.041004613
220	0xbb22f044	-0.0024862448
221	0x3d5137f5	0.051078755
222	0xbd4034fb	-0.046925526
223	0xbc092cd4	-0.008372504
224	0x3d1003e2	0.035159953
225	0x3d52beeb	0.051451605
226	0xbd2ab293	-0.041674208
227	0x3d850157	0.06494396
228	0xbc887eed	-0.016662085
229	0xbd3a443d	-0.045475233
230	0xbd450e90	-0.04810959
231	0x3c44850e	0.011994613
232	0x3d5c73e1	0.05382145
233	0xbd26bd19	-0.04070768
234	0x3d4d9f8e	0.05020099
235	0xbd063a73	-0.032770585
236	0xbc694d22	-0.014239581
237	0x3cce3191	0.02517012
238	0xbcde6345	-0.027146945
239	0xbd64a07d	-0.055817116
240	0x3b2c8636	0.0026325113
241	0xbce32d65	-0.027731607
242	0xbc8cebae	-0.017202225
243	0xbd34d208	-0.044145614
244	0xbd1df865	-0.038566966
245	0xbcdc6a81	-0.026906254
246	0xbc2a6393	-0.010399717
247	0xbbb25c7f	-0.0054431553
248	0x3c8eee3e	0.017447587
249	0xbd291f92	-0.041289873
250	0xba70ea22	-0.0009190162
251	0x3bffaa3d	0.0078022764
252	0x3c8b4935	0.017002681
253	0x3d3c3f68	0.045958906
254	0xbd284a9a	-0.04108677
255	0x3cf75914	0.030193843

conv2.bias f4 [20]
0	0x3cd29e5e	0.025710281
1	0x3b1afca8	0.002364913
2	0xbd860fae	-0.065459594
3	0xbd815803	-0.06315615
4	0x3d4ba584	0.049718395
5	0x3d2b25d6	0.04178413
6	0x3d9e135a	0.07718535
7	0xbd43b4fe	-0.04778003
8	0x3d1ce9e6	0.038309
9	0xbc22e7fd	-0.009943006
10	0xbbe17e1c	-0.0068814885
11	0x3c3e9de8	0.0116343275
12	0xb99ddc13	-0.00030109342
13	0xbd76add8	-0.060224384
14	0xbd4de25a	-0.050264694
15	0x3c83cdc8	0.016089335
16	0x3baa75b3	0.005202019
17	0x3d9dcd33	0.07705154
18	0x3db10a4f	0.08644544
19	0x3c1b0b0d	0.009463084

fc1.weight f4 [50, 320]
0	0xbcdf79ce	-0.02727976
1	0xbc74d631	-0.014943645
2	0x3da08abb	0.07838961
3	0x3db47884	0.08812049
4	0xbd88e8ba	-0.06685014
5	0xbd8db621	-0.06919504
6	0x3cc4efce	0.024040129
7	0x3c3d5ca4	0.011557732
8	0xbd61c256	-0.055116974
9	0xbd869e09	-0.065731116
10	0x3ced2a1a	0.02895074
11	0xbd4c3de0	-0.049863696
12	0x3d2f7d6a	0.042844214
13	0xbd9ce7fa	-0.076614335
14	0xbd29156e	-0.041280203
15	0x3cc02e80	0.023459673
16	0xbb806f45	-0.0039195144
17	0xba820fdb	-0.0009922938
18	0x3dbd8f42	0.0925584
19	0x3d55bc44	0.052181497
20	0xbd3bf179	-0.045884583
21	0x3c73132d	0.014836115
22	0xbd59e96f	-0.053201135
23	0xbd14ffb5	-0.036376674
24	0xbd2ee592	-0.042699404
25	0x3c5553de	0.013020484
26	0x3d28b1fc	0.041185364
27	0x3d6ddacc	0.05806999
28	0xbd16aef3	-0.03678794
29	0xbc9160e4	-0.017746396
30	0x3c8e86ff	0.017398356
31	0xbc2eb6f3	-0.010663736
32	0x3d131062	0.035904296
33	0xbcf1701e	-0.029472407
34	0x3da49237	0.08035701
35	0x3dcfef15	0.10153023
36	0xbc2e2fdb	-0.010631527
37	0xbdde321b	-0.108494006
38	0x3cc22393	0.023698604
39	0x3d08bea8	0.03338495
40	0x3cc08013	0.02349857
41	0x3cbc45bd	0.022982473
42	0x3d37277b	0.044715386
43	0xbd859b15	-0.0652372
44	0x3d2e3003	0.042526256
45	0x3bdf3567	0.006811786
46	0xbd89c02f	-0.06726109
47	0xbcc4510e	-0.023964431
48	0x3d030646	0.031988405
49	0xbd1ccc7b	-0.038280945
50	0xbd173723	-0.036917817
51	0x3cbb6c0c	0.02287867
52	0xbd33e4ca	-0.043919362
53	0xbd575c41	-0.052578215
54	0x3d5292b4	0.05140944
55	0xbd186835	-0.037208755
56	0x3d4bc661	0.049749736
57	0xbbac9cb8	-0.005267706
58	0x3d4380ac	0.047730133
59	0x3b8aaef0	0.00423228
60	0xbc27c339	-0.010239416
61	0x3cff70c0	0.031181693
62	0x3d139a62	0.036035903
63	0xbd1ac50c	-0.037785575
64	0x3cb86160	0.02250737
65	0x3d4783aa	0.04870955
66	0x3c9ea627	0.019366337
67	0x3ce3597c	0.02775263
68	0x37c366a6	2.329361e-05
69	0x3c35c41b	0.0110941185
70	0xbafcc487	-0.0019284644
71	0x3aaf70aa	0.0013385017
72	0x3ccd070c	0.025027774
73	0x3cb7a688	0.022418275
74	0xbdc382bf	-0.09546422
75	0xbd90e998	-0.070758045
76	0xbcf452a4	-0.029824562
77	0xbd12b49f	-0.035816785
78	0xbccb438e	-0.024812486
79	0x3c8baab6	0.017049175
80	0x3d8de305	0.06928066
81	0x3d5dea24	0.054178372
82	0x3d36b524	0.044606343
83	0xbc5b80a1	-0.013397367
84	0x3d17776d	0.036979128
85	0xbcdb5747	-0.026775016
86	0xbcad9dab	-0.021193346
87	0x3cdbb27b	0.026818505
88	0xbd190a2c	-0.037363216
89	0x3c20f3dd	0.009823767
90	0x3c1af15f	0.009456961
91	0xbcbdba3d	-0.023160094
92	0x3c8a4380	0.01687789
93	0x3cca0328	0.024659708
94	0x3ce96971	0.028492661
95	0xbc981087	-0.018562568
96	0xbce0c55d	-0.02743786
97	0xbcdb9a37	-0.026806934
98	0xbd0d1ed8	-0.034453243
99	0xbcf6e4a7	-0.030138327
100	0x3b257ad8	0.0025250223
101	0x3c94b37e	0.018151995
102	0x3bb00b27	0.005372423
103	0x3db67878	0.08909696
104	0xbb2eab21	-0.0026652294
105	0x3cb87358	0.022515938
106	0x3d7893fa	0.060687996
107	0xbda3d313	-0.079992436
108	0x3c1adcd4	0.009452064
109	0xbd7c36ce	-0.061575703
110	0xbc0ed081	-0.008716703
111	0xbd1f1df5	-0.03884693
112	0xbd510423	-0.051029336
113	0xbd9f1cda	-0.07769175
114	0x3d0350bb	0.032059412
115	0xbd24a2e8	-0.040194422
116	0xbd796708	-0.060889274
117	0x3d72600a	0.05917362
118	0x3d80ea7d	0.06294725
119	0x3cbc7a86	0.023007642
120	0xbd6a846b	-0.05725519
121	0xbd18c0fb	-0.037293416
122	0xbcd6aa2c	-0.026204191
123	0xbd3f7a35	-0.046747405
124	0xbc270593	-0.0101942
125	0x3bbb13b0	0.005709134
126	0x3da31b81	0.0796423
127	0x3d8c78bc	0.06858966
128	0x3be2e8b4	0.006924713
129	0xbc3bfc59	-0.011473739
130	0xbd015869	-0.031578455
131	0xbd7f89bb	-0.06238721
132	0x3cb1e324	0.021714754
133	0xbd48a989	-0.048989806
134	0x3d28742c	0.041126415
135	0x3cc8b892	0.024502072
136	0x3d0369ec	0.032083437
137	0x3dd81062	0.1055
138	0x3c031996	0.008001706
139	0xbd35aff8	-0.04435727
140	0xbd185265	-0.037187953
141	0x3d7eb840	0.062187433
142	0xbc7dbec1	-0.015487374
143	0x3d2f718a	0.04283289
144	0xbb8aaef2	-0.004232281
145	0x3cb55f5a	0.022140194
146	0xbcb4770f	-0.022029428
147	0xbbf2b3ec	-0.0074067023
148	0x3ca0589d	0.019573504
149	0x3d55b0a2	0.052170403
150	0xbd2c1f54	-0.042022064
151	0x3d208591	0.03918988
152	0xbcc1be17	-0.023650212
153	0xbcc6e334	-0.02427826
154	0xbc965cbb	-0.018354764
155	0xbd2c3f7b	-0.042052727
156	0xbd4f7244	-0.05064608
157	0xbd5fda27	-0.054651406
158	0xbc2ba975	-0.010477413
159	0xbc84e099	-0.016220378
160	0x3d66ef2f	0.056380447
161	0x3d679f78	0.056548566
162	0xbcbc8b67	-0.023015691
163	0xbd4a2799	-0.04935417
164	0x3cac24a7	0.021013571
165	0x3d5c461f	0.05377781
166	0x3d2fe1c3	0.042939913
167	0x3ad2e8a8	0.0016091065
168	0x3a5e4471	0.00084788265
169	0x3caa7fe9	0.020812945
170	0x3d71fe0a	0.05908016
171	0x3c87c666	0.016574096
172	0xbd68bdaa	-0.056821503
173	0xbc965397	-0.018350406
174	0xbc99499d	-0.01871186
175	0xbd2e9a27	-0.04262748
176	0xbc5f158e	-0.013615979
177	0x3cdc8669	0.02691956
178	0x3d0a59db	0.0337771
179	0xbd3eec91	-0.046612326
180	0x3cb6096b	0.022221288
181	0x3d477160	0.048692107
182	0x3d2fcbfb	0.04291914
183	0x3d302ee8	0.043013483
184	0xba2b14e1	-0.00065262435
185	0xbc19bf4d	-0.009383989
186	0x3bb30120	0.0054627806
187	0xbd19d9f3	-0.03756137
188	0xbd719f19	-0.058989618
189	0x3bce41a5	0.0062944465
190	0xbd124a4d	-0.03571539
191	0x3cd52722	0.026019637
192	0xbcbc164a	-0.022959847
193	0x3d6f81b8	0.05847332
194	0x3d1630d2	0.036667652
195	0x3db39442	0.08768512
196	0x3b3b8226	0.002861151
197	0x3d86b285	0.06577019
198	0x3d63a7e0	0.05558002
199	0x3d2c1862	0.04201544
200	0xbda982e2	-0.08276917
201	0xbca4c866	-0.020115089
202	0xbc7c5d7b	-0.015403147
203	0x3cabb988	0.020962492
204	0xbd3319b8	-0.0437257
205	0xbb290d41	-0.0025795253
206	0x3d527080	0.05137682
207	0x3ac76072	0.0015211238
208	0x3d0e081a	0.034675695
209	0x3d604a18	0.05475816
210	0xbc6f169c	-0.014592793
211	0xbd764dfd	-0.06013297
212	0x39818367	0.000247027
213	0xb9aeb4c9	-0.00033322562
214	0x3cb0899b	0.02154999
215	0x3d19b1b5	0.03752299
216	0x3d03c4a8	0.032169968
217	0xbcbde6c3	-0.023181325
218	0x3d454639	0.048162673
219	0x3cdef76d	0.027217591
220	0xbd804b90	-0.062644124
221	0xbd48ad44	-0.048993364
222	0xbd1fdabd	-0.039026964
223	0x3b33bf4c	0.0027427254
224	0x3d1dc3c5	0.03851678
225	0x3c91a851	0.017780455
226	0x3d13b6a6	0.03606286
227	0x3bfce3cf	0.0077175866
228	0xbd159eff	-0.036528584
229	0xbcab63f6	-0.020921689
230	0xbd2f20c4	-0.042755857
231	0xbd01fc56	-0.031734787
232	0xbcac8f57	-0.021064444
233	0x3ba22b21	0.004948989
234	0xbd0c82e2	-0.034304507
235	0xbd12646a	-0.035740294
236	0x3ccc08ed	0.0249066
237	0x3ca0d829	0.019634323
238	0x3c75864e	0.014985634
239	0x3d7ae0ff	0.06124973
240	0x3d28ca89	0.041208778
241	0x3b740da8	0.0037239585
242	0x3cc0aec6	0.023520838
243	0xbd493034	-0.049118236
244	0x3c8aed37	0.016958816
245	0x3d5a7039	0.05332968
246	0xbba448d0	-0.0050135627
247	0xbcc70e30	-0.024298757
248	0xbd245841	-0.040123228
249	0x3d2dc6e6	0.042426012
250	0x3d4a570e	0.049399428
251	0xbb866991	-0.00410194
252	0x3c6d08e2	0.01446745
253	0x3d142242	0.036165483
254	0xbd52cbae	-0.051463775
255	0x3bbe4311	0.005806335

fc1.bias f4 [50]
0	0x3cc95a4b	0.024579188
1	0xbd289d0c	-0.041165397
2	0xbd149a44	-0.03627993
3	0x3d151873	0.03640027
4	0x3cf9e9dc	0.03050702
5	0x3d6e1a0c	0.05813031
6	0xbc120bb4	-0.008913923
7	0xbc742de2	-0.014903517
8	0xbbd902c7	-0.0066226455
9	0xbd22a5c2	-0.03970886
10	0x3d0decdd	0.03464972
11	0x3ccc7f45	0.02496303
12	0x3cc9bb84	0.024625547
13	0xbd6a7efc	-0.057250008
14	0xbb919166	-0.0044423817
15	0x3d5680ab	0.0523688
16	0x3d87da51	0.066334374
17	0xbc990337	-0.01867829
18	0x3d02dc17	0.031948175
19	0x3cd49fa0	0.025955021
20	0xbd1107ea	-0.035407938
21	0x3b595688	0.003316315
22	0xbc157731	-0.009122656
23	0xbc72ab84	-0.0148114
24	0x3c8fd32e	0.017556753
25	0x3cb8fdfa	0.022582043
26	0x3d7e90a3	0.062149655
27	0x3c939485	0.018015156
28	0xbc90e329	-0.017686443
29	0x3d1cef32	0.038314052
30	0xbd027f93	-0.031859946
31	0x3a23f967	0.00062551204
32	0xbc9d26fb	-0.019183626
33	0xbc89954c	-0.016794823
34	0xbb33b38e	-0.0027420255
35	0xbcf5b27b	-0.029992333
36	0xbc941faa	-0.018081505
37	0x3d3f9346	0.04677131
38	0xbd636440	-0.055515528
39	0x3d03cfee	0.03218072
40	0x3d8860cd	0.06659088
41	0xba7941c7	-0.0009508398
42	0x3c675379	0.0141190225
43	0xbb6baa80	-0.003595978
44	0x3d133d35	0.035947043
45	0xbcb54017	-0.022125287
46	0x3c8149a3	0.015782183
47	0x3cfd6e6d	0.030936444
48	0x3d8bfd17	0.068353824
49	0xbb751e09	-0.0037401936

fc2.weight f4 [10, 50]
0	0xbe47bff0	-0.19506812
1	0xbe33cb8a	-0.17558113
2	0xbe0b6ac6	-0.1361495
3	0xbe597fcd	-0.21240158
4	0x3e105269	0.14093937
5	0x3de6e66e	0.1127442
6	0xbd75a3ca	-0.059970655
7	0x3d9749e9	0.07387144
8	0x3e240d03	0.16020589
9	0x3e112477	0.14174066
10	0xbdd4e17b	-0.103945695
11	0xbe58a8c3	-0.21158127
12	0x3e46ec43	0.19426064
13	0x3da232bd	0.07919834
14	0x3df2950f	0.11844837
15	0x3da38d8b	0.079859816
16	0xbdf41e07	-0.1191979
17	0x3d15c424	0.036564007
18	0xbe7d9ee2	-0.2476764
19	0xbe27157c	-0.1631679
20	0x3c53f961	0.0129378745
21	0xbd830d62	-0.06399037
22	0x3e6c5f4a	0.23083225
23	0xbd24007c	-0.040039524
24	0xbddd97a2	-0.10819937
25	0x3ca349f5	0.019932726
26	0x3ba2465b	0.0049522347
27	0xbe80d15d	-0.25159732
28	0x3ddcbbf6	0.10778038
29	0x3e24a1bc	0.16077322
30	0x3e50d2ae	0.20392868
31	0xbde3aa2b	-0.11116441
32	0x3e888f28	0.2667172
33	0x3cf86fe8	0.030326799
34	0x3ceb5411	0.02872661
35	0xbde7e7fd	-0.11323545
36	0x3cf2eece	0.029654887
37	0xbca30868	-0.01990147
38	0xbcb9a263	-0.02266044
39	0xbd07d33f	-0.033160444
40	0x3d9105c5	0.070811786
41	0x3e16b90e	0.1471903
42	0x3da79a08	0.08183676
43	0x3e1109dc	0.14163917
44	0xbdff2145	-0.124575175
45	0xbdec43d9	-0.115363784
46	0x3d934b2c	0.07192072
47	0xbe3a7e1c	-0.1821217
48	0xbdb0e32f	-0.08637082
49	0xbd90c650	-0.07069075
50	0x3e7575ee	0.23970768
51	0xbd5008d0	-0.050789654
52	0x3d6e9145	0.05824401
53	0x3e00684b	0.12539785
54	0xbdbfaf6c	-0.09359631
55	0xbeb23d43	-0.34812364
56	0x3e0e7a0a	0.13913742
57	0x3d372178	0.044709653
58	0x3cd5fa18	0.02612023
59	0x3d7e7dba	0.06213162
60	0x3e8c4b36	0.2740113
61	0x3e2a7e6d	0.1664979
62	0xbe83303d	-0.2562274
63	0xbe012a32	-0.12613752
64	0xbd1a3084	-0.037643924
65	0xbcbeef75	-0.023307541
66	0xbcf9b2c3	-0.030480748
67	0xbe309243	-0.17243294
68	0xbd951d0b	-0.0728093
69	0xbdba7843	-0.09104969
70	0x3e6977ae	0.2279956
71	0x3e02bcae	0.12767288
72	0x3d2cac8e	0.04215675
73	0xbe40a6bf	-0.18813609
74	0x3e3ee141	0.18640615
75	0xbe699a10	-0.22812676
76	0xbd98def5	-0.07464401
77	0x3e6b76fb	0.22994606
78	0xbdb3341b	-0.08750173
79	0xbdbd2d4c	-0.09237155
80	0xbcdccaef	-0.026952235
81	0xbda0c85a	-0.07850714
82	0x3dfdfb6a	0.12401469
83	0xbc0cad86	-0.008586293
84	0xbdf0bc4d	-0.117546655
85	0x3e06596e	0.13120052
86	0x3dbc130a	0.09183319
87	0xbd35b429	-0.044361267
88	0xbc4e4fab	-0.0125922365
89	0xbc313450	-0.010815695
90	0xbe341521	-0.17586185
91	0xbe1f28ef	-0.15542959
92	0xbdc85809	-0.097824164
93	0xbe2ce777	-0.16885172
94	0x3e6e3702	0.23263171
95	0x3e14dc2a	0.14537111
96	0xbdefff16	-0.11718576
97	0xbe513a7c	-0.20432466
98	0x3e55d884	0.20883375
99	0x3df07d40	0.117426395
100	0xbd727aaf	-0.05919903
101	0xbcb82bbe	-0.022481795
102	0xbc2238a2	-0.009901198
103	0x3e2eb6ac	0.17061871
104	0x3d862213	0.06549468
105	0xbc950a7c	-0.018193476
106	0x3dd25ef1	0.10272015
107	0x3d3a55ce	0.045491986
108	0x3e02d045	0.12774761
109	0xbbc443c3	-0.005989523
110	0xbdb7babf	-0.08971166
111	0x3e3818a7	0.17978154
112	0xbdcb369a	-0.09922524
113	0xbd85cb85	-0.06532959
114	0xbe2af61e	-0.16695449
115	0x3e4b093e	0.19827744
116	0xbe2548e1	-0.16141082
117	0x3e3704d1	0.17872931
118	0xbe10e0f3	-0.14148311
119	0xbd925736	-0.071455404
120	0x3d3faee8	0.046797663
121	0x3db496a8	0.08817798
122	0x3dff7bba	0.12474771
123	0xbe301424	-0.17195183
124	0x3dff87b5	0.12477056
125	0xbe8650b4	-0.26233447
126	0x3de9f90c	0.11424455
127	0xbe0e8f16	-0.1392177
128	0xbe10f27e	-0.14155003
129	0xbc13c494	-0.009019036
130	0xbdf2cfac	-0.118560165
131	0xbdd72f16	-0.10507028
132	0xbd5139d9	-0.05108056
133	0x3e82ac3f	0.25522038
134	0x3deec04f	0.11657774
135	0x3e38f0ca	0.18060604
136	0x3dcf3df8	0.101192415
137	0x3e62e5fb	0.22158043
138	0xbdbf049d	-0.09327052
139	0x3d2ef45a	0.0427135
140	0xbddc6601	-0.10761643
141	0x3e0aa21b	0.13538401
142	0x3e4e5eed	0.20153399
143	0x3c072776	0.008249154
144	0x3e0800cd	0.13281555
145	0xbe3f1608	-0.18660748
146	0xb9e714b2	-0.00044075173
147	0x3e8807f3	0.26568565
148	0xbe8bd7b4	-0.27313006
149	0xbcb8d517	-0.022562547
150	0x3e32678f	0.17422317
151	0xbdc41756	-0.095747635
152	0x3d153456	0.036426865
153	0x3dd758b7	0.10514968
154	0x3e2a7b61	0.16648628
155	0xbd1726b8	-0.03690216
156	0xbe83d5c2	-0.25749022
157	0x3e20c0be	0.15698525
158	0xbdc75bf6	-0.09734337
159	0x3dbec14f	0.093142144
160	0xbe873321	-0.26406196
161	0xbc9f2a5e	-0.019429382
162	0x3e295570	0.16536498
163	0xbcb7b4ac	-0.022425018
164	0xbd61d0c7	-0.055130746
165	0x3e695261	0.22785331
166	0x3e81d1f0	0.25355482
167	0xbd93fa39	-0.072254606
168	0x3e1bf4fe	0.15230176
169	0x3d8cb29a	0.06870003
170	0xbc5ab9b5	-0.01334994
171	0x3dd9c513	0.10633292
172	0xbde214d7	-0.11039131
173	0xbd08a161	-0.033357028
174	0xbe4cb671	-0.19991471
175	0x3cff69d4	0.031178392
176	0xbd8134cc	-0.06308898
177	0x3e161138	0.14655006
178	0xbdb7d1fa	-0.08975597
179	0xbde200e6	-0.110353276
180	0xbdb70552	-0.08936562
181	0x3d493188	0.049119502
182	0x3d87fbce	0.06639825
183	0x3e0d8bac	0.13822812
184	0x3df51cf7	0.11968415
185	0x3d5edeec	0.054411814
186	0xbd85662f	-0.065136306
187	0x3dab334b	0.08359393
188	0xbccf95a3	-0.025339907
189	0xbe025136	-0.12726292
190	0xbe95cb04	-0.2925645
191	0xbe01b08a	-0.12665
192	0x3d0cfd68	0.034421355
193	0xbdea561f	-0.114422075
194	0x3e50f11f	0.2040448
195	0xbc8a5c6f	-0.016889779
196	0xbcafc9a5	-0.021458456
197	0x3ce582c6	0.02801646
198	0xbd9e5b29	-0.07732231
199	0xbb0272ad	-0.0019904778
200	0xbd7a3855	-0.06108888
201	0xbd7ae491	-0.061253134
202	0xbda28f6f	-0.07937514
203	0xbe7c5e8e	-0.24645445
204	0xbe9310d1	-0.28723767
205	0xbd9a370b	-0.0753003
206	0xbafcb5bb	-0.0019280234
207	0x3e10360b	0.14083116
208	0xbe1d1d9b	-0.15343325
209	0xbe0325cd	-0.12807389
210	0x3e5ddc90	0.21666169
211	0xbe5ca66a	-0.21547857
212	0x3df5eb86	0.12007813
213	0x3dbfac35	0.09359018
214	0x3d21254c	0.03934221
215	0xbe6f0911	-0.23343302
216	0xbe0c67f2	-0.13711527
217	0x3de299b0	0.1106447
218	0x3e4ec2fb	0.20191567
219	0x3e3b31a0	0.18280649
220	0xbd75c31c	-0.060000524
221	0xbc889be3	-0.016675895
222	0x3e30a51b	0.17250483
223	0x3e581652	0.21102265
224	0x3e3144ee	0.17311451
225	0xbdd249ba	-0.102679685
226	0xbde9594e	-0.11393987
227	0xbd79464e	-0.060858063
228	0x3aa5b3ce	0.0012642087
229	0xbe2409e6	-0.16019401
230	0x3d024e39	0.03181288
231	0x3dfeb426	0.12436704
232	0xbdfd5f67	-0.12371712
233	0x3e265457	0.1624311
234	0xbe050b8f	-0.1299269
235	0xbe39e42c	-0.18153447
236	0x3d5f96df	0.05458724
237	0x3e581a02	0.21103671
238	0xbe07214e	-0.13196298
239	0x3dcb9194	0.09939876
240	0x3d24d4d2	0.040242024
241	0xbe630d8b	-0.22173135
242	0xbdaeb327	-0.08530264
243	0x3e35e2e8	0.17762339
244	0xbc3a3543	-0.011365238
245	0x3e69b669	0.2282349
246	0x3e2c21a8	0.16809714
247	0x3e87871e	0.26470274
248	0xbdef9573	-0.11698427
249	0xbcbc5fd6	-0.022994917
250	0xbe1b3f04	-0.15160757
251	0x3e1f469e	0.15554282
252	0xbcec3aa1	-0.02883655
253	0x3e72483f	0.23660372
254	0x3d3bfd03	0.045895588
255	0x3d169a7f	0.036768433

fc2.bias f4 [10]
0	0xbdb81e24	-0.08990124
1	0xbc5eb9b4	-0.01359408
2	0xbd7f8723	-0.062384736
3	0x3d8f5e9c	0.07000467
4	0xbd61b224	-0.05510153
5	0x3ceb5ea0	0.028731644
6	0x3d2bff4a	0.04199151
7	0x3d933cb7	0.07189315
8	0xbd4407bd	-0.047858942
9	0xbda7e54f	-0.08198034

momentum_buffer f4 [10, 1, 5, 5]
0	0x3c74ae2d	0.014934105
1	0x3c0344d6	0.008012017
2	0x3c4481ce	0.0119938385
3	0x3c7b012b	0.015320103
4	0x3c33f879	0.0109845335
5	0x3c306175	0.010765423
6	0x3b2fc1c1	0.0026818367
7	0x3ada93b0	0.0016676094
8	0x3b9e8da6	0.004838663
9	0x3b730b9c	0.0037085777
10	0x3b88ebdb	0.004178507
11	0xbc12af13	-0.008952874
12	0xbc2b19c1	-0.010443152
13	0xbbafa710	-0.0053604916
14	0xbbd366ca	-0.0064514624
15	0x3a7b36f8	0.0009583081
16	0xbc6555d4	-0.013997514
17	0xbc99bc34	-0.0187665
18	0xbc7a1a01	-0.015264989
19	0xbc5a3de1	-0.013320417
20	0xbb6217ea	-0.0034499117
21	0xbc96bac6	-0.018399607
22	0xbc86865a	-0.016421486
23	0xbc27bef1	-0.010238395
24	0xbc60d640	-0.013722956
25	0x3addaa33	0.0016911685
26	0x3b06db0d	0.0020577342
27	0xba2b62e0	-0.0006537866
28	0xbab71b32	-0.0013969897
29	0x3ad7168c	0.0016409918
30	0x3b1d6550	0.0024016686
31	0x3b4ab759	0.0030932038
32	0x3ad104af	0.001594683
33	0x3ab21a2f	0.0013588126
34	0x3b71fa15	0.0036922742
35	0x3a9d4a9f	0.0012000388
36	0x3a91c418	0.0011121063
37	0x3ab52219	0.0013819366
38	0x3b920482	0.004456104
39	0x3bee4b9b	0.0072721965
40	0x3ac1ef7f	0.0014796107
41	0x3b069e04	0.0020540962
42	0x3abf0547	0.0014573716
43	0x3b90a35d	0.0044140057
44	0x3b98bab9	0.004660931
45	0x3b644952	0.0034833741
46	0x3ac8f179	0.0015330754
47	0x3a069475	0.0005133816
48	0xba41c361	-0.00073914794
49	0xb9fc347f	-0.00048104298
50	0xbc59079b	-0.013246442
51	0xbc2ac81f	-0.010423689
52	0x3be9df63	0.0071372255
53	0xbb4ae590	-0.0030959584
54	0x3b894ad8	0.0041898303
55	0xbcb189ab	-0.02167209
56	0xbc7ee418	-0.0155573115
57	0xbc9c8a0e	-0.019108798
58	0xbce76b99	-0.028249549
59	0xbcb68164	-0.022278495
60	0xbcb38475	-0.021913746
61	0xbce624c8	-0.02809371
62	0xbd11cfe2	-0.035598643
63	0xbd1fcac0	-0.039011717
64	0xbd1bf085	-0.038071174
65	0xbc0e5a46	-0.008688515
66	0xbccba4ef	-0.02485892
67	0xbd0502c4	-0.03247334
68	0xbcfaebb0	-0.030629963
69	0xbd1a9ff2	-0.037750192
70	0xbbf770e7	-0.007551301
71	0xbc6abff8	-0.0143279955
72	0xbcdea085	-0.027176151
73	0xbcf3dd42	-0.02976859
74	0xbcf58767	-0.029971791
75	0xba40bf78	-0.000735275
76	0x3b358062	0.002769493
77	0x3ac22b7c	0.0014813985
78	0xbb95bd46	-0.0045696823
79	0x3b27526a	0.00255313
80	0xbbc7897e	-0.0060893884
81	0xbb5e78c3	-0.0033946491
82	0xbc4adc83	-0.012381676
83	0xbc9280ec	-0.01788374
84	0xbc6efdf8	-0.014586918
85	0xbc271a83	-0.010199192
86	0xbc9e609a	-0.019333173
87	0xbce8a87e	-0.028400656
88	0xbce7d0d0	-0.028297812
89	0xbcd4127c	-0.02588772
90	0xbc765d82	-0.015036942
91	0xbcde647e	-0.027147528
92	0xbd034b3b	-0.032054167
93	0xbceff201	-0.029290201
94	0xbce63eeb	-0.028106174
95	0xbc6d52b3	-0.014485049
96	0xbcafa6b6	-0.021441799
97	0xbcce041f	-0.02514845
98	0xbc866f38	-0.016410455
99	0xbc165266	-0.009174919
100	0xb881d628	-6.191089e-05
101	0xba27e4e6	-0.0006404653
102	0xb97f4688	-0.0002434497
103	0xb8fccbcb	-0.00012054256
104	0xb8b92467	-8.828268e-05
105	0x3b0346c4	0.0020031193
106	0x3a804e1a	0.0009788901
107	0x399e718c	0.00030220707
108	0x3a2c909c	0.0006582828
109	0x3a40c0ca	0.00073529466
110	0x3a99da86	0.0011738099
111	0x3b0ff6c6	0.0021967157
112	0x3acca374	0.0015612678
113	0x3a615055	0.0008595039
114	0x39c57c4c	0.00037667376
115	0x3adcc542	0.0016843455
116	0x3af4fb6c	0.0018690652
117	0x3b04434b	0.0020181711
118	0x3a9fd77f	0.001219496
119	0x389d77d4	7.508663e-05
120	0x3b168484	0.002296717
121	0x3a7ac7b4	0.0009566501
122	0x3ad938b0	0.001657268
123	0x3b156ec7	0.0022801624
124	0x38c17122	9.22403e-05
125	0xbc4422d8	-0.011971198
126	0xbc2d8c97	-0.010592601
127	0xbc64fe53	-0.013976651
128	0xbcceebbb	-0.02525889
129	0xbc791a0e	-0.015203966
130	0xbbc8b804	-0.006125452
131	0xbc04dfe2	-0.008110018
132	0xbd0fc091	-0.035095755
133	0xbd39f68b	-0.045401137
134	0xbd2335c2	-0.03984619
135	0x3bff824e	0.007797516
136	0xbc99e2a4	-0.018784828
137	0xbd2b1588	-0.04176858
138	0xbd295195	-0.04133757
139	0xbd231762	-0.03981722
140	0xbb3f1f7a	-0.0029163049
141	0xbcc8ff0b	-0.024535676
142	0xbd1d8f1b	-0.038466554
143	0xbd1a2171	-0.03762955
144	0xbd031b3c	-0.032008395
145	0xbb97e776	-0.0046357466
146	0xbc824bca	-0.01590528
147	0xbd233717	-0.03984746
148	0xbce14a36	-0.027501207
149	0xbc9f5fce	-0.019454863
150	0xbcc32e76	-0.023825865
151	0xbc371226	-0.0111737605
152	0x3c209f98	0.009803675
153	0xba9e53e0	-0.001207944
154	0xbba5ff7a	-0.0050658556
155	0xbc445808	-0.011983879
156	0x3acd1520	0.0015646555
157	0x3c401828	0.011724509
158	0xbb229780	-0.002480954
159	0xbbbc3a52	-0.005744257
160	0xbb10c2f0	-0.0022088848
161	0x3c0b1636	0.008489182
162	0x3c27f834	0.010252047
163	0xbc7c97c5	-0.015417044
164	0xbc98dfc6	-0.018661391
165	0xbb995c4c	-0.004680192
166	0xbb972a58	-0.004613202
167	0xbbaf09a4	-0.0053417254
168	0xbc9f4d22	-0.01944596
169	0xbcb55a5e	-0.022137817
170	0xbc065cbe	-0.008200822
171	0xbbcca4bc	-0.006245224
172	0xbc289b2f	-0.010290905
173	0xbca8b894	-0.020595826
174	0xbcd3bf16	-0.025847953
175	0xbbaf2516	-0.005344997
176	0x3a438860	0.0007458981
177	0x3c8bced4	0.017066397
178	0x3baf8cc2	0.005357356
179	0x3bc7724b	0.006086623
180	0xbc39c646	-0.011338776
181	0x3b01744b	0.0019753154
182	0x3ae5482a	0.001749282
183	0xbc824cca	-0.015905757
184	0xbc711b1e	-0.014715938
185	0xbc941cad	-0.01808008
186	0xbc55217b	-0.013008471
187	0xbcd274eb	-0.025690516
188	0xbd06fded	-0.032957006
189	0xbcf1b240	-0.029503942
190	0xbc7d0532	-0.015443133
191	0xbcaf1e2e	-0.021376695
192	0xbcf03796	-0.02932338
193	0xbcd6605f	-0.026169
194	0xbcd1a2ea	-0.025590379
195	0xbb7d3e06	-0.0038641705
196	0xbc775d94	-0.015097994
197	0xbcbc6706	-0.022998344
198	0xbc86d4fa	-0.016458977
199	0xbc94adfb	-0.018149367
200	0x3b37cd85	0.0028046083
201	0x3b6389b4	0.0034719529
202	0x3b9ee41e	0.004848971
203	0x3b49a9c0	0.0030771345
204	0x3bb5dc00	0.0055499077
205	0x3bb087e2	0.0053872922
206	0x3b6bbd5c	0.0035971021
207	0x3b940f30	0.004518412
208	0x3bb81dfe	0.0056188097
209	0x3b470937	0.0030370483
210	0x3af77613	0.0018879793
211	0x3b218544	0.0024646083
212	0x3bf11d48	0.007358227
213	0x3ad91161	0.0016560965
214	0x3a4fd4d8	0.00079281395
215	0xbabd9214	-0.001446309
216	0x3b18a20c	0.0023289947
217	0x3bb7aaf4	0.005605096
218	0xbb40c400	-0.00294137
219	0xbbc0f919	-0.0058890698
220	0xbb180e3a	-0.002320184
221	0xba7bc170	-0.00096037146
222	0xba873e60	-0.0010318272
223	0xbbf811ac	-0.007570466
224	0xbc00ec08	-0.007868774
225	0xbb00502a	-0.0019579032
226	0xb991ccdc	-0.00027809187
227	0x3a1f515a	0.0006077491
228	0x3a1c2be3	0.00059574674
229	0x3a55d865	0.00081575505
230	0xbac17627	-0.0014759944
231	0xb9d76c5a	-0.00041088724
232	0xb7ba1e20	-2.2186956e-05
233	0x3a12a839	0.0005594525
234	0x3aa15a52	0.0012310243
235	0xbac4dbb3	-0.0015019089
236	0xba68f079	-0.0008885931
237	0x383ac7ac	4.4531815e-05
238	0x3884ca1f	6.3318985e-05
239	0x398a1529	0.00026337177
240	0xba8c0d10	-0.0010685045
241	0xba07618a	-0.0005164376
242	0xb8dd6119	-0.00010556187
243	0xb7e434ea	-2.7204358e-05
244	0x39341d78	0.00017177116
245	0xbb11069c	-0.0022129184
246	0xb9d5be34	-0.00040768238
247	0x38751368	5.8430625e-05
248	0xb8a96df9	-8.079032e-05
249	0x3a0f229b	0.00054601737

momentum_buffer f4 [10]
0	0x3c1b083d	0.009462413
1	0x3bba4642	0.005684645
2	0xbceeecdc	-0.029165678
3	0xbc42392b	-0.01185445
4	0x3b806999	0.003918838
5	0xbc8caecc	-0.017173193
6	0xbc1effa6	-0.009704506
7	0xbc89981f	-0.01679617
8	0x3bada1eb	0.005298843
9	0xba9ce44c	-0.0011969893

momentum_buffer f4 [20, 10, 5, 5]
0	0xbbaa5b84	-0.005198898
1	0x38fd2200	0.00012070313
2	0x3bcd115d	0.0062581734
3	0xbb76367f	-0.0037569103
4	0xbb2a853c	-0.0026019355
5	0xbc25bab9	-0.010115319
6	0xbba4d8cf	-0.0050307284
7	0xbb971388	-0.0046104826
8	0xbc1b2997	-0.009470365
9	0xbbfd59af	-0.0077316384
10	0xbc34d25e	-0.011036484
11	0xbc1403d8	-0.00903412
12	0xbc72d222	-0.014820607
13	0xbbaf27e5	-0.005345332
14	0xbc02b5e8	-0.00797794
15	0xbb9fee89	-0.0048807305
16	0xbbdf670f	-0.0068177055
17	0xbc89b18a	-0.01680829
18	0xbbfcefea	-0.0077190297
19	0x39d24db0	0.00040112203
20	0xbbafb745	-0.0053624236
21	0xbc3f130e	-0.011662258
22	0xbca4f488	-0.020136133
23	0xbbe060a5	-0.0068474584
24	0x3b231224	0.0024882639
25	0xb95f2e1a	-0.00021284111
26	0xbb1755b2	-0.002309185
27	0xbb133183	-0.0022459931
28	0x3992a374	0.00027969072
29	0x399776be	0.00028889434
30	0xbac04333	-0.0014668464
31	0xbb2bb7dc	-0.0026202118
32	0xbad18590	-0.0015985239
33	0xbad0b1ae	-0.0015922093
34	0xba8a7e83	-0.0010566268
35	0xba2f3704	-0.0006683918
36	0xb8ff1d3f	-0.00012164795
37	0xb9d61470	-0.00040832488
38	0xb9d18ac4	-0.00039966975
39	0x39df71fc	0.000426188
40	0x3ac09b8b	0.0014694793
41	0x38e3eba0	0.00010868092
42	0x3a259c52	0.0006317544
43	0x3b135ff5	0.0022487615
44	0x3a8c3828	0.0010697888
45	0x3aa657ad	0.0012690924
46	0xba82b27d	-0.0009971407
47	0xb58bcbc0	-1.0415606e-06
48	0x39f709f4	0.00047118927
49	0x3a4200cc	0.00074006314
50	0x3c8f0b3d	0.017461414
51	0x3ce18af2	0.027532075
52	0x3cccaaf4	0.02498386
53	0x3c49d1d3	0.012318092
54	0x3c5f486a	0.013628105
55	0xb8011a00	-3.078021e-05
56	0xbb0a4614	-0.0021098899
57	0xbb5213c4	-0.0032055238
58	0xbc88fbc6	-0.016721617
59	0xbc52483a	-0.012834603
60	0xbd06fd6c	-0.032956526
61	0xbcdaad79	-0.026694046
62	0xbc9954f9	-0.018717276
63	0xbc3f35b8	-0.011670522
64	0xbba6baec	-0.005088201
65	0xbcf2d824	-0.02964408
66	0xbca27eb5	-0.01983581
67	0xbca0865e	-0.019595321
68	0xbbb348bd	-0.0054713176
69	0xbba43cb4	-0.005012119
70	0xbc93688e	-0.017994191
71	0xbcc4c706	-0.024020683
72	0xbc9e32b2	-0.019311283
73	0xbc83a91a	-0.016071845
74	0xbbef7f4c	-0.007308876
75	0x3b8fbe90	0.0043867305
76	0x3c85c203	0.016327864
77	0x3c4753c1	0.012165965
78	0x3adb73c2	0.0016742873
79	0x3a42641c	0.000741543
80	0xbc136fc0	-0.008998811
81	0xbb197d00	-0.0023420453
82	0xbbd75463	-0.006571339
83	0xbc08cf4b	-0.008350204
84	0xbc0266b9	-0.007959061
85	0xbc9f28c2	-0.019428615
86	0xbc8f3062	-0.017479125
87	0xbca5aff9	-0.020225512
88	0xbc3c28b2	-0.011484312
89	0xb9d041a0	-0.00039721746
90	0xbc856496	-0.016283315
91	0xbc80473a	-0.015658963
92	0xbc6e4ef6	-0.014545193
93	0xbbda3556	-0.00665919
94	0xbad02538	-0.0015880233
95	0xbc52f0ec	-0.012874823
96	0xbc9fcb7e	-0.019506212
97	0xbc9bb98b	-0.019009372
98	0xbc74aa44	-0.014933173
99	0xbbe0e484	-0.0068631787
100	0x35d238d0	1.5662754e-06
101	0x375a93d4	1.30282315e-05
102	0x3950f0ba	0.00019926103
103	0x391b3866	0.00014802962
104	0xb8e74f6d	-0.000110297326
105	0x3916338f	0.00014324322
106	0x39b207f6	0.00033956737
107	0x399caf5e	0.00029885297
108	0x395a0a4e	0.00020793939
109	0xb985df63	-0.00025534173
110	0xb8cfbce4	-9.905713e-05
111	0x39242a5f	0.00015656043
112	0xb9009857	-0.00012263782
113	0x39802670	0.000244427
114	0xb85ec0ed	-5.31086e-05
115	0x387ebc66	6.073378e-05
116	0x38bc1eca	8.9702735e-05
117	0x398218cb	0.00024814004
118	0x386a3cda	5.584662e-05
119	0x38ba7f33	8.892864e-05
120	0xb7f37186	-2.902072e-05
121	0xb70b0500	-8.28621e-06
122	0xb967889f	-0.00022080772
123	0xb90c7e34	-0.00013398455
124	0xb8a23882	-7.735287e-05
125	0x3c5ba218	0.013405345
126	0x3d0f9775	0.03505655
127	0x3ce35848	0.027752057
128	0x3c63aabe	0.013895689
129	0x3c614983	0.013750437
130	0xbbc10cc8	-0.005891416
131	0x3b7d8308	0.0038682837
132	0xb95d46c0	-0.00021102559
133	0xbc8637e0	-0.016384065
134	0xbc426316	-0.011864444
135	0xbd12770c	-0.035758063
136	0xbcf1b271	-0.029504033
137	0xbcde9641	-0.027171256
138	0xbcbcb4a4	-0.023035355
139	0xbc1fba20	-0.0097489655
140	0xbd19c36e	-0.037539892
141	0xbd05e212	-0.0326863
142	0xbcf9eed7	-0.030509396
143	0xbc17d255	-0.009266456
144	0xbc15b372	-0.009137021
145	0xbc8f10d4	-0.017464079
146	0xbd058233	-0.03259487
147	0xbcfcce62	-0.03086013
148	0xbc92d081	-0.017921688
149	0xbc399962	-0.011328073
150	0x3c7296b2	0.014806436
151	0x3c8fafb0	0.017539829
152	0x3bbdcb34	0.005792046
153	0x3ad27c24	0.0016058725
154	0x3b11c296	0.0022241226
155	0x3ae9dfc8	0.0017843181
156	0xbaeed354	-0.001822094
157	0xbc6d6297	-0.014488838
158	0xbc072467	-0.008248425
159	0xbbb57004	-0.005537035
160	0xbc0df71a	-0.008664871
161	0xbc9ae9d6	-0.01891033
162	0xbc8965e9	-0.016772227
163	0xbbb8a02a	-0.0056343274
164	0xbbe86374	-0.007091934
165	0xbc85e8f0	-0.016346425
166	0xbcc1e1f2	-0.02366731
167	0xbc2bfbcb	-0.010497044
168	0xbac080f8	-0.0014686873
169	0xbc09a256	-0.00840052
170	0xbc6202af	-0.013794585
171	0xbcfdeb32	-0.030995939
172	0xbc6d818e	-0.01449622
173	0xbbb59f02	-0.005542637
174	0xbbe1edc0	-0.006894797
175	0x3c48ae80	0.012248635
176	0x3cc4ae6c	0.024008952
177	0x3c42fdee	0.011901362
178	0x3ba72ce6	0.005101788
179	0x3b5ee88f	0.0034013127
180	0x3ac9ff18	0.0015411107
181	0x3a4bd010	0.0007774839
182	0xbc036362	-0.0080193
183	0xbc3144b1	-0.0108196
184	0xbc3c70fe	-0.011501549
185	0xbc92e230	-0.01793012
186	0xbcb9f920	-0.0227018
187	0xbcaf583e	-0.021404382
188	0xbbe451bb	-0.006967751
189	0xba386958	-0.00070347404
190	0xbc75060d	-0.014955056
191	0xbc805bf0	-0.01566884
192	0xbc79f405	-0.015255933
193	0xbad9ac92	-0.0016607216
194	0xbba9bfd8	-0.0051803403
195	0xbc26534c	-0.010151695
196	0xbca0d772	-0.019633982
197	0xbc35b715	-0.011091013
198	0xbc4b23eb	-0.0123987
199	0xbc1e762c	-0.009671729
200	0x3b24aee1	0.002512865
201	0x3b6f2e52	0.0036496115
202	0xbab91642	-0.0014121013
203	0xbbac01f5	-0.0052492567
204	0xbb94f3f0	-0.004545681
205	0xbb696b5a	-0.0035616965
206	0xbb9caac7	-0.0047811004
207	0xbc078944	-0.008272473
208	0xbb27b78d	-0.0025591583
209	0x3a040392	0.00050359324
210	0xbb29cd00	-0.0025909543
211	0xbbcbccb5	-0.0062194713
212	0xbb4ef3d5	-0.003157844
213	0xbbb03a3a	-0.005378035
214	0x3a517e0e	0.0007991501
215	0xbb4f8c85	-0.003166945
216	0xbbfaa95b	-0.0076495833
217	0xbb019c40	-0.001977697
218	0xbba7a3be	-0.005115955
219	0xbbbbad0a	-0.005727415
220	0xbb9bf335	-0.004759217
221	0xbc11d97e	-0.008901952
222	0xbbdd01ac	-0.006744584
223	0xbba84755	-0.0051354566
224	0xbb5a6bee	-0.0033328491
225	0xb99701ac	-0.0002880221
226	0xba418875	-0.00073826994
227	0x399ed117	0.00030291892
228	0xbab1c9ea	-0.0013564203
229	0x38155f08	3.5612873e-05
230	0xb98deae8	-0.00027068635
231	0xb9c03cbb	-0.00036666341
232	0xbaaa054b	-0.0012971548
233	0xbaabf249	-0.0013118471
234	0xb723fe94	-9.774831e-06
235	0x380225fa	3.1029784e-05
236	0xba171d25	-0.0005764536
237	0xba292b29	-0.000645327
238	0xb94cc55e	-0.00019528481
239	0x39e2e6ed	0.00043278132
240	0xb9aa975c	-0.00032537698
241	0xb8f1c2b3	-0.00011528041
242	0xb998fa12	-0.00029178016
243	0xba451d71	-0.0007519341
244	0xba5ce758	-0.0008426807
245	0xb947a29f	-0.000190387
246	0x3a0a582e	0.0005277422
247	0xb9b8aff6	-0.00035226316
248	0xba54bff3	-0.0008115761
249	0xba936712	-0.0011245927
250	0xbc4c25a0	-0.012460142
251	0xbbef01e4	-0.0072939266
252	0xbc557dda	-0.013030494
253	0xbc2b9dd9	-0.0104746455
254	0xbb974a39	-0.0046170023
255	0xbb44bba8	-0.0030019078

momentum_buffer f4 [20]
0	0xbba723e0	-0.005100712
1	0x3a8fdea0	0.0010976382
2	0x3c509368	0.012730457
3	0x369a4940	4.598085e-06
4	0x3b3772b0	0.0027991943
5	0xbc6b3d73	-0.014357912
6	0xbbc77a2c	-0.006087562
7	0xbc2b47ea	-0.010454157
8	0xbaea15f0	-0.0017859321
9	0x3be768a1	0.0070620333
10	0xbc88d6c9	-0.01670398
11	0xbc7af00d	-0.015316022
12	0xbbc81690	-0.0061062053
13	0xbc0ec992	-0.00871505
14	0xbb835fdf	-0.0040092315
15	0x3a85fcc8	0.0010222429
16	0x3c2e2e00	0.010631084
17	0x3c1abc10	0.009444252
18	0xb8a6da00	-7.9561025e-05
19	0xbc328480	-0.010895848
