lecture8/mnist-1500.pth (torch_old, 177308 bytes, 16 tensors)

conv1.weight f4 [10, 1, 5, 5]
00000000: c39f 20be 2b41 293e b8f0 0c3c 881c 3fbe
00000010: 533c 06be 6378 7abc 05ba 183e d5ea 4d3e
00000020: ee5b 76bd 3b7d 47be 01a6 893e 7bad 903e
00000030: 3885 4ebd ee3f 25bd b07b 703d ca64 1c3e
00000040: 2529 853e dfdc f0bd c9c2 933c abec 01be
00000050: b21c 7bbd 770c 303e 6548 a5bd 2633 6a3e
00000060: 8323 853e e578 2abe 0d85 3bbe 9d59 61bd
00000070: f214 2fbe 4758 13be 7a8b 09bd 34b2 373e
00000080: 51d8 123e 322d a43d 7489 33be 64ed 28be
00000090: 10ac a4bd 1e7c c93c f6bd e6bc d28e 473e
000000a0: 09fd 47be 3017 a13d 738a 2fbd 7b4d fa3c
000000b0: 0199 15be 70df c33d 8fe8 28be f251 303c
000000c0: 86bc c6bd 8638 363e 31ef 84bd feb2 283d
000000d0: 25a9 d13c 7296 933e ffe1 123d b4bb 5b3e
000000e0: f1df 2b3e 8117 b53e 256c b73e fec5 aa3e
000000f0: 7fb1 8b3e 45f4 973d 9c5a a73e 0688 833e
00000100: 753c b83d f296 653b 6f9a 5d3e 160b c33d
00000110: e7a5 7a3e 31e0 f43d 3ff0 7b3e 4a7a 823e
00000120: 62c5 7abd 05a3 883e 0651 233e d033 d63d
00000130: 7c94 01be 8b10 1f3e 153a 763e fdd7 343e
00000140: 9cb4 2b3e d686 ecbd ffb0 5c3e 1ce5 9b3d
00000150: 705d 91bd aee8 963d 5ad3 7c3e c461 f13d
00000160: ebe2 763e e66e 1ebe 3cde 5c3e 4498 a53d
00000170: 5f4d a63e 33ab 513e b5d1 b63c e57d 913e
00000180: 0437 f3bb 6c36 2e3e 7fba a1bd 2a11 fe3d
00000190: 5a63 04be 0951 cbbc 5d08 33be df51 7fbc
000001a0: b7ba 35be 254d 313e 5927 b53d 463d 773b
000001b0: 7b47 c53d 3284 973d 7227 b6bd 3f6a b7bd
000001c0: ffeb f4bb 143c e8bd 6c58 c0bd 7493 b43d
000001d0: ad8b 223e bbcc 09be c428 d93d 40ad 31be
000001e0: c9ee 80bd 24bd 13be 94eb f53d a33a 023d
000001f0: f9d9 dc3a b5be 103e 1f16 9c3e d454 d53e
00000200: 3d86 c83e e859 4f3d 79b8 86bc 984e ac3e
00000210: bc56 c53e 91e9 c13e 3d2f cb3c 4999 a73d
00000220: ce15 ac3e 5eab 693e 8d45 b93e 7cc9 7d3d
00000230: 53e9 3f3e 262d b33e 35ab fd3d 9bb1 a03e
00000240: 26a6 d33d 8f4b 833e da2c 6e3e 75b6 263d
00000250: 5bb1 9ebd 642f 8b3d 27b3 b4bd e7ee 463d
00000260: fbb5 8d3e dbc3 973e 3b2d 9f3e a5af 20be
00000270: b2ed 0bbe c0b3 203e 6c87 7e3e 1c5b 173e
00000280: 7eda c6bd 5ec8 d63d 3a14 f83d 54ea 6b3e
00000290: 99a1 923e 797d 07be b021 573e 1dd9 8c3d
000002a0: 112d 8b3c c1f7 293c 7de9 20be d0b9 553e
000002b0: 95a3 663e fbd2 7a3e 3c95 4b3e 744f 1bbe
000002c0: 78f8 d9bd bdcc 75bb e6a3 9d3e 31a1 543e
000002d0: 2941 a03d 7d95 16bd 2f0a 873e 3e0b 003e
000002e0: 8a8b 443e b44f 013e ac46 a9bc 6835 be3e
000002f0: cc52 993e 1eb1 72bd 8542 923c ad0b 4d3e
00000300: e368 913e b55b 053e 1cb2 113e 0a15 d23d
00000310: 9eba 393d 6826 d13d 81d2 413c 7e22 2d3a
00000320: 55f2 953d 4a4b 6a3d 18f4 8a3d 7687 12be
00000330: 0d45 213e 5d7d 02be 9fa7 b2bd 800b fbbd
00000340: b231 7a3e adf3 73bc 6457 e8bd 1e6a 15be
00000350: 7adc 79bd 9ba1 da3d a929 13be 6835 1a3d
00000360: 93cb 93bd 6ed3 623e 14c1 c63d 8a7b 8b3d
00000370: 306b 473e ebdb 2fbd bcd1 283a 786a 353e
00000380: e298 3cbd b216 2f3e 955f a33d 3f08 46be
00000390: ff5f f0bd a925 72bd 9db1 2d3d f248 663c
000003a0: 75a5 c1bd 857c 65bd 3e6a 473e 8c2f debd
000003b0: af77 c9bd 7f27 adbd 5899 24be 4be5 c6bd
000003c0: 26d4 cb3d bbb6 763c cef3 d8bd 9b1a 0c3e
000003d0: ba8f 053a 7a96 1b3e 1b3d 3dbe 9fcf c5bd
000003e0: 3a1f 86bd cf77 07be
-0.15685944 0.16528766 0.008602314 -0.18663228 -0.1310895 -0.0152874915 0.14914711 0.20109113
-0.060146265 -0.19481365 0.26884463 0.28257355 -0.050420016 -0.04034417 0.058711708 0.15272823
0.26007953 -0.11760878 0.018037217 -0.12687938 -0.061306663 0.17192255 -0.08070449 0.22871074
0.26003656 -0.1664768 -0.18312474 -0.055017103 -0.17097834 -0.14389144 -0.03358028 0.17939073
0.1434033 0.08016433 -0.17532903 -0.16496807 -0.08040631 0.024595316 -0.028166752 0.19488075
-0.19530119 0.07865751 -0.042856645 0.030554524 -0.14609148 0.09564102 -0.16494964 0.010761725
-0.09703927 0.17795 -0.06490935 0.041186325 0.02559335 0.28825718 0.035860058 0.21458322
0.16784646 0.35369495 0.35824695 0.3335418 0.27283856 0.074196376 0.32686317 0.25689715
0.08995906 0.0035032597 0.21640943 0.09523599 0.24477349 0.119568236 0.24603365 0.25483924
-0.061223395 0.26686874 0.15948877 0.10459101 -0.12654299 0.15533654 0.24045594 0.17660518
0.16768116 -0.115491554 0.21551894 0.076120585 -0.070979 0.07368599 0.24689999 0.117862254
0.2411 -0.15471992 0.2156915 0.08085683 0.32480904 0.20475464 0.022316793 0.28416362
-0.00742233 0.17012948 -0.078968994 0.124056175 -0.12928525 -0.024818914 -0.17483659 -0.015583484
-0.17747007 0.17314585 0.088453956 0.003772573 0.096327744 0.07398261 -0.08894242 -0.08955812
-0.007474422 -0.11339584 -0.09391865 0.08817187 0.15873595 -0.13457005 0.106034786 -0.17351246
-0.06295545 -0.1442762 0.120078236 0.0317942 0.0016849629 0.14135249 0.30485627 0.4166628
0.39164916 0.05062285 -0.016445385 0.33653712 0.38542736 0.3787351 0.024802798 0.08183534
0.33610386 0.22819278 0.36185876 0.06195973 0.1874135 0.34995383 0.12386171 0.31385502
0.10334425 0.25643584 0.23259297 0.04070135 -0.077486716 0.067961484 -0.08823233 0.04856768
0.27677903 0.29641613 0.31089196 -0.15692003 -0.13664892 0.15693569 0.24856347 0.14780849
-0.09709643 0.10487436 0.12113233 0.23038608 0.28638914 -0.13231458 0.21008945 0.068773486
0.016989263 0.010374011 -0.15714069 0.20871663 0.22523339 0.24494545 0.19881147 -0.15167028
-0.10643095 -0.0037506067 0.30789107 0.20764615 0.07824928 -0.036763657 0.26374957 0.12504289
0.19193855 0.1262806 -0.020663582 0.3715012 0.29945982 -0.059250943 0.017853985 0.20023985
0.28400335 0.13023265 0.142281 0.10257919 0.045343988 0.102124035 0.011829973 0.0006604566
0.07321612 0.057200707 0.067848384 -0.14309487 0.15748997 -0.12743135 -0.087233774 -0.12258053
0.2443302 -0.01488964 -0.113447934 -0.14591262 -0.06100128 0.10675355 -0.14371361 0.03764859
-0.07216563 0.22150967 0.097047955 0.068106726 0.19474483 -0.04293434 0.0006439944 0.17716396
-0.046044238 0.17098501 0.07977215 -0.19339083 -0.1173706 -0.059117947 0.042405713 0.014055477
-0.094553865 -0.056026954 0.19474122 -0.108489126 -0.09837281 -0.08454799 -0.16074121 -0.09711703
0.099525735 0.015058215 -0.10593377 0.13682024 0.0005094964 0.15194121 -0.18480341 -0.09658741
-0.06548925 -0.13229297

conv1.bias f4 [10]
00000000: 474e 343e 3c38 cc3d 1202 14bd f80e d53a
00000010: 7660 e4bd 9d54 333e ef2c f23c 3b44 8f39
00000020: ea33 583e b83c 0bbe
0.17607985 0.09971663 -0.036134787 0.0016255071 -0.11151211 0.17512746 0.029562442 0.0002732592
0.21113554 -0.13597381

conv2.weight f4 [20, 10, 5, 5]
00000000: 909e 753d c7e1 e93c 4995 45bd 2ddd eb3c
00000010: 712d 1abd eed0 ecbc 48a8 9d3b 5bd3 f33c
00000020: 194e ab3a cc0b 80bd 3cf4 00bc 5ce5 fb3c
00000030: ce86 d93d 7868 edbc 7ff7 7bbd b914 afbd
00000040: 6485 db3d 34c7 a23c 3798 a1bc e8f6 ae3c
00000050: 810a 4d3c d4ee e63c 7b87 143d 1aeb 58bb
00000060: e940 353d 8048 3c3d 085e 303c 457b 12bd
00000070: d535 5c3d f037 a0ba 3b8c 65bd a9c0 893b
00000080: 6b6b 5e3d 5406 3ebd 2de9 f4bc e234 1dbd
00000090: cc3e 4fbd b574 0b3d c129 693d 1470 823d
000000a0: f75c 6bbd 42dd 293d ffe5 a2bb bf8e 90bc
000000b0: 9dc2 de3c 484d 3abd a250 4d3d a47d 3abb
000000c0: 9614 053d ea07 09bd 7f80 353d 4425 7a3d
000000d0: 8b59 433d 5c3f 46bd 1c3f 87bd 8d70 ba3c
000000e0: a194 963d c548 1fbd 0dd2 f0bd f9f5 39bd
000000f0: 1327 463b fb96 293d d9a3 82bc 05c9 f6bd
00000100: e4ca 7bbd ac60 523d 36e3 d53d 9872 35bc
00000110: ed96 82bd 8e14 c4bc 6b0b 983c d806 c33d
00000120: 8eb4 9f3d 8004 b03c 64d3 533d b707 26bd
00000130: 5f32 813d f380 813d 0582 023d da37 28bc
00000140: 596b 24bc 1d66 663d d620 cf3d 1b95 64bd
00000150: 2453 c4bc eeca 063d dedc 003e bf31 10bd
00000160: ff91 79bd 6067 95bd 53eb a03d 7566 1cbc
00000170: a15a 893d f5be a33c 9395 493d 4ea6 cfbc
00000180: 0a59 163d 96bd 993d 73d2 823d 3880 6a3d
00000190: 8797 6f3d 4824 d83c fe7d 33bd 3b95 fb3c
000001a0: 3b7f 523d 6257 153c ad21 21bd 67de bdbc
000001b0: 8a63 353c 0f23 1fbc c240 8f3c 5c15 40bd
000001c0: 5f7b 37bc 176d 843b 841f 76bc 54e6 4f3d
000001d0: b45d 0dbc b438 2c3d ee45 133d 817c bd3b
000001e0: a01c aa3c e985 51ba 2e2e 2f3d 32fe acbc
000001f0: 6ee1 1e3d a356 6ebd 408b 6d37 41a2 bb3d
00000200: ac92 1bbd 30b8 9dbd b976 3cbd b397 7e3d
00000210: 0cf0 e53d 9ee1 aabd 77dc 11bd f6b3 453d
00000220: 6115 e83d 5ccf 953d d2bf 07be 5dfa b6bd
00000230: 19a3 263d 5fc3 e23d edd4 b73c 1475 80bd
00000240: d786 cd3b 608f 9abc 82d3 e23d c222 1c3d
00000250: f947 503c 8821 a03c 81ce 433d ecaa 933d
00000260: e56e 143b 1efa a33c bff5 a3bd 54d7 783d
00000270: d9d3 063e 0391 5abd 428e 3fbc 6a44 74bd
00000280: 9785 0f3e a2b9 e23d 027b e4bd 8a2b 10ba
00000290: f994 0cbd eca0 b03d 5608 563d 5cff 89bd
000002a0: 7680 88bd cd6f aebc 2c5c 803d cfdb 5b3d
000002b0: 495f 0c3d 5724 8cbc e23b 7cbd 56df 9dba
000002c0: d97c 0cbd 8352 843d 19af bfbc ee2a 70bc
000002d0: 6f56 843c 3c4f 653d 09f0 dc3c 4293 bfbd
000002e0: 7c86 92bd 2ebc 893d 0715 b43d 94ec d2bd
000002f0: 24da 59bd dcaa 9fbd bb40 cf3d 36a8 833d
00000300: 84be 923c 45d9 913b 41ed 36bd 7898 6c3a
00000310: 42e8 e6bb 14b5 36bd 3ad2 dcbb 1a07 beba
00000320: f537 87bc 3f0a a53b 6fec 663c 9807 2dbd
00000330: 3839 90bd dada c23c e293 9a3d b581 0abd
00000340: b84f 223d b1ea b3bc 783e 013d e41c 183d
00000350: 1165 f73c 7445 a0bc b807 c33c d9fd 993d
00000360: c1e6 cbbc 61ce 143c 1718 313d 1dde 253d
00000370: 8290 813b 6872 3f3d 0764 24bd 529b 4fbb
00000380: 17a4 063d a3d4 513d afed 2ebd eb18 7f3d
00000390: f07f 8fbc 9db3 3cbd af36 48bd 164f 183c
000003a0: f613 473d 0dc8 2fbd a4fd 4b3d 4e2f 09bd
000003b0: 07cd 91bc 33c8 9c3c 8ff4 f3bc 71e5 62bd
000003c0: 1338 053b 32bb fabc 1bb6 97bc 6397 35bd
000003d0: 970e 1ebd 3f02 e5bc 2b1b 36bc cc98 8cbb
000003e0: d3f8 8f3c 4964 2abd 56b8 44bc 2156 67bb
000003f0: 32c5 953a b247 2d3d 6274 1ebd e495 1c3d
0.05996567 0.028550042 -0.048238073 0.028791988 -0.037640993 -0.02890822 0.0048113205 0.029763868
0.001306954 -0.0625225 -0.00787073 0.030749016 0.10621415 -0.028980479 -0.061515328 -0.085488744
0.107188016 0.019870378 -0.019725902 0.021357968 0.012514711 0.028190054 0.036262017 -0.0033099116
0.044251356 0.04596758 0.010764606 -0.03576209 0.053762276 -0.0012223702 -0.056041937 0.004203875
0.05430166 -0.046392754 -0.029896343 -0.03838051 -0.050596997 0.034046847 0.056924585 0.063690335
-0.057461705 0.041470774 -0.0049712653 -0.017646192 0.027192408 -0.045483857 0.050125726 -0.0028456235
0.032490335 -0.033454813 0.044311997 0.061070696 0.047692817 -0.048400268 -0.06603834 0.022758747
0.073525675 -0.038887758 -0.11758814 -0.045400593 0.0030235692 0.04140375 -0.01594727 -0.1205006
-0.06147279 0.051361725 0.10443728 -0.011074685 -0.06376443 -0.023935582 0.018560132 0.0952279
0.0779811 0.02148652 0.05171527 -0.0405347 0.06308436 0.06323423 0.031862278 -0.010267222
-0.010035359 0.056249727 0.10113685 -0.05580626 -0.023965426 0.032908373 0.12584254 -0.03520369
-0.06093025 -0.07295108 0.078573845 -0.009545912 0.06706739 0.019988516 0.04921491 -0.025347855
0.036706008 0.07506864 0.06387796 0.057251185 0.058494117 0.026384488 -0.043821327 0.030710807
0.051390868 0.009115072 -0.039338756 -0.023177339 0.011071095 -0.009712948 0.017486934 -0.04689537
-0.011198848 0.004041325 -0.015022162 0.050756767 -0.008628298 0.042046264 0.035955362 0.0057826643
0.020765603 -0.00079926715 0.04276865 -0.021117304 0.038789205 -0.058188092 1.41587225e-05 0.09161807
-0.037981674 -0.077011466 -0.04601166 0.06215639 0.11227426 -0.08343814 -0.035610642 0.048267327
0.11332203 0.07314941 -0.13256767 -0.08934472 0.040682886 0.1107242 0.022440398 -0.06272331
0.0062721777 -0.018867195 0.11075498 0.038119085 0.012712472 0.019547239 0.04780436 0.07210335
0.0022649106 0.020016726 -0.08005857 0.060752228 0.13166751 -0.05336095 -0.011691632 -0.059635557
0.14015804 0.11070563 -0.111562744 -0.0005499652 -0.03432176 0.086244434 0.052254044 -0.06738159
-0.06665127 -0.021293545 0.062675804 0.053676423 0.03427056 -0.017107172 -0.061580546 -0.0012044709
-0.03429875 0.0646105 -0.023398923 -0.014658673 0.016154496 0.055983767 0.026969926 -0.09354259
-0.07154557 0.067253456 0.08793073 -0.1029903 -0.05318655 -0.07796261 0.10119768 0.06428568
0.01791311 0.0044509494 -0.044659857 0.0009025405 -0.0070467303 -0.044606283 -0.006738928 -0.0014497966
-0.016506175 0.005036622 0.014094456 -0.04224357 -0.070421636 0.023785997 0.07547738 -0.033815105
0.039626807 -0.021962496 0.031553715 0.037136927 0.03019956 -0.019564368 0.023807392 0.07519121
-0.024890305 0.009082408 0.043235864 0.040495027 0.0039539943 0.046739966 -0.040134456 -0.0031678271
0.032871332 0.051228177 -0.04270714 0.062279623 -0.01751706 -0.04606973 -0.048880275 0.009296199
0.04860302 -0.042915393 0.049802437 -0.03349238 -0.01779796 0.019138431 -0.0297797 -0.055394594
0.0020327612 -0.03060684 -0.018519452 -0.044333827 -0.038588133 -0.027955173 -0.011114876 -0.0042906757
0.017574703 -0.041599546 -0.01200684 -0.003529914 0.0011426567 0.042304702 -0.03868521 0.038228884

conv2.bias f4 [20]
00000000: 2259 153d f55b cd39 79f8 4bbd 8e1e 81bd
00000010: 90ca 8a3d 05a9 0d3d 5299 803d 0fc8 50bd
00000020: c2e0 fb3c 711c 87bc a44f dabb 3237 943c
00000030: 90f1 913c 526a 62bd 15cf 3abd 4674 843c
00000040: 9a8f 82bb a48e a63d 8924 9f3d a533 60ba
0.036461957 0.0003916916 -0.04979751 -0.06304656 0.06776917 0.034585018 0.062792435 -0.05097204
0.030746821 -0.016493054 -0.006662326 0.018092725 0.017815381 -0.055277176 -0.045607645 0.016168725
-0.003984404 0.08132675 0.077706404 -0.00085526175

fc1.weight f4 [50, 320]
00000000: 5484 61bb 4b98 2e3c 190b 8f3d 9df0 9a3d
00000010: 0974 41bd c73f 96bd 4169 ef3c cf53 a63b
00000020: 0c07 52bd fad8 45bd 434a 663b 39ad 8bbd
00000030: 7239 1f3d dbc2 37bd a456 0ebd 229c f93c
00000040: 4d61 25bb fcca b0b9 53f1 a33d dbaa 213d
00000050: bfdb 3cbd 9f0d 8d3c f930 2ebd 1d1c d8bc
00000060: 0d23 29bd 4444 c93a d76a e13c e6bf 8c3d
00000070: 93ee 12bd 5ae2 42bc 2404 9b3c 885f 9a39
00000080: 1592 4c3d 0f5a 26bc 75fd 933d 18f5 a43d
00000090: 2e12 e33b 4942 eabd 1c01 a13c 4db1 613c
000000a0: f88a fa3c d1f0 1e3d b693 333d 56ff 63bd
000000b0: e034 213d 8877 903c 44b7 78bd b9a1 65bc
000000c0: 4606 033d 7bcc 1cbd 2337 17bd 0c6c bb3c
000000d0: cae4 33bd 415c 57bd b492 523d 3568 18bd
000000e0: b3cb 4b3d b89c acbb ac80 433d 58b3 8a3b
000000f0: 6ba2 27bc c070 ff3c 629a 133d 77ca 1abd
00000100: 972d 0a3d c664 0f3d 912a c83c f106 983c
00000110: 8557 1bbc b803 2b3d 050f b2bc 5434 96bc
00000120: 5f28 a03c 49cd 4e3d 3e5d b9bd 9cb9 74bd
00000130: bfce acbc 57ae 0ebd 1a45 46bc a919 893c
00000140: 6a57 903d 2ff0 353d e046 273d 3afa 1fbc
00000150: 449d 0b3d ccee 01bd 49eb 85bc edc4 163d
00000160: 9d5b 3abd b2ba 68bc 01e1 db3b db52 6abc
00000170: 3f31 f93c 58ff e93c 9d86 0c3d f463 7cbc
00000180: 27ea 8ebc 89a6 53bc 9eb6 cabc 7b50 a6bc
00000190: a060 14bc 2408 773c b385 16bc 980a a93d
000001a0: 39f1 7dbc 4209 a73c 8f62 a13d 404d 56bd
000001b0: bcc3 933c 9412 57bd d1d7 78bc e5d1 38bd
000001c0: 7a1f 49bd d1f0 9abd 15c1 0e3d bbbe e1bc
000001d0: f06c a2bd 08a4 5a3d 4a9b 943d 9f67 253d
000001e0: 05e9 3dbd 5736 04bd 3062 3bbc b59a 0bbd
000001f0: 9a4d 37bd f774 d7bb b1b0 6e3d f78c 453d
00000200: da49 903c 3dfd 4c3b 1a2b 78bc 884c 41bd
00000210: 654e 823c b5c2 90bd df40 223d 59dc 243c
00000220: 965e 943b 5921 ae3d f501 b53c 4a58 22bd
00000230: 7a46 bcbc 54d9 673d b6c5 d1bc a5fa 463d
00000240: 35fe 91bb 2638 c33c dcaa acbc 74b7 b7bb
00000250: 1b1a 983c 8321 5b3d 1958 26bd 8e1f 223d
00000260: 4785 bbbc bbb9 c8bc 1c09 8cbc d29d 31bd
00000270: af01 42bd f9f0 5bbd 6c48 e2bb 38ba 58bc
00000280: e9c7 603d 486b 833d fb45 b8bc 1cc8 55bd
00000290: 15ca 0c3c ad28 483d 08ed f53c dcc6 1eba
000002a0: 1e34 453b ecd1 e73b 552a 4a3d 754a 0b3d
000002b0: dcd8 62bd 9f8c 1dbc 6276 b4bc ca8e 67bd
000002c0: 449e 85bc 4771 5a3c 8a29 0b3d 3d4e 20bd
000002d0: 4edd b7bb 1a99 1b3d 234d 213d c382 303d
000002e0: a031 563c ab36 18bc 75f4 9c3b 6d83 aabc
000002f0: d05c 7abd b894 95bb ce57 f3bc feb2 233c
00000300: 39d3 f2bc e8c0 483d f7b8 d33c 4b4c 763d
00000310: 0b94 10bc 4b04 953d bebf 673d d9ae 293d
00000320: f642 92bd cc35 42bc 7736 44bc ea94 f23c
00000330: 1d3d dcbc 8310 5a3c 88c7 4b3d 961c febb
00000340: a383 093d 1996 6c3d ea3c 65bc e774 64bd
00000350: 2c4d 34bb 1ad0 6b3a b166 9b3c aa2e 263d
00000360: 05c0 ef3c 458b d4bc 7e87 533d 9c8c e73c
00000370: d954 67bd 7d7b 35bd f4c6 febc 30db 563b
00000380: 138e 263d d605 6a3c a8de 123d b51a 9b3b
00000390: a7b9 11bd 8be6 97bc b261 37bd fecf eebc
000003a0: 0ff2 adbc 3c81 e43b 4bcb 13bd 46c9 20bd
000003b0: cf47 d63c 5687 a33c 7095 973c 9534 6f3d
000003c0: 4aca 283d 2c0e 743b c6ae c03c 0b63 49bd
000003d0: 7501 8b3c 5771 5a3d d048 a4bb dcfd c6bc
000003e0: be61 24bd 11c8 2d3d 0e57 4a3d 7175 7abb
000003f0: 37cf 6c3c cc27 143d c1cf 52bd ad63 b93b
-0.003441115 0.010656427 0.069845386 0.075654246 -0.0472298 -0.07336383 0.029224994 0.0050759087
-0.05127625 -0.048302628 0.0035139478 -0.06820149 0.038873143 -0.044863563 -0.034750596 0.030469958
-0.0025234998 -0.0003372057 0.08005013 0.03946958 -0.046108004 0.01721841 -0.042527173 -0.026380593
-0.041293193 0.0015355428 0.027516766 0.06872539 -0.035872053 -0.011894787 0.018922873 0.00029444345
0.049944002 -0.010153308 0.072260775 0.080545604 0.0069296574 -0.11438424 0.01965385 0.013775182
0.030583844 0.03880388 0.04384204 -0.05566343 0.039357066 0.017635122 -0.06072165 -0.0140156085
0.031988405 -0.038280945 -0.036917817 0.02287867 -0.043919362 -0.052578215 0.05140944 -0.037208755
0.04975481 -0.005267706 0.047730133 0.004232805 -0.010231595 0.031181693 0.036035903 -0.03779074
0.033734884 0.035008214 0.02443436 0.018557997 -0.0094813155 0.041751593 -0.021735677 -0.018335499
0.0195505 0.050488744 -0.09050988 -0.059747323 -0.021094678 -0.034834232 -0.012101436 0.016735869
0.07047923 0.04441851 0.040839076 -0.0097642485 0.034085527 -0.031721875 -0.016347544 0.036808897
-0.045497525 -0.014204668 0.006710172 -0.014301981 0.03041899 0.02856414 0.034308065 -0.01540469
-0.017445637 -0.012918123 -0.024745282 -0.020302048 -0.00905624 0.0150776245 -0.00918715 0.08253974
-0.0154994065 0.020390157 0.07880127 -0.052319765 0.01803767 -0.05250795 -0.015188173 -0.045122046
-0.049102284 -0.07565463 0.034852106 -0.027556768 -0.079309344 0.05337909 0.072561815 0.040382024
-0.046364803 -0.032278385 -0.011436984 -0.034083087 -0.04475174 -0.0065752226 0.058273975 0.048230138
0.01761334 0.0031278871 -0.015146995 -0.047192127 0.015906522 -0.070683874 0.039612647 0.010062301
0.004527877 0.08502454 0.02209566 -0.03963498 -0.022982825 0.056603745 -0.025606971 0.048578877
-0.0044553527 0.023830485 -0.021077566 -0.005606586 0.018567136 0.053498756 -0.04061136 0.039580874
-0.0228907 -0.024502626 -0.017094187 -0.0433634 -0.047364887 -0.053696606 -0.006905606 -0.013227992
0.05487815 0.06416947 -0.022494307 -0.052192792 0.008593102 0.048866916 0.030020252 -0.0006056854
0.0030090879 0.007074585 0.049356777 0.034006555 -0.055382594 -0.009616046 -0.022029106 -0.05653266
-0.016310818 0.0133326715 0.03397516 -0.039137114 -0.0056110984 0.037987806 0.039380204 0.043093454
0.013073355 -0.009290378 0.0047898837 -0.020814622 -0.06112367 -0.004564848 -0.029704954 0.0099914055
-0.029641734 0.049012095 0.025845034 0.060131352 -0.008824359 0.072762094 0.056579344 0.041426513
-0.07141678 -0.0118536465 -0.011975876 0.029612023 -0.02688461 0.013309601 0.049750835 -0.0077548726
0.033572804 0.05776033 -0.013991574 -0.05577555 -0.0027511818 0.0008995548 0.018969866 0.040571846
0.029266367 -0.025945315 0.051642887 0.02826529 -0.0564774 -0.04430722 -0.031100728 0.0032784455
0.040662836 0.014283618 0.035856873 0.0047334083 -0.035577442 -0.018542549 -0.044770904 -0.029151913
-0.021233587 0.0069734138 -0.036082547 -0.03925445 0.026157288 0.019961994 0.018503875 0.058399756
0.041208543 0.0037239892 0.023520838 -0.04916672 0.016968468 0.053330746 -0.0050135627 -0.024290971
-0.040132277 0.042427126 0.049399428 -0.0038216973 0.014453701 0.036170766 -0.05146766 0.005657634

fc1.bias f4 [50]
00000000: f084 e63c 1ffa 47bd 4980 14bd 3dc9 f43c
00000010: 969d d93c e538 513d 6823 81bb 50b8 13bc
00000020: c5ee 30bc b69b 22bd 358f 293d 3603 db3c
00000030: 5575 dd3c 0086 6abd aa9f b0bb b25f 5b3d
00000040: 92fb 733d b76b 97bc 2a9f 003d f721 ed3c
00000050: 8152 1bbd 10b1 193c dd72 5cbb e161 8cbc
00000060: c640 853c f584 1b3c 33d1 5d3d 45c3 713c
00000070: c4ca 89bc 53db 0d3d 228e 03bd 67f9 233a
00000080: f7bf 93bc 2145 83bc 8eb3 33bb d679 d0bc
00000090: aa1f 94bc b240 5c3d ce8c 63bd e435 053d
000000a0: cf91 823d c172 a2bb 4735 2a3c 08fa 3cbb
000000b0: a1fd 2e3d 80d3 bdbc aed0 a03c c59c f53c
000000c0: 511c 8c3d 9e05 80bb
0.028139561 -0.04882252 -0.036255155 0.029881114 0.0265644 0.05107965 -0.0039409883 -0.0090161115
-0.010799115 -0.03969928 0.04139634 0.02673493 0.027033487 -0.0572567 -0.005390127 0.05355806
0.059566088 -0.01848398 0.03140179 0.02894686 -0.03792048 0.009380594 -0.00336378 -0.017136516
0.016266238 0.009492149 0.054154586 0.014756029 -0.016820319 0.034632992 -0.03211797 0.00062551204
-0.018035872 -0.016024174 -0.0027420255 -0.02544872 -0.018081505 0.053772636 -0.055554204 0.032522097
0.06375467 -0.0049575274 0.010388679 -0.0028835554 0.042722348 -0.02317214 0.019630756 0.02998198
0.068413384 -0.0039069196

fc2.weight f4 [10, 50]
00000000: eb17 3ebe 90d1 20be c16a 0bbe 01d9 37be
00000010: 0826 143e 9d89 c33d 6bd1 aabd 25c3 7c3d
00000020: 3d12 1d3e de23 113e 9159 eebd 84b7 54be
00000030: 57dc 473e bd32 a23d cc69 ab3d ad2a 8d3d
00000040: a578 cfbd 182e b23c 768c 78be f053 58be
00000050: 8a02 953c e8fa eabd c232 6a3e a7d2 943b
00000060: a914 afbd 6b6b a73c bc87 a43c ff54 63be
00000070: a674 7c3d 5662 383e 825b 303e 2baa e3bd
00000080: 6048 8a3e e887 673d 1154 eb3c 0407 24be
00000090: ceee f23c a687 09bd 9a0e c4bc 82dc 48bd
000000a0: 37bd 933d bd42 173e 88a7 923d fdaf 1f3e
000000b0: 69b1 03be 1299 d3bd e90a 9bba 067a 49be
000000c0: 967f cabd 3816 98bd 5157 673e 2872 16bd
000000d0: 8a93 6e3d 26e9 0e3e b74b 98bd 2e97 9cbe
000000e0: b206 e13d 55f7 733c cc6f 71bc ba7d 7e3d
000000f0: 2c80 643e 16c5 303e 86f3 80be cf26 01be
00000100: d97a 28bd df53 33bd 31fd a2bc e0c6 25be
00000110: 7c9e 55bd f41b d2bd d93f 073e 841c 0e3e
00000120: 0da8 463b 8bac 46be b3e6 313e 9af5 41be
00000130: 9726 a2bd a011 5b3e 28a7 c3bd 9187 aebd
00000140: c874 dabc 5ac8 a0bd eaa1 8f3d 7d32 21bd
00000150: 4dbc f0bd ddeb 083e 0a13 bc3d e3c1 89bd
00000160: 634b 4ebc 6a28 84bc 2018 45be 7e78 1cbe
00000170: 1b40 acbd 16ee 2dbe c97f 383e 9610 113e
00000180: aa0f 0abe 7c6e 49be 2045 653e e2d2 fe3d
00000190: 1cbc 38bd 6fe9 bbbd 9d35 22bc 9fc7 163e
000001a0: ecad e73c 18d1 72bc 8afe ee3d 357c 4d3d
000001b0: 0fcc b23d 3f43 c7bb 411e bebd 6e86 3c3e
000001c0: 52fb f0bd 27d4 85bd 71c8 02be 545c 063e
000001d0: 97fe 07be 555a 073e d566 cabd d5a4 03be
000001e0: 96c9 7e3d cf7e db3d c84a 1d3e 02d3 11be
000001f0: cccc bb3d 67e2 42be 14b1 d53d 8c48 e6bd
00000200: aac4 a9bd b260 d8bc 37be b2bd 162f d7bd
00000210: 3cc6 6b3c 4c14 783e 4fc0 ee3d 8b73 2f3e
00000220: f83d cf3d 2580 4e3e e1b0 bebd 407f 893d
00000230: 9055 a9bd a3e4 823d 5567 163e b22c 1cbd
00000240: 1b09 193e 2656 2abe c8b6 583d 5cea 5a3e
00000250: 45e1 42be d6f7 95ba 2e9b 523e c54d c8bd
00000260: 3735 153d a988 a43d 4745 153e b904 66bd
00000270: bad9 4bbe 3f4a fb3d 10b7 8bbd 61c1 be3d
00000280: 72c8 5cbe 5564 52bd c51d 123e 8ab2 b7bc
00000290: 32a3 79bd 9148 713e 1886 703e bedb 9cbc
000002a0: 8093 df3d 84d5 b23d 4261 943c b805 c23d
000002b0: 68f5 88bd fd09 e03c 2b56 3abe 982d 3d3c
000002c0: c9df 92bd 1f7e 113e 70a0 8ebd 8a8b a5bd
000002d0: 01f3 99bd 8831 493d 1129 363d 0203 e23d
000002e0: f71c f53d f926 633d 2f66 85bd a679 af3d
000002f0: 7f40 cbbc bc8c f0bd 42ec 87be 4cd7 11be
00000300: 4da3 0a3d f6a7 b6bd 7838 203e 4158 5c3b
00000310: 0aea 913b cf00 2e3d f7a3 8fbd cea5 1bbc
00000320: 1824 c0bd c378 1dbd 6f8f a2bd ce01 45be
00000330: 294c 86be 7593 babc 5287 20bd dd8b ad3d
00000340: 1fc9 04be cd25 03be e364 313e 0511 4abe
00000350: 0ebe a43d 35ac bf3d 1f7b 893d 3d19 70be
00000360: 594f 06be 9a5d 1b3e 9df6 593e 8959 353e
00000370: 01e5 34bd 952d 8dbb e0c5 a33d 2553 4a3e
00000380: c966 213e 8e4b 82bd 79d7 68bd 5f17 d8bd
00000390: 2caa 733c a47f 02be 067b ba3c 26b4 fe3d
000003a0: 13ce 18be 8012 bb3d 8f0b 05be 8d58 1cbe
000003b0: df96 5f3d fdfd 1d3e 3858 07be dee8 bf3d
000003c0: 7df9 983c 2300 1fbe 372f afbd 724d 343e
000003d0: 14b6 783c da7a 413e e832 223e c4bb 553e
000003e0: 99cc 97bd e6a7 8c3b 794d 06be 01f1 f43d
000003f0: 4029 ecbc 1b40 2a3e 4829 3d3d 393b 3b3d
-0.18563811 -0.15704942 -0.13614942 -0.17953874 0.14467633 0.09547732 -0.083407246 0.06170954
0.15338989 0.14173838 -0.11638177 -0.2077313 0.19517647 0.07919834 0.083697885 0.068929054
-0.10130433 0.021750495 -0.24272332 -0.2112577 0.018189687 -0.11473638 0.22870925 0.0045417133
-0.085488625 0.020436963 0.020084254 -0.22200392 0.061634682 0.18006262 0.17222407 -0.11116441
0.27008343 0.056526095 0.02872661 -0.16018301 0.029654887 -0.03357663 -0.023932744 -0.049038418
0.07213824 0.14771552 0.0716086 0.15594478 -0.12860645 -0.1033193 -0.0011828813 -0.19675454
-0.09887616 -0.07426113 0.22591902 -0.03672996 0.058246173 0.13956127 -0.074363165 -0.3058409
0.10987605 0.0148905115 -0.014736127 0.06213162 0.22314519 0.17262682 -0.25185794 -0.1261246
-0.04113278 -0.043781158 -0.019896122 -0.16189146 -0.052153096 -0.10259238 0.1320795 0.13878065
0.0030312568 -0.19401757 0.17373161 -0.18941346 -0.07917517 0.21393442 -0.09553367 -0.08521951
-0.026667014 -0.07850714 0.070133045 -0.03935479 -0.117546655 0.13371225 0.09183319 -0.06726434
-0.012591216 -0.016132552 -0.19247484 -0.15280339 -0.08410665 -0.16985354 0.18017496 0.14166483
-0.13482538 -0.19671053 0.2238965 0.124425665 -0.04510127 -0.09175383 -0.009900478 0.14724587
0.028281175 -0.01482036 0.11669643 0.05016728 0.08730327 -0.0060810144 -0.09283114 0.18410656
-0.117666855 -0.065346055 -0.12771775 0.13121158 -0.13280712 0.13218053 -0.09882895 -0.12855847
0.062203966 0.10717546 0.15360558 -0.1424065 0.09169921 -0.19031678 0.104341656 -0.11244306
-0.08289464 -0.026413295 -0.08727687 -0.10507028 0.0143905245 0.24226493 0.11657774 0.1713392
0.101192415 0.20166071 -0.09311081 0.06713724 -0.08268273 0.06391265 0.14687856 -0.038128562
0.1494488 -0.16634426 0.05290869 0.21378464 -0.19031246 -0.0011441659 0.20567009 -0.09780458
0.036427703 0.08033878 0.14577208 -0.056156848 -0.19907275 0.12270021 -0.06822026 0.09314228
-0.21560839 -0.051365215 0.14269169 -0.022424001 -0.06094665 0.23562838 0.23488653 -0.01914775
0.10916805 0.08732131 0.018112782 0.09473747 -0.066874325 0.027348513 -0.18196933 0.011546515
-0.0717159 0.14208268 -0.06964195 -0.080832556 -0.075170524 0.049119502 0.044472758 0.1103573
0.11968415 0.05545709 -0.065136306 0.085681245 -0.024811028 -0.11745593 -0.26547438 -0.14242285
0.033847142 -0.08918755 0.15646541 0.003362194 0.0044529485 0.04248124 -0.07013696 -0.00949998
-0.09381884 -0.038445245 -0.07937514 -0.1923897 -0.2622998 -0.022775391 -0.03919155 0.084739424
-0.12967347 -0.12807389 0.17323641 -0.19733055 0.080440626 0.09359018 0.067129366 -0.23447128
-0.13116206 0.15172425 0.21285482 0.17709936 -0.044163708 -0.0043084123 0.07996726 0.1975828
0.15761866 -0.06362067 -0.056846116 -0.10551333 0.014872115 -0.12744004 0.02276374 0.12436704
-0.14922361 0.09134388 -0.1299269 -0.15268154 0.05458724 0.1542892 -0.13217247 0.09370588
0.018673653 -0.15527396 -0.085539274 0.17607668 0.01518013 0.1889452 0.15839732 0.20872408
-0.07412071 0.004292476 -0.13115491 0.1196003 -0.028828263 0.16626017 0.046181947 0.045710776

fc2.bias f4 [10]
00000000: bdbc acbd 2226 cdbb 5039 7abd c708 9f3d
00000010: d94d 36bd 727a ed3a 32d3 513d 5482 943d
00000020: 9f30 6abd 8d48 b4bd
-0.084344365 -0.0062606493 -0.061089814 0.07765346 -0.044507835 0.0018118157 0.051226802 0.072514206
-0.057175275 -0.088029005

momentum_buffer f4 [10, 1, 5, 5]
00000000: f0c7 4f3b 9456 3bbc e727 2bbc 2cfe 063c
00000010: 322e 3f3c cd83 8cbb c64d abbc 2e58 28bc
00000020: 27f7 9f3b 42e8 52ba bbc7 97bc 2bcd 1cbd
00000030: 7641 d7bc c684 b1bc 56b2 bbbc 122e bcbc
00000040: 3f8a 3fbd 13db 2bbd e762 2abd 7a16 12bd
00000050: d63b c4bc c50f 32bd 3fc3 42bd a10e 57bd
00000060: 9b20 2bbd 9792 e43a 3f5a 4c3b 6225 ba3b
00000070: 1214 663b bde5 b63b 2856 8739 6668 763b
00000080: a490 0c3c 58db bc3b 807e b13b 3225 033a
00000090: 42db 583b 51be 003c 3c5f e93b af9d b63b
000000a0: fabe 763b d81a b43b 7c22 8f3b 1084 243b
000000b0: 0019 d23a 0b1a 323c 8350 f33b dc87 293b
000000c0: d8e5 553a 0927 723b be93 133c 22d9 23bb
000000d0: e0f4 46bb 9d49 6dbc b841 b5bb 80f8 36bc
000000e0: bf6b bdbc 6f23 1bbd fd06 60bd e40e 03bd
000000f0: 6016 3c38 b4e2 09bd 842b 77bd 4a72 76bd
00000100: 6825 40bd 705e b63b bbd7 7bbc e84e 74bc
00000110: e054 e5bc d4fc 5cbd 6081 a038 68a0 bf3b
00000120: 3445 e23b 37a9 c0bc f395 4dbd 00b6 2d3c
00000130: e631 8a3c e0cc df3b 36b1 233b 588c 8bba
00000140: b211 e53b 08c8 0a3c 9437 c6bb 46c7 a1bc
00000150: cc7b 2cbc 4834 b4ba fdc4 b6bc 2579 20bd
00000160: af9d 1abd 0d32 ffbc b204 90bb 8dce f1bc
00000170: 79ef 2cbd bf1a 28bd 3d83 2cbd 8c3f 4abc
00000180: b634 88bc f033 aabc 07c6 1ebd 5dea 3fbd
00000190: 0bc8 903a 2ac9 633a 3522 4d38 e567 0439
000001a0: c1db 7d39 2eea aeb9 28aa 5139 181a b438
000001b0: 6850 113a 60c1 a837 c92d 1eba 2679 98ba
000001c0: b261 deb9 25f4 193a fa84 cdb8 7028 c438
000001d0: ba79 c1ba 326b 59ba 7070 1e38 f2ed 18b8
000001e0: e0b0 79b8 b8fa 81ba 5818 14ba b899 3939
000001f0: a971 1a3a 1063 393c 2bbd eabc 992c f1bc
00000200: c84e 843a 566d 4dbb 683c c23c b74b 03bd
00000210: 2ef8 78bd 215d 4cbd a093 05bd ea6e f33c
00000220: 6561 05bd 3c4c 8abd 70a0 85bd ac11 94bd
00000230: 3c6b a53c 0825 a0bc d387 0ebd 98eb 6ebd
00000240: 9ed3 94bd c3f2 f73b 307a 5dbc 3843 d8bc
00000250: e8c5 4cbd 1258 3cbd 439b 4d3c 9b8c b73b
00000260: ce1c 81bc c2b6 02bd f69c cfbb 9c8e e23c
00000270: 5653 8d3c d005 09bc 65b2 23bd 4ad4 9dbc
00000280: a6f0 c43c 20d9 a23c 224a f0bb 691e 15bd
00000290: 6493 13bd 1cfb 973c bdc3 333c 5a4d 3fbc
000002a0: d78b 0abd fc0b eebc 6720 d23c a27c c13c
000002b0: 001a be38 cc14 c9bc 6528 dfbc 2d18 793c
000002c0: b088 b03c d07d ad3b 2bd2 45bc 7212 5fbc
000002d0: 8e88 ab3b 744a 603b 621e 81bc 2abd 25bd
000002e0: c7ff a3bc c232 9abb 8c20 aabc c151 45bd
000002f0: 3d44 47bd 9624 f2bc 7491 9a3a 585c 0ebc
00000300: 727d 90bc 0c17 90bc 8f89 97bc 55dc bd3b
00000310: 0f8f 073c 95b8 1c3c 68c8 ed3a cbfa 7cbc
00000320: 0ab4 353c 64a4 2d3c 5e0e d33b 9030 02bc
00000330: 8022 34bc 4f52 ff3b 2900 053c dc1f 853b
00000340: 3402 d9bb 04ae b7bb a4e4 2f3c f133 6c3c
00000350: cfdf d33b 8f3a 61bc 8c2d 5fbc 14fd 043c
00000360: f2a2 b73c b42e f53b 5319 81bc ec8a 52bc
00000370: 9b9b 843b 56fa 4e3c 82eb ddba 57c7 94bc
00000380: cb01 68bc 534c acbb 4a2b a939 1e15 b53a
00000390: c843 5cb9 c8db 4bba 2699 b2bb 367c d1ba
000003a0: 0d30 b739 38ce 5e39 4c54 1939 efec e9bb
000003b0: b910 44bb de35 88b8 fe91 a538 cc06 ceb8
000003c0: bca2 ebbb df71 35bb 9017 20b7 11c4 9a39
000003d0: 7814 a138 a810 f1bb c272 d6ba c5cb 0a3a
000003e0: 5532 d739 5557 a339
0.0031704865 -0.011434216 -0.010446525 0.00823931 0.011668729 -0.004288173 -0.020911109 -0.01027493
0.004881758 -0.00080454734 -0.018527856 -0.0382816 -0.026276331 -0.021669757 -0.022912186 -0.022971187
-0.0467627 -0.041956972 -0.041598227 -0.035665967 -0.023954313 -0.04347207 -0.047549482 -0.052504186
-0.041779142 0.0017438707 0.003118172 0.005680726 0.0035107178 0.005581586 0.00025813398 0.0037598847
0.008579407 0.0057634525 0.0054166913 0.0005002796 0.0033089672 0.007857875 0.0071219485 0.0055729966
0.0037650452 0.005496364 0.0043681245 0.002510313 0.0016029179 0.010870467 0.007425369 0.0025868332
0.00081595546 0.0036949536 0.009007392 -0.0025001247 -0.003035836 -0.014482883 -0.005531516 -0.011167645
-0.023122666 -0.03787559 -0.054694165 -0.031996623 4.484353e-05 -0.033663467 -0.060344234 -0.06016759
-0.046910673 0.005565457 -0.015371258 -0.014911391 -0.027994573 -0.053952053 7.6534925e-05 0.0058479793
0.0069052223 -0.023518188 -0.05019183 0.010602474 0.016869497 0.006829843 0.0024977452 -0.0010646684
0.006990635 0.008470543 -0.006049106 -0.019748341 -0.010527562 -0.0013748491 -0.022310728 -0.039178032
-0.037748035 -0.031151796 -0.004395091 -0.029517436 -0.042220566 -0.041041132 -0.042117346 -0.012344252
-0.016626697 -0.020776719 -0.038763072 -0.046854366 0.0011045946 0.00086893386 4.8907666e-05 0.00012627205
0.00024209825 -0.00033362344 0.00019995181 8.587929e-05 0.00055432925 2.0117208e-05 -0.0006034044 -0.0011632785
-0.00042415928 0.0005872867 -9.7999306e-05 9.3535404e-05 -0.0014761009 -0.00082938664 3.777485e-05 -3.6461228e-05
-5.9530954e-05 -0.0009916639 -0.00056493795 0.0001770024 0.00058915705 0.011315122 -0.028654655 -0.029440211
0.001009428 -0.0031345687 0.023710445 -0.03205463 -0.060783558 -0.049893502 -0.03261149 0.029715974
-0.032563586 -0.06752822 -0.06524742 -0.07229933 0.020192735 -0.019548908 -0.0347975 -0.05833015
-0.07266925 0.0075667812 -0.013517901 -0.02639924 -0.049993426 -0.045982428 0.012549224 0.0056014783
-0.015760805 -0.031912573 -0.00633585 0.027655892 0.017251652 -0.008363202 -0.039965052 -0.019266266
0.024040531 0.019878924 -0.007333056 -0.036405955 -0.036029235 0.018552355 0.010971961 -0.011676157
-0.033824768 -0.029058449 0.025650216 0.023619 9.064749e-05 -0.02454605 -0.027240941 0.015203518
0.021549553 0.005294539 -0.012074034 -0.013615238 0.0052347844 0.0034224065 -0.015761558 -0.040463604
-0.020019425 -0.004705758 -0.020767473 -0.04817367 -0.04864906 -0.029558461 0.0011792616 -0.008689009
-0.017637942 -0.017589115 -0.01849821 0.005794088 0.008273854 0.009565492 0.0018141391 -0.015440653
0.011090288 0.010598276 0.0064409217 -0.0079461485 -0.010994554 0.0077917944 0.008117714 0.004062636
-0.006622577 -0.005605461 0.0107356645 0.014416681 0.006465889 -0.013746872 -0.013621699 0.008116979
0.022416566 0.007482374 -0.015759146 -0.012850504 0.00404687 0.012632927 -0.0016931149 -0.018161459
-0.014160584 -0.005258122 0.00032266445 0.0013815498 -0.00021006085 -0.00077765854 -0.0054503856 -0.0015982452
0.0003494028 0.00021248392 0.0001462262 -0.0071388404 -0.0029917194 -6.495019e-05 7.895006e-05 -9.8241115e-05
-0.0071910303 -0.002768628 -9.542229e-06 0.0002951925 7.680891e-05 -0.007356722 -0.0016361105 0.0005294646
0.00041045496 0.0003115485

momentum_buffer f4 [10]
00000000: d49a cebb 6f44 83bb 7b55 59bd cd43 c13b
00000010: 9857 d7b9 d6ee 653c f8aa 04bb 0af3 ed3b
00000020: 08c6 62bb 448e 0fbc
-0.006305078 -0.0040059607 -0.053060036 0.005897975 -0.00041073258 0.014033994 -0.0020243507 0.0072616385
-0.00346029 -0.008761946

momentum_buffer f4 [20, 10, 5, 5]
00000000: a283 20bc 86fd c2bb f008 81bb c68d db3c
00000010: ae0d c43b c0b2 c8b9 3ab7 edbc bec2 e9bc
00000020: 0aad e93c 78f2 853c 98aa cc3b 5175 44bd
00000030: 0e35 1bbd 2aeb 663c 51cf 18bb 9fea 563b
00000040: 6a8d 0bbd 3c56 d6bc bbc7 2cbc 2d8a 6dbc
00000050: 60bc 163c 3cf5 69bc feeb 0ebc a89c 92ba
00000060: cbf9 c4bb 05f1 87ba c023 383b d421 6e3a
00000070: 433a 5ebb 7e90 3ebb 7265 45bb 8a56 c639
00000080: ed4c 003b 4069 bdbb c9d9 abbb a3e9 8e3a
00000090: 6262 5d3a 68ca 483a 907e 82bb 6453 17bb
000000a0: 121f b63a 6eec e9ba 0375 23bb 109b 22bb
000000b0: 665c 34ba 3459 143a a9d0 7039 c433 c6ba
000000c0: 6960 56ba 863a 7f3a 0997 79bc d2ed 383b
000000d0: 61e3 063d 17ed 3b3d 347c b23b 78d0 b4bc
000000e0: a03d 0fbc a7b3 443d 0606 853d cb3a ff3b
000000f0: a5a1 13bd d86c febc 88d4 0b3d 3f80 1d3d
00000100: 33cd b4bc 40bb 01bd 7278 1cbd a0d9 c6bb
00000110: fc6e c5bc fc5b 89bd 93f9 a8bc 94c4 f2bc
00000120: baff aebc fb89 d7bc a831 8dbd 805a cc38
00000130: aee8 26bc d793 513c 5187 023d 301d 363c
00000140: 48d6 86bb 591e d8bc 39d4 913c 63a2 3b3d
00000150: 1246 943c 2caf 54bc 87df 0abd 5ec3 f03b
00000160: 4299 933c 7c6a 2abc a758 27bc 6df5 d8bc
00000170: f0c3 02bc ea62 1cbc 522f 0fbd 93b8 653b
00000180: ce01 7bbc da70 41bc f3a2 31bc bc73 03bd
00000190: 2995 82b9 733e a7b9 64c1 b0b8 4206 013a
000001a0: 9e5e 8139 cd94 9fb8 e5e6 6a39 e407 da39
000001b0: 0482 0e3a 60f5 c839 7f76 a438 6669 073a
000001c0: 807d 0a3a d8ce 8539 d3d3 8e39 c4fe 3db8
000001d0: 27b3 1c38 160c 0639 7284 fd38 52c2 0cb9
000001e0: 9a33 f737 8126 0739 b6cd 9437 f072 9237
000001f0: 65a9 e638 642c 69bb 9981 44bc 48d1 9e3b
00000200: 78e6 393d dc8d d03b 03f1 70bc e205 19bd
00000210: 7efd 033d 8c28 b73d 9a28 803c 86ea cfbc
00000220: f295 81bd e86d 983c 9041 943d d1e2 6dbb
00000230: 06d6 c4bc 1548 87bd 4494 22bc 9064 8bba
00000240: 5a17 78bd 0de6 04bc ed95 70bd 9df6 04bd
00000250: 3a27 b5bc 68c9 91bd a337 98bc 16a4 7bbc
00000260: 04d0 bf3c 42b6 7b3c 95b7 84bc 0098 11bd
00000270: 1587 a1bc de88 313d 2ace a23c 70b8 dbbc
00000280: eb5e 77bd d84c 1cbd 04b8 223d c7b9 833c
00000290: 647e 2ebd 9bd1 43bd e389 02bd 2c3c a13b
000002a0: 7a0f fbbb 6a85 5dbd b12d 17bd 102d 04bd
000002b0: 99e3 0dbc 84c6 76bc d605 83bd 767a 48bb
000002c0: 23cf 36bc 7898 b03c 85c5 da3c 8f05 8bbb
000002d0: 70fd 4bbc d890 b6bc a0ae 213d ef49 2d3d
000002e0: a4c7 c33a 300d 0dbd 79db eabc 69d7 1d3d
000002f0: b82c 9a3c 289f e7bc 759e e6bc be78 cabc
00000300: 9468 ca3b b77a 80bc 2799 4fbd 23ad 82bc
00000310: 32aa 65bc 38d9 80bb 781b 5cbc 4e93 48bd
00000320: 9cd4 a4bb ceff 14bc 5940 943b 626c d93a
00000330: 8e89 5f3a 0c60 63bc b881 2cbc e800 4a3c
00000340: 8e0f 923b 423e 07bc 7cf2 95bc bd0c 1dbc
00000350: dee9 093c 1afb 95bb 02dc 90bc 5cb1 56bc
00000360: a4c8 80bb b741 9f3b 7c51 41bb 54d8 4ebc
00000370: 7510 c9bb f8a2 b7ba fb5b a43b 52a2 b7bb
00000380: ce73 69bc a83a 183a f510 bbba 0020 8dbb
00000390: 58bf 06b9 2dd8 383a dc59 30b8 8880 f7ba
000003a0: e884 f0bb 9cac 343a f938 8a3a be3c a139
000003b0: 1e70 32bb b0b8 dfbb 9f7a 743a c73c f639
000003c0: 7598 b439 b4c0 85bb caf4 39bb b700 463a
000003d0: 5385 ad39 b0a5 ab39 5469 b1ba 33fa bc39
000003e0: 00ac 0db9 2884 c337 bb4f b8bb ac51 5dbc
000003f0: 9cce 47bc f8c1 1bbc c09a 69bc 600c 303c
-0.009797009 -0.0059506325 -0.003937833 0.026801001 0.005983076 -0.00038280152 -0.029018033 -0.028535243
0.028524894 0.01635097 0.0062459223 -0.047963444 -0.037892394 0.014094153 -0.002331693 0.0032793654
-0.03407041 -0.026164167 -0.010545666 -0.014498276 0.009200186 -0.01427966 -0.008723257 -0.0011185603
-0.006011223 -0.0010371512 0.002809748 0.000908402 -0.0033909238 -0.0029077823 -0.003012028 0.0003782998
0.0019577101 -0.005780369 -0.005244468 0.0010903369 0.0008445141 0.00076595554 -0.0039823726 -0.0023090476
0.0013894758 -0.0017846951 -0.002494157 -0.0024811663 -0.00068802235 0.0005659044 0.00022965916 -0.0015121629
-0.00081778184 0.00097361987 -0.0152337635 0.0028217924 0.03293169 0.045880403 0.005446935 -0.022072062
-0.00874272 0.048022892 0.064952895 0.007788991 -0.036042828 -0.03105776 0.034138232 0.038452383
-0.022070503 -0.031672716 -0.038200803 -0.0060684234 -0.024100773 -0.06706998 -0.020626819 -0.029634751
-0.021362174 -0.026310911 -0.06894237 9.744335e-05 -0.010187311 0.012791595 0.03186733 0.011115357
-0.0041149 -0.026381658 0.017801391 0.04580916 0.018099818 -0.012981217 -0.03390458 0.0073475083
0.018017415 -0.010401364 -0.010214007 -0.026484216 -0.007981285 -0.009545067 -0.034957238 0.0035052642
-0.0153202545 -0.011806691 -0.010842073 -0.032092795 -0.00024906665 -0.0003189925 -8.428356e-05 0.0004921892
0.00024675293 -7.609427e-05 0.00022401994 0.0004158608 0.0005436244 0.0003832979 7.842201e-05 0.0005165547
0.0005282983 0.00025521847 0.00027242172 -4.529838e-05 3.7360147e-05 0.00012783738 0.0001208865 -0.0001342383
2.9468723e-05 0.00012888947 1.7738766e-05 1.7458078e-05 0.00010998807 -0.0035579437 -0.011993789 0.0048467256
0.045385808 0.006364567 -0.014705899 -0.037359126 0.03222417 0.089432806 0.01564436 -0.025380384
-0.06327428 0.018607095 0.072390676 -0.0036298523 -0.024027836 -0.066055454 -0.009923045 -0.0010634828
-0.060569145 -0.008111489 -0.05873673 -0.03246175 -0.022113431 -0.07118493 -0.018581217 -0.015358945
0.02341462 0.015363278 -0.01620082 -0.03554535 -0.019717732 0.043343417 0.019873697 -0.026821345
-0.060393255 -0.03815922 0.039726272 0.016079796 -0.042601004 -0.047807317 -0.03186978 0.004920503
-0.007661757 -0.05408231 -0.03690881 -0.032269537 -0.008660221 -0.015061978 -0.063975975 -0.003059057
-0.011157784 0.021557078 0.026705513 -0.004242606 -0.012450561 -0.022285864 0.039473176 0.042306837
0.0014936817 -0.034436405 -0.028669106 0.03853551 0.018820152 -0.028274134 -0.02815173 -0.024715777
0.0061770175 -0.015683515 -0.050683167 -0.015951699 -0.0140176285 -0.0039321445 -0.013434283 -0.048968606
-0.005030228 -0.009094192 0.0045242724 0.0016588087 0.0008527272 -0.01387788 -0.010528974 0.012329318
0.0044574207 -0.0082545895 -0.018304102 -0.009585557 0.008417575 -0.004577053 -0.017683033 -0.013103809
-0.003930168 0.0048601287 -0.0029498031 -0.012624819 -0.006135995 -0.001401036 0.0050158477 -0.005604067
-0.014248801 0.00058070803 -0.0014272021 -0.004306793 -0.00012850517 0.00070512557 -4.2045358e-05 -0.001888291
-0.0073400624 0.0006892176 0.0010545544 0.0003075357 -0.0027227472 -0.0068274364 0.00093261333 0.0004696606
0.00034445865 -0.00408181 -0.0028374665 0.0007553207 0.00033096466 0.00032739108 -0.0013535419 0.00036044567
-0.00013510883 2.3307352e-05 -0.005624739 -0.013508242 -0.012195256 -0.009506695 -0.014258087 0.010745138

momentum_buffer f4 [20]
00000000: 8512 1cbc a490 22bb 9dcb 1b3c 9e62 4a36
00000010: ff2d 34bc ad95 283c 34c9 703a b453 2f3a
00000020: dae4 c43b deb3 45bc 16a0 743c 849d 343b
00000030: 16ed 20bb c6dc af3b b6cf 2c3c 6422 c63a
00000040: 70a9 60bb cb97 abbb 395e a1bb be28 9fbb
-0.0095259 -0.002480545 0.009508994 3.0157748e-06 -0.010997294 0.010289592 0.0009185255 0.0006688193
0.0060087265 -0.012066809 0.014930746 0.0027559707 -0.0024555377 0.0053668944 0.010547569 0.001511645
-0.003428068 -0.005236601 -0.0049245623 -0.004857152

momentum_buffer f4 [50, 320]
00000000: ce81 843c 8528 693d 30cb ee3d f867 023e
00000010: 2634 7d3c 1e64 313d 8e97 043e 1b85 123e
00000020: a9dc 073d 2129 bf3d 0654 ac3d cc03 163e
00000030: 07b7 953c e9bb c03d 2638 b93d bec6 f43d
00000040: 0522 a13c c469 213d b903 6f3d 79d5 413d
00000050: 06c5 153d ec19 603d 0119 c13d 4e47 983d
00000060: 8c4d 243d 709b 373d 7d5d b63d c83a b33d
00000070: ce8e 0e3d 039f 273d 2585 153d a73e 6c3d
00000080: f60e 883c a77d 863d 1ece e93d 5a87 e53d
00000090: 5277 623c f07f 543d ecb5 de3d dc64 fd3d
000000a0: fd37 1f3c bfcd c53d e857 be3d 3060 233e
000000b0: bdd4 af3c 35cb ea3d 9103 123e b84e 023e
000000c0: 0000 0000 0000 0000 0000 0000 0000 0000
000000d0: 0000 0000 0000 0000 0000 0000 0000 0000
000000e0: 11db 0128 0000 0000 0000 0000 6bee a713
000000f0: 5dfb a435 0000 0000 0000 0000 0000 0000
00000100: 9a7c 5c3d ca47 c23d 743a ab3d 7452 adba
00000110: a22a c73d 663d e13d 0324 093d 5824 23bb
00000120: 7335 eb3d 0d84 093e b310 863d 9d4c 923b
00000130: ae56 c53d bd56 6e3d 6966 573d 904b b33b
00000140: 80b5 253d e4b9 563d fbb8 953d fe1b 333d
00000150: b9c0 683d c980 bf3d 641a de3d 6e5a 383d
00000160: e39f 233d 21e3 943d e4af db3d 21be 733d
00000170: 3198 a03d 74b1 b93d 053c cb3d a76e 993d
00000180: 664c 5f3c fcaf eb3c e0a6 1a3d 5b21 563d
00000190: 34c8 d13c c60b 6a3d 2543 553d 1e1b 633d
000001a0: 60d9 70bb c9b5 193d 70f8 a03d 7de5 b13d
000001b0: 8291 913d c3d7 fb3d 9a3e f03d dbcd e13d
000001c0: 181b cd3d 1c5e 493e 4872 613e bc80 263e
000001d0: 16ff a33d f4da 403e 0bbc 683e ad6b 3b3e
000001e0: 0a30 1e3e fa23 5a3e 72fd 7d3e 3f84 3b3e
000001f0: 0499 443e 267b 5e3e bb3c 543e 3512 093e
00000200: 0233 c23c 0198 143d 4a26 423d f4bf 003d
00000210: 7282 4b3d d0e9 7e3d 3631 4f3d e249 8b3c
00000220: a009 a43b feb2 553d f1c0 8b3d 5696 fd3c
00000230: 37f6 9a3d 5714 a43d 5ecf ba3d 4abb 633d
00000240: 820e 863a 1cc1 b339 4f78 4f3a 3b27 7b3a
00000250: a857 163b 9f52 f83a 423c 633a 2c14 043b
00000260: 483b 943a de08 c83a 98b3 d03a ff57 813a
00000270: 48e4 543b 6f66 2f3b 5455 863a 8fa1 a33b
00000280: cc20 c83c c060 223d ac04 003d d3eb 013d
00000290: 08f2 c13c 3775 783d f261 943d 96f7 473d
000002a0: a3bc ab3c f53b fd3c 1041 663d a8d0 7e3d
000002b0: 8a35 713d 4084 b23d 3d8e a03d 86c4 773d
000002c0: 21cb 9f3d 76b4 213e 7b5e 2e3e cd28 d63d
000002d0: 9931 943d f3e0 273e 6054 333e 32a6 ea3d
000002e0: 924b 043e 5eaf 1d3e 30ae 2e3e deb5 003e
000002f0: a62e 313e 8849 3e3e 82b5 2f3e 842b c43d
00000300: 1a1d 9f3d 1892 d13d 20ce 943d 5472 69bb
00000310: bc54 c23d 364b 053e c634 983d d804 213c
00000320: ded4 e43d 8072 cc3d 4f49 a73d 3aa5 0e3d
00000330: a867 f53d baa6 9f3d 181e 173d 5b12 103b
00000340: bb9d a13c 7e7a bd3c 853e 603c d370 493c
00000350: 3a34 bc3c 6ac4 013d fe23 fd3c f685 bc3c
00000360: bb07 853c 215e 903c 7e73 e93c 3c36 963c
00000370: 7b48 003d 2e6e 0a3d 2c8f 2c3d 28f1 093d
00000380: 92bf 1039 f32a f83a 50a1 253c 2f7e 863c
00000390: e0e2 143b 51d5 543b 4d67 263c 86cd cc3c
000003a0: 451d a03a 8b56 823b 6c3e 1e3c 667b a03c
000003b0: 68ac 1b39 d45b 2e3b 5252 e03b ec99 cf3b
000003c0: c8b3 0238 1cf0 b022 0400 0000 037e 2bb7
000003d0: d81c ed37 aecc 00b1 b11e 0000 8f8d 08b7
000003e0: b10a 82b7 b6dd 3ab6 0400 0000 a2b5 d738
000003f0: ff20 84b8 c312 9734 33d3 0eb0 8d08 51b8
0.016175177 0.056923408 0.11659849 0.12734973 0.015454328 0.04330837 0.12948439 0.14308588
0.033169422 0.093340166 0.08414464 0.14649886 0.01827575 0.09410841 0.090439126 0.119519696
0.019669542 0.039407507 0.05835316 0.047322724 0.03656485 0.05471222 0.09428597 0.07435475
0.040113017 0.04482597 0.0890455 0.08751446 0.034804158 0.04092313 0.03650393 0.057676937
0.016608696 0.06566935 0.11416267 0.11207457 0.0138223935 0.051879823 0.108745426 0.12372753
0.0097179385 0.096583836 0.092941105 0.15954661 0.021463746 0.1146454 0.14259173 0.12725341
0.0 0.0 0.0 0.0 0.0 0.0 0.0 0.0
7.208441e-15 0.0 0.0 4.2391825e-27 1.2292109e-06 0.0 0.0 0.0
0.053829767 0.09486349 0.083607584 -0.0013223425 0.097249284 0.10998039 0.03348161 -0.0024893489
0.11484804 0.1342928 0.06546154 0.0044646994 0.096356735 0.05818819 0.0525879 0.0054716542
0.040456295 0.052423373 0.07310673 0.043727867 0.05682442 0.09350736 0.10844877 0.045008115
0.0399474 0.07269884 0.10726908 0.059507493 0.07841528 0.090670496 0.09923557 0.074918084
0.013629055 0.02877044 0.0377568 0.052277904 0.02560816 0.057140134 0.052065987 0.055445783
-0.003675066 0.03752688 0.07859886 0.086863495 0.071078315 0.12297013 0.1173069 0.11025592
0.10014933 0.19664806 0.22016251 0.16260046 0.08007638 0.18833524 0.22727983 0.18302794
0.15448013 0.21302786 0.24803713 0.18312167 0.19198996 0.21726665 0.20726292 0.13385852
0.023705963 0.036277775 0.047399797 0.03143306 0.04968495 0.0622347 0.05058404 0.017003004
0.00500603 0.052172653 0.0682391 0.030955475 0.07566493 0.08011692 0.091215834 0.055598535
0.0010227712 0.00034285418 0.0007914351 0.0009580736 0.002294043 0.0018945521 0.0008668342 0.0020153625
0.0011309171 0.0015261432 0.0015922664 0.0009868144 0.00324847 0.0026763936 0.0010248818 0.0049936245
0.024429701 0.03964305 0.031254455 0.03171904 0.02367498 0.06065866 0.07245244 0.0488201
0.020963972 0.030912379 0.056214392 0.06221071 0.05888895 0.08716631 0.0783963 0.060490154
0.07802416 0.15791497 0.17028229 0.10457001 0.072360225 0.16394405 0.17512655 0.114574805
0.12919453 0.15398929 0.17058635 0.12569377 0.17302951 0.18582737 0.17159083 0.095786124
0.077692226 0.10232943 0.07265878 -0.0035621123 0.09488818 0.13016972 0.07431941 0.009827815
0.11173414 0.09982777 0.081682794 0.03482554 0.119826615 0.077954724 0.036893934 0.0021983597
0.019728532 0.023129698 0.013686781 0.012294966 0.022974122 0.031681456 0.030900951 0.023013096
0.016239038 0.01762301 0.028497454 0.018336408 0.031319123 0.03379648 0.042128727 0.03367725
0.00013804276 0.0018933698 0.010109261 0.01641759 0.0022718236 0.003247578 0.010156465 0.025000345
0.0012215754 0.003977602 0.009658437 0.019590091 0.00014846178 0.0026605027 0.006845751 0.0063354876
3.116185e-05 4.795912e-18 6e-45 -1.0221734e-05 2.8266033e-05 -1.8742798e-09 1.101e-41 -8.139191e-06
-1.5502186e-05 -2.7845213e-06 6e-45 0.00010285831 -6.3003965e-05 2.8139593e-07 -5.195943e-10 -4.9837447e-05

momentum_buffer f4 [50]
00000000: d594 ca3c 1359 3e3c 4866 7491 00eb 90ba
00000010: b40c bc3a 9226 0fbc 0d25 34bc 7aaf b4ba
00000020: a111 1ebc 2271 6510 5678 6dbb 5849 64bb
00000030: b5e7 81bb 1367 d30e 800b fb38 ec9a b13b
00000040: bc5f fc3c 7582 98bb a83f 073c 8d77 c33c
00000050: 9acf 8c3b 184b 9c3b b170 8abc 1e64 21bb
00000060: 4c47 85bb 0c39 1a3b 9a50 16bc 3c7e e63c
00000070: 7ca4 203c 9c65 6ebb 219d 64bb 933b 9a90
00000080: 728b 80bc b345 4cbc 5e06 2111 4096 d23b
00000090: 5973 bc11 3867 8ebc 726e 1839 d4e3 a3bb
000000a0: e8c3 cabc a875 8cbb 9d19 70bb 4ab1 fdbb
000000b0: 3452 603b 84be 193b b9cb d6bb a575 ba3b
000000c0: cceb 3f3c 71cf 253b
0.024729172 0.011617917 -1.9279724e-28 -0.0011056364 0.0014347048 -0.008737223 -0.010995162 -0.0013785206
-0.009647758 4.524944e-29 -0.0036235056 -0.0034833755 -0.003964389 5.2114773e-30 0.00011970755 0.0054200795
0.030807368 -0.0046542236 0.008254923 0.023860717 0.004297209 0.004769694 -0.016899439 -0.0024626325
-0.004067337 0.0023532538 -0.00917449 0.028136365 0.009804841 -0.0036376482 -0.0034883695 -6.083408e-29
-0.015691493 -0.012467789 1.2702623e-28 0.0064266026 2.9732259e-28 -0.017383203 0.00014536994 -0.0050015245
-0.024751619 -0.0042864867 -0.003663636 -0.007742082 0.0034228684 0.0023459503 -0.0065550474 0.005690294
0.011713933 0.0025300647
